saved_models/classification-3_epoch=19-valid_loss=0.26.ckpt (torch, 584480 bytes, 102 tensors)

T0 f4 [7]
00000000: 5218 4c3e 5a44 373f fa86 443d 6b55 2f3f
00000010: a36e 4a3f 5cc3 da3c 8b1c 403e
0.19931152 0.7158867 0.047980286 0.6848971 0.7907507 0.026704483 0.18760888

_backbone.gflus.feature_masks f4 [6, 34]
00000000: e79c 2b3f 8bcd 3c3f f9d7 7b3f b8f5 783f
00000010: b53c 163f ca99 733f bf03 783f 209f 3c3f
00000020: f2b7 6f3f c15b 8e3f 5eb1 733f 4ec2 733f
00000030: 95f0 803f 2523 793f 7e2e 6c3f 0094 3e3f
00000040: 00af 313f 1ad4 6f3f f458 703f 0178 783f
00000050: 4202 703f c17e 1a3f 22b9 6f3f 0054 423f
00000060: 6eec 703f c5dc 713f cb7f 823f a450 643f
00000070: 5e75 863f 71e8 653f db2e 353f 8d08 813f
00000080: be07 6d3f 35a6 313f 3807 723f a878 053f
00000090: 28d3 8a3e da5e 063f 8987 043f 3277 ee3e
000000a0: 7af5 ca3e e3ee c03e 6f69 063f 3173 d03e
000000b0: 8340 453f 8f7d a93e c624 0b3f ca03 153f
000000c0: 72a7 dd3e 08c1 1c3f 0c68 133f 655f 8f3e
000000d0: 1d11 ff3e 206d f23e fcb4 093f de50 9f3e
000000e0: 21f8 943e ba84 093f ce0e 1a3f d7d5 053f
000000f0: cdb6 db3e a2cd 033f d621 643f b2b1 ff3e
00000100: 6013 173f 09cd da3e a55d d23e 1c2d dd3e
00000110: 610c 5f3f a7c4 d63e a682 c33e c372 0e3f
00000120: c7fc f53e 18d9 013f 83b2 353f 9669 1d3f
00000130: 83a7 7e3e 8649 f33e bfae 0e3f 8bd8 b13e
00000140: 22d2 c33e faa8 e33e 513d bc3e a41d 0d3f
00000150: b34f 133f 1013 953e 0f47 1f3f 4264 0b3f
00000160: 3acd 113f c774 043f bbbf ba3e e65a e83e
00000170: 9d0d f43e 06fd a93e e114 093f 648e 1f3f
00000180: b7f7 a13e a561 323f bced f33e df1b 903e
00000190: c293 013f 4c09 a83e 1f3e 373f 5edc 5c3f
000001a0: 3f3c 6a3f b727 6b3f c91a 653f aae6 103f
000001b0: facc 693f 4370 643f 6efb 643f eecc 6e3f
000001c0: 2454 893f fa2e 553f b518 5c3f 1ea9 633f
000001d0: e2f7 6a3f a473 6c3f fdfc 343f 16ee 7e3f
000001e0: 0b72 6c3f 857c 4a3f 8086 633f 51ce 263f
000001f0: 6224 613f 51d2 703f c98a 683f d582 6b3f
00000200: da6c 4c3f 96d1 6b3f e265 7a3f 61df 713f
00000210: 5f52 383f 926d 6d3f 96b8 2f3f af73 6b3f
00000220: 28ff 903f 21cd 6f3f cf66 4b3f 88b4 453f
00000230: db26 423f c6d6 6b3f 6505 6a3f 39c2 663f
00000240: 1ccc 543f f043 4a3f 805b 843f d153 453f
00000250: dd4d 503f 35ff 023f 018f 693f 4489 6a3f
00000260: 8073 693f 19bc 3e3f 4cf9 3b3f 6fa6 6c3f
00000270: 6ffe 323f 0da3 653f 4c5a 633f b1aa 613f
00000280: 774c e83e 73b4 5d3f ec9c 5a3f 7164 613f
00000290: e1b2 773f 07ce 643f b2a8 3a3f 28ae 5e3f
000002a0: 2470 433f c0bc 643f 6fc2 583f d4f4 d03e
000002b0: 2962 0a3f 7c15 5c3e 9af9 ae3e 4c04 463f
000002c0: 5869 7e3e 6293 e73e c1e0 a53e 3c09 a33e
000002d0: 8592 053f f36c a53e af15 5d3e ac22 ad3e
000002e0: ae29 9c3e 7d28 dd3e 1774 0f3e 0c4e 9a3e
000002f0: 3a27 643e 54c9 ab3e 1b86 823e cd05 b13e
00000300: 2bf7 983e 419f b03e 8718 b13e cfa8 333e
00000310: 2e5c 173d 3882 f03d 19fb ae3e 38e1 0b3f
00000320: 730f b13e 09c4 9e3e cb93 cf3e dfa0 773e
0.6703629 0.73751134 0.98376423 0.9724994 0.5868638 0.9515654 0.96880716 0.73680305
0.93640053 1.1121751 0.95192516 0.9521836 1.007342 0.9731925 0.9225844 0.7444458
0.69407654 0.93683016 0.9388573 0.9705811 0.93753445 0.6034966 0.93641865 0.75909424
0.94110763 0.9447749 1.0195249 0.8918555 1.0504568 0.898078 0.7077462 1.0080734
0.9258994 0.69394237 0.94542265 0.5213723 0.27114224 0.5248848 0.5176931 0.46575314
0.3964041 0.37682256 0.5250463 0.40712884 0.7705156 0.33103606 0.54352987 0.58208907
0.43291813 0.6123204 0.5758064 0.28002468 0.49817744 0.4734888 0.53791785 0.31116384
0.29095557 0.5371815 0.6017884 0.5227942 0.42912903 0.51485646 0.8911413 0.49940258
0.5901394 0.42734554 0.4108707 0.43198478 0.87128264 0.4194691 0.38185614 0.5564386
0.48044416 0.50721884 0.7097551 0.61489236 0.24868588 0.4751703 0.5573539 0.34735522
0.38246256 0.44464856 0.3676553 0.55123353 0.57543486 0.29116106 0.622178 0.54449856
0.56953776 0.5174069 0.36474404 0.4538185 0.47666636 0.33200854 0.53547484 0.62326646
0.31634304 0.69680244 0.47642314 0.28146264 0.50616086 0.32819593 0.71579164 0.86273754
0.9149818 0.91857475 0.89493996 0.56601965 0.91328394 0.892338 0.8944615 0.9328145
1.0728803 0.83274806 0.859752 0.8892993 0.9178449 0.92363954 0.7069853 0.9958204
0.92361516 0.7909625 0.88877106 0.65158564 0.8794614 0.9407092 0.9083677 0.9199651
0.79853594 0.9211668 0.9781171 0.94481474 0.7200069 0.92745316 0.6864103 0.91973394
1.1327868 0.93672377 0.7945375 0.77228594 0.7584054 0.92124593 0.9141448 0.9014011
0.83123946 0.79009914 1.0340424 0.7708102 0.8136881 0.51170665 0.9123383 0.916157
0.91191864 0.74505764 0.7342727 0.9244146 0.69919485 0.8970192 0.8880966 0.8815108
0.45370838 0.8660347 0.85395694 0.88043886 0.9675732 0.8937687 0.7291366 0.8698449
0.7634299 0.8935051 0.8467168 0.4081179 0.5405603 0.2149257 0.34174806 0.77350307
0.24844873 0.45229632 0.32398036 0.31842983 0.52176696 0.32309684 0.21590303 0.33815515
0.3050055 0.43194953 0.14009129 0.3013767 0.22280589 0.3355204 0.2549294 0.34574738
0.29876074 0.344965 0.34589025 0.17544864 0.036953144 0.11743587 0.34175947 0.5464053
0.345821 0.31008938 0.40542445 0.24182461

_backbone.gflus.t f4 [6, 1]
00000000: 9ef3 4f3d 6a4e a73e 46bb 143e 16f2 3f3d
00000010: a4e0 9f3d 6128 983e
0.05076944 0.32677013 0.14524564 0.04686173 0.07806519 0.29718307

_backbone.gflus.W_in.0.weight f4 [68, 68]
00000000: 14fe e73d d972 cd3d 22c3 02bc 02f2 373d
00000010: 923f bcbc 49f3 2d3d ed1b 59bd 6335 803d
00000020: 1227 e53d 5c21 b83d 0dd1 633c 159f 32bd
00000030: 2034 613e 87fe 95bd a089 aa3d 9f6e 75bb
00000040: 825b aa3d cc50 963d abd5 a63c c229 94bd
00000050: 8e1f 17bc 9512 efbb 4d1c dd3b 1d93 a03d
00000060: 03d2 22be 2af2 f3bd 68ee 31be a60e 31bd
00000070: a400 14be 2cba 85bd 8462 b23d 5468 57be
00000080: 9ee6 133e fb20 063c 0d21 143e 3516 3ebc
00000090: 14fd 14be 1cff 4f3e 77a9 1fbe 2653 83bd
000000a0: a67c af3d 05af b9bd fcf5 8f3b 5198 8e3e
000000b0: 29a8 2f3d 2e5f 2abe 95db 053f 6c58 573c
000000c0: 998b 35bc 4666 203e f335 d8be 8a8b 8a3d
000000d0: edb6 193e 4ae3 bcbd 7d50 59bd 5203 cd3d
000000e0: 3da4 0a3e 95a7 74be aa19 d53b e892 f1be
000000f0: aaf9 3fbe 313d be3d a422 22be 1a96 c13e
00000100: d0dc dfbe f36b 1cbe 3be0 7a3e 8f07 8abe
00000110: 47c5 8ebd 6793 97bd 45e2 663d 9a31 163d
00000120: efb3 e93d 8726 3dbd 3290 81bd 77a9 c1bd
00000130: 6d03 11be 8930 db3e 90b9 c63d 14fe 283e
00000140: a1b0 16be d9e4 54bd 2983 173d ba1b 47bd
00000150: 0ebc 903d ef7d 3ebd 7501 333d 2af2 34bd
00000160: 9210 50bc 9b3f 0c3d f7d2 80bc 8f98 febc
00000170: 0f58 aa3d 1746 ac3d 5683 a7bd ad23 afbd
00000180: cdaa 213e 1301 febc a500 46bd 5a4a 6cbd
00000190: ba71 c3bd e588 023d c827 893d 6860 54be
000001a0: 1126 d8bd 50b4 a6bd 091d 8fbe 7404 1a3e
000001b0: 0cd0 5cbc 7f1b 5cbe 38fe 5abc ef85 b43e
000001c0: 8573 7b3e f991 023f 50dd 42bf 3ce0 cb3d
000001d0: 706e 2dbd c65e e9bd f111 51be 8c9e 5ebe
000001e0: 69a7 0fbe f753 023e 90ce 063e 4df3 82be
000001f0: 56e5 06be 0f43 3bbd 3196 d5bd 582a 4e3d
00000200: 5cba b23d 7a63 a7be a132 623e 27dd 0d3e
00000210: fe59 86be abc2 483d c580 443d c365 cbbd
00000220: 1d16 d4bd 31f5 f8bd 7ad6 d63d 1a75 573c
00000230: 1dbc 393d 7650 47bd cd49 1a3d f84d afbd
00000240: 343d a23c 1341 363e 84ad fb3d daca 5e3d
00000250: 7cd6 e43d d330 f3bc 4c73 613d 6b9b 4cbd
00000260: 7e40 6dbc 27be 0abd 96f2 2a3e 3904 24be
00000270: 1c17 9ebb 731d 2f3d 0a64 a13d 7c84 7bbd
00000280: e0f9 8e3d 0000 c43d 2bb3 ba3c 3ef2 b4bd
00000290: 540a c93d 779a 21bd 0f12 5bbd eef1 443e
000002a0: 0112 a33d cac3 8ebd 7c71 a4bc b716 4dbb
000002b0: b513 3f3d 441d 933d 6048 dabd b0c9 c13e
000002c0: 65db c7bd 17c2 c53e a6b9 9b3e 685a 1c3d
000002d0: 8a7f 5f3e 6316 1c3d bdbe 0dbe 1a1f 2dbd
000002e0: b2ce dfbb a066 613e bd32 1cbe d0a9 993e
000002f0: 149a 623b d7ac a23d 4d36 763d 9c55 ae3d
00000300: fc66 6d3e 786a 0a3f 57e5 0fbe 267f e73d
00000310: 5740 623d 4b9e 103e 09be 33be 4276 83bd
00000320: 4b18 04bd c782 11bd ddcb a23e d0ff 49be
00000330: ed0b 97bb c2ae 85bd a8a4 19be 27cc 32be
00000340: c10c 2fbd 5009 b53d 6d71 023e 8705 783d
00000350: 5892 16be 9aa5 213e e77c 3c3c 2e29 3b3e
00000360: 31a2 41bd a6b7 1f3c 4280 343d 568d 50bd
00000370: cc1c a2bd a7d9 533d 65ac 62bd bfdc 23bc
00000380: 163f 87bd 1df4 aa3d 9236 5a3d 165f 343d
00000390: 8945 77bd 974b 8abd f998 86bd 5183 c33d
000003a0: cc34 ec3c 1248 143e 2181 8a3d 33d5 7d3d
000003b0: 5e1f bdbc 1b77 c6bd eec8 f9bd d276 573d
000003c0: 2f99 91bc 7dc1 f9bd 57a7 90bd 848c 79be
000003d0: c446 4bbd e1ff ecbd 76e1 2abe 71e4 7e3e
000003e0: 49a9 f0bd b78d f43d 4199 3abe b52d b0bd
000003f0: 55e9 6cbe f7ce 00be 2820 c2bd 88b3 03be
0.113277584 0.10031671 -0.007981094 0.04490853 -0.022979531 0.042468343 -0.053005148 0.06260183
0.11189093 0.08990738 0.013904822 -0.043608744 0.2199254 -0.07323938 0.08327031 -0.0037449969
0.08318235 0.073396295 0.020365557 -0.07234527 -0.009223832 -0.0072959163 0.0067477585 0.0784056
-0.15900426 -0.119114235 -0.17376101 -0.04322686 -0.1445337 -0.0652965 0.087101966 -0.21035892
0.14443442 0.008186574 0.14465733 -0.011601974 -0.14549667 0.2031216 -0.1559199 -0.06412344
0.08568697 -0.090665855 0.0043933373 0.27850583 0.04288498 -0.1663787 0.5228818 0.01314364
-0.011080646 0.15664014 -0.4222866 0.06764896 0.15011187 -0.092230394 -0.053055275 0.10010399
0.13539214 -0.23892052 0.0065033035 -0.47182393 -0.18747583 0.09289015 -0.15833527 0.3780983
-0.43723154 -0.15275554 0.244996 -0.26958892 -0.069712214 -0.07401162 0.05636813 0.036668397
0.11411273 -0.04617932 -0.06326331 -0.09456151 -0.14161463 0.42810467 0.09703362 0.16503173
-0.14715816 -0.05197606 0.03699032 -0.048610426 0.070671186 -0.04650682 0.04370256 -0.04417626
-0.012699263 0.034240346 -0.015725596 -0.031078605 0.08317577 0.08411806 -0.08179347 -0.085517265
0.15787812 -0.031006372 -0.04834046 -0.057688095 -0.09543176 0.031868834 0.06697041 -0.20739901
-0.105541356 -0.08139861 -0.2795184 0.15040761 -0.013477337 -0.21494864 -0.013366275 0.35258433
0.24555786 0.51003987 -0.76118946 0.09954879 -0.04234165 -0.1139503 -0.20417 -0.21740168
-0.14028706 0.12727343 0.13164735 -0.2557625 -0.13173422 -0.04571825 -0.10429037 0.05033335
0.087269515 -0.32693082 0.22089626 0.13853894 -0.26240534 0.049013775 0.047974367 -0.09931519
-0.1035578 -0.121561415 0.10490127 0.013150478 0.045345414 -0.048660718 0.03766804 -0.08559793
0.019804575 0.17798261 0.12288955 0.054392673 0.11173722 -0.029686367 0.055041596 -0.049952906
-0.014480708 -0.03387275 0.16694102 -0.16017236 -0.004824532 0.042752694 0.07880409 -0.061405644
0.069812536 0.095703125 0.022790512 -0.088352665 0.09816423 -0.03945395 -0.05348402 0.19232914
0.07962418 -0.069709376 -0.020073645 -0.0031294057 0.046649653 0.07183316 -0.10658336 0.37849188
-0.09758643 0.3862464 0.30415076 0.038172156 0.21825996 0.038107287 -0.13842292 -0.04226599
-0.00683006 0.22011805 -0.1525373 0.3001237 0.00345767 0.07943123 0.06011038 0.085124224
0.23183817 0.5406871 -0.1405233 0.113035485 0.05523714 0.14122884 -0.17552961 -0.0641904
-0.03224973 -0.03552511 0.3179616 -0.19726491 -0.004609576 -0.06527473 -0.15004218 -0.1746069
-0.042736772 0.08839667 0.12738581 0.060552146 -0.14704263 0.15785828 0.011504388 0.18277428
-0.04727382 0.009748375 0.04406763 -0.05091604 -0.07915649 0.05172124 -0.05534019 -0.01000136
-0.066038296 0.08347342 0.0532747 0.044035994 -0.06036905 -0.06752699 -0.06572146 0.09546531
0.02883377 0.14480618 0.06762911 0.0619709 -0.023086246 -0.09690686 -0.121965274 0.05260355
-0.017773239 -0.12195108 -0.070631675 -0.24370009 -0.049628034 -0.115722425 -0.16687569 0.24891831
-0.117510386 0.119410925 -0.18222524 -0.08602468 -0.23135884 -0.12578951 -0.094787896 -0.12861454

_backbone.gflus.W_in.0.bias f4 [68]
00000000: aa02 56be 1913 563e eb38 7c3e 905a 003b
00000010: 5b34 2d3e f761 70be 3ffb 873e df75 403e
00000020: cf12 b53d 60fe 273d 0543 6cbe d617 233d
00000030: 365f d83e a549 a43c 913c 913d 0f48 933e
00000040: b0fc c83e 5b86 473d 143a 903e d618 5d3d
00000050: 048f e13d 526c ce3e 6346 b63e 52fb d43e
00000060: cb3b a83e 0aa2 8a3e 9c37 b53b 63aa e33e
00000070: d71b 673c 0618 b53e 58a3 5f3e d365 943e
00000080: 6c78 ae3e dade 0d3e ced8 893e 4515 bc3d
00000090: de84 c2bc 47d5 3f3e 995c 613d e675 e63e
000000a0: 3889 4e3e 0db7 26be e05b ed3d cce2 113f
000000b0: f0d1 ea3d 6d18 9f3d 8353 a93e fdb7 7c3e
000000c0: fce8 fd3d 16ad 163e 9034 aabd 52d0 14be
000000d0: d77a 343d 4845 ed3d 2e65 fbbd 2183 053e
000000e0: 1970 a63d 9c88 ce3d 74a8 863c 20aa 833d
000000f0: c299 3dbe 2a05 07be f2f3 0d3e f9f8 793d
00000100: e7ed 14be 5551 343e e826 2cbe 04f3 dd3d
-0.20899454 0.20905723 0.24631087 0.001958523 0.16914503 -0.2347487 0.26558873 0.18794964
0.08841478 0.041014075 -0.23072441 0.039817654 0.4226014 0.020054648 0.0709163 0.28765914
0.39255285 0.048712116 0.2816931 0.053978764 0.11013606 0.40317017 0.35600576 0.41597992
0.32858118 0.2707675 0.005530311 0.44465932 0.014105759 0.3536989 0.21839654 0.28983936
0.3407625 0.13854542 0.2692322 0.09183744 -0.023744997 0.18733703 0.05501995 0.45011824
0.20169532 -0.16280766 0.115897894 0.5698669 0.11465824 0.07768331 0.33071527 0.24679561
0.12397954 0.14714465 -0.08310807 -0.14532593 0.04406246 0.1158548 -0.12275158 0.13038303
0.0812685 0.1008465 0.016437747 0.06428933 -0.18515685 -0.13185564 0.13862589 0.061028454
-0.14543878 0.1760915 -0.16811717 0.10837367

_backbone.gflus.W_in.1.weight f4 [68, 68]
00000000: 77b2 9b3d b0fe 1e3d 46f8 123d e12d 99bd
00000010: 17d3 d13d ed07 9abd f15f c73c 73a8 6d3c
00000020: d14a a73d 7eab 583c d35f 193e 874f 023d
00000030: 4272 363e 2ae3 7dbd 34a3 fd3c 1a76 643e
00000040: c12c 03be da32 49bd 4f04 023e 4559 553d
00000050: ce9e 07be 4669 313d 7d93 f4bd d9cf dbbc
00000060: 7763 d83c 7d3c a23c af98 dfbc 91f1 e53d
00000070: 3d7a 7a3d 8d03 003e fbef 43be 03f1 37bd
00000080: f2e2 f63b 1c7d ba3d 2470 1b3d c3cf 23be
00000090: ead9 d03d 899f 26bd d8f7 28bc 95eb a03e
000000a0: be42 643d 0373 d63c a93d d9be dc89 ae3d
000000b0: 7379 d03d 6187 c33e 21d6 52be 715d f3be
000000c0: b7a4 5c3e 455f 90bd e708 2ebe 08c8 0a3d
000000d0: 0396 aabd af1b 0dbe 5ee2 59be b854 013e
000000e0: b5c3 c5be b020 ab3e e237 8c3d a817 58bd
000000f0: dff2 3abe f9f7 8b3e 9b3d a73d 3f5e 0cbe
00000100: 77fd 20be 99ee 663e 8d40 633e c1cc 9d3b
00000110: 91b0 37be 2eba d1bd c922 123c acfb 39bc
00000120: 9139 943d a8fd 19bd a472 27bd adaa 39bd
00000130: 6d60 e0bb 4b6d 743d 24cf afbe c3de adbd
00000140: 3cd0 c8bd 8e78 6b3d 8ab8 cf3d 1265 82be
00000150: 5751 9b3d a919 cd3c 1936 1ebd da50 e93b
00000160: 79db 3a3d e774 f33d 3b27 583d 521b 72bd
00000170: feb5 55bd a975 98bd 0704 3c3a 54d0 9d3b
00000180: c053 62bb 0ebc 07be 135d 143d 1de9 24bd
00000190: 972b 2b3c 50b6 da3d 1d97 c7bc 1c65 d5bd
000001a0: 477f 69be ec16 1c3d 18a7 6e3e b8b5 833e
000001b0: 9f24 b73c be20 51be f7d2 d9bd 215d 5d3e
000001c0: 1cc7 443d 0e90 84be 7bac bcba 6985 9bbb
000001d0: 7e53 4e3d 4356 0c3e 84f4 303d d8a4 d63e
000001e0: 09dd 9d3e 65bb 0fbd 7f0a 1b3e 30c0 9c3d
000001f0: b747 133f a010 05bf 7086 1bbf 638c 81be
00000200: 401e ccbe db99 143f b86f 03bd 3a81 623d
00000210: 8085 6c3b 4a7c 7f3e b054 883d 2378 50be
00000220: 9fd7 5b3e f616 00bd a65d 903d ae48 db3d
00000230: 86c3 05b7 bd6d 0d3b cb0f f13d bb46 00bc
00000240: 9a6c 023e c6aa e63d c8c5 0e3e 151d edbd
00000250: fa25 4d3e fa42 58be 9b42 fa3d e561 86bd
00000260: c32a 883d 3454 133d f4e9 83bd 7db3 f13d
00000270: 243f cabd 0a80 4ebd 2ce4 98bc 4b9b 8e3d
00000280: 9a3f d2bc 2b3f a83d a5c6 573d cb84 fb3d
00000290: 999f f03e 6878 a7bd 3a61 083d e88d 443d
000002a0: 00b7 11bd d1a6 233d ae6f 1b3e 69ca 723e
000002b0: 1f83 973e 7752 3e3f b923 6f3e 7f3c 01be
000002c0: 886f 1ebf ac74 123e f8ac 9f3e 84e7 ba3d
000002d0: 6b0a 4d3e a556 16be 97df b43d a6a7 23be
000002e0: d20a 16bd 7d4b 513e d182 07bc beb3 53be
000002f0: 0f95 793d eb47 d9be 11af 3a3d 1b28 8ebe
00000300: 2c02 75be 8b32 22be dbab 2b3e 3f5d 9f3c
00000310: e664 dcbd cb6f a33e 5b8c 023e 4f11 e43c
00000320: 1401 d53d c38d adbd 005c 7cbe efa8 a13e
00000330: f08e 873e 2ac1 843d 5296 263d 2b6a 84bd
00000340: e352 f6bd 5c7d d3bd e808 c9bc a43d 1d3d
00000350: cc28 f93c 9fad bfbb eaba 8c3e 49a1 43bd
00000360: 5659 8a3d eac3 7b3c e15d 333d 1e36 0cbe
00000370: 55ca e53d 817e 033c 963d 41bd 1f22 e2bd
00000380: 3294 14be a1db d4bd 9654 b03d a291 2abd
00000390: 3a32 83bc 9f51 a8bd 459f 0abd cfcd 8b3d
000003a0: 0e7c e03d 7cac 7bbc 6dfd 8cbd e217 c13d
000003b0: 7e36 c13d 5075 ccbd 4adc 273e 907d 0cbe
000003c0: 1b44 a3be d9f1 12be b150 d3be b9fb 813d
000003d0: 3216 26be 56ca 7f3e 92c6 0d3e 5776 62be
000003e0: 5798 4dbe 7df1 e93e 46c3 933e ae64 223e
000003f0: 42d2 743d debe debe 5b1d 823e 227f 43bd
0.07602399 0.038817108 0.035881303 -0.07479454 0.1024534 -0.07521043 0.02433774 0.014505493
0.08168567 0.013224481 0.1497796 0.031814124 0.17817023 -0.06198422 0.03096161 0.22310677
-0.12810041 -0.04912076 0.12696956 0.052087087 -0.13244173 0.043313287 -0.11942194 -0.026832508
0.026414616 0.019804234 -0.027294485 0.11227716 0.06115173 0.12501355 -0.19134514 -0.04490758
0.007534378 0.09105894 0.037948743 -0.15997224 0.10197814 -0.04067949 -0.010312997 0.31429735
0.055727713 0.026177889 -0.42429855 0.08522388 0.101794146 0.38189223 -0.20589496 -0.47532228
0.21547209 -0.07049421 -0.16995583 0.03388217 -0.08329394 -0.13780092 -0.21277758 0.12629974
-0.38625875 0.33423376 0.06846596 -0.052756935 -0.1825671 0.27337626 0.08166047 -0.13707827
-0.15721689 0.22551955 0.22192593 0.0048156683 -0.17938448 -0.10240589 0.008919426 -0.011351507
0.072375424 -0.03759542 -0.040880814 -0.045328785 -0.0068474323 0.059674542 -0.34337723 -0.08489754
-0.098053426 0.057488017 0.1014262 -0.25467736 0.07583874 0.02503665 -0.03862581 0.007120234
0.04561946 0.11887532 0.052771788 -0.059108086 -0.052175514 -0.07444317 0.0007172231 0.0048160944
-0.0034534782 -0.13255331 0.036221575 -0.040261377 0.010447404 0.106793046 -0.024364049 -0.10419676
-0.22802459 0.038107798 0.23305929 0.25724578 0.02235633 -0.20422646 -0.106359415 0.21617557
0.048041448 -0.25891155 -0.0014394665 -0.0047461283 0.050372593 0.13704781 0.04320194 0.4192264
0.308327 -0.035090823 0.15140723 0.07653844 0.57531303 -0.5197849 -0.6075201 -0.2530242
-0.3986683 0.58047265 -0.032088965 0.05529902 0.0036090314 0.24949756 0.06656778 -0.20358329
0.21468972 -0.031271897 0.07049112 0.10707222 -7.972942e-06 0.0021580302 0.117705904 -0.007829363
0.1273674 0.11263041 0.13942635 -0.115778126 0.20034018 -0.211193 0.12219735 -0.06561641
0.06648781 0.035968974 -0.064411074 0.11801813 -0.09875324 -0.050415076 -0.018663488 0.069632135
-0.025665093 0.08215173 0.052679677 0.122811876 0.46996763 -0.081772625 0.033295847 0.047986895
-0.035574913 0.03995401 0.15179321 0.23710026 0.29592225 0.7434458 0.23353471 -0.12620734
-0.61888933 0.1430232 0.31186652 0.09126189 0.20023505 -0.1468149 0.08831709 -0.15981922
-0.036631413 0.20438953 -0.008270935 -0.20674035 0.06093317 -0.42437682 0.045577113 -0.27764973
-0.2392661 -0.15839593 0.16764776 0.019453643 -0.10761432 0.3192123 0.12748854 0.027840285
0.10400596 -0.084743045 -0.2464447 0.315742 0.2647624 0.064821556 0.0406707 -0.064655624
-0.12027528 -0.10326645 -0.02454038 0.038388863 0.030414961 -0.0058495547 0.27486354 -0.047761235
0.06755321 0.015366534 0.0437907 -0.13692519 0.112202324 0.008025766 -0.047177874 -0.11041664
-0.14509657 -0.103934534 0.086098835 -0.041642793 -0.01601516 -0.08218693 -0.033843298 0.06826364
0.109611616 -0.015360948 -0.06884275 0.094283834 0.09434222 -0.09983313 0.16392627 -0.13719773
-0.31887898 -0.1435007 -0.412725 0.063468404 -0.16219404 0.24979529 0.1384528 -0.22115456
-0.20077644 0.45692053 0.2885992 0.15858719 0.05977083 -0.43504995 0.2541302 -0.047728665

_backbone.gflus.W_in.1.bias f4 [68]
00000000: 77eb eebc 20fe 0ebe 70e5 4a3e a491 16be
00000010: 22c2 ab3c 416a 6bbd 5410 b23e 71e9 9ebd
00000020: 1e9b bb3e fd05 883b 509c 3abe b363 59bd
00000030: e6a0 ae3c 5ce3 e63e 1f6b 1d3e 0aa4 a7bd
00000040: ce9f 2d3f 75ba ba3d ea57 193e db32 8dbd
00000050: ade7 3a3e 5633 73bd 86ca b03c acdf 1fbe
00000060: e23d b73e 4b1b 95bb d3ef 853e f3a2 303d
00000070: 7894 d5bd eeed 713e 5f73 b03d f3d9 d83e
00000080: cc17 26bd 0b37 253e 5995 b13e 49ed 8c3e
00000090: c7bb 103e 3637 10ba d765 153e ea34 4b3e
000000a0: 807b 9d3e 52e3 b43e 0d72 233e a082 a43e
000000b0: 396c 693c f229 223f bca6 993e d7e4 0a3e
000000c0: 1418 f73c aee6 7cbe 6a4c 873e 85ec 7d3e
000000d0: d734 5c3e d653 3d3e 85fb 8f3e 762c 5b3e
000000e0: 7536 483e f555 f13e 035d 443e 474c 9cbc
000000f0: c2d0 793d 7c45 893e 6ca3 913e 5453 7b3e
00000100: e301 453e 9585 863e e304 913d 8d90 10be
-0.029165013 -0.13964128 0.19814086 -0.14703995 0.020966593 -0.05747438 0.34778082 -0.07759369
0.36641783 0.0041511045 -0.18223691 -0.053073596 0.021316957 0.45095336 0.15372895 -0.08185585
0.6782197 0.09117595 0.14974943 -0.068944655 0.1825244 -0.05937513 0.021580946 -0.15612668
0.357894 -0.0045503727 0.26159534 0.04312415 -0.10428709 0.23625919 0.08615755 0.42353782
-0.04055004 0.16134278 0.34684256 0.27524784 0.14134131 -0.0005501391 0.1458963 0.19844404
0.30758286 0.35329682 0.15961476 0.3213091 0.014246994 0.63345253 0.3001002 0.13563858
0.030162849 -0.24697372 0.26425487 0.24797256 0.21504532 0.18489012 0.28121582 0.21403679
0.19552024 0.47135893 0.19176106 -0.01907934 0.060990103 0.26810825 0.28444993 0.24543506
0.19239001 0.2627379 0.0708101 -0.14117642

_backbone.gflus.W_in.2.weight f4 [68, 68]
00000000: 680d 88be 656e a63d d3be 94bd d151 1b3d
00000010: 1a8a b53b b236 9b3d 7577 f5bc 8e4d 083e
00000020: 3e0b b8bc c13b 2bbd f319 10bc 1790 25bc
00000030: 8a1e 503c 97da bfbd a408 913c cea8 a8ba
00000040: 1e48 3c3c 794d 16bd 5715 153e 049c cdbd
00000050: bdfb 243d e0a6 943d bada aebc 6711 b03d
00000060: 66d7 00be 9ef4 983d 81cb 35be c074 92bd
00000070: e5bc ec3d 1679 053e 09c7 3dbe 0a46 b8bd
00000080: 6b92 1d3e ca64 94bc d38d 0ebe 5912 443d
00000090: ec63 163e 9182 52be 91f1 5bbe 53a7 703e
000000a0: 7961 b13e 57e9 89be 17db 99be 6679 8ebe
000000b0: 6cb3 0abf 4b65 a83d ec81 b8be 0e40 22bf
000000c0: 89ab 54be 128b a8bc 5dd1 0a3e c2b9 f2be
000000d0: fe28 313e bd1d a3be e931 b33a d7f2 1b3e
000000e0: d36c 1fbf 0a32 76be 73db 66be b6cc 49be
000000f0: 891b 1dbb 7ef0 423e e188 783e 1e9f a23e
00000100: c2dd 98bc d04b cc3e d9df 18be 08d2 9cbd
00000110: 1752 38bf e125 bdbd 3df7 b4bd ee02 b9bc
00000120: e052 90bd 4bb5 febc 402d 023f 520b 7c3d
00000130: a04c 9a3d 2449 9a3d cb7d b43b e1f3 41bd
00000140: b65f 81bd 1c13 24be 55e3 863d 0aba 253b
00000150: 20fe 5eba 227d 073d 19b4 c9bb b904 f83d
00000160: d0d2 73bd 38d8 2b3e 6c56 47bd ad68 783d
00000170: d632 0c3e b391 bebb 6a39 21be 3a78 30be
00000180: f336 f63d a378 5ebe 2f80 34bc e9f1 ac3d
00000190: 3089 8bbd d5a1 e83d 9861 c7be 2c0e 1cbe
000001a0: a21a 8e3d eee3 903e 9fed a23d c99e 15be
000001b0: c177 6b3e 9b8c afbd 35ef 3cbc 40f6 35bd
000001c0: 2efd d13e 022a 213e a964 88be fd3d 19be
000001d0: 65ac 75bf e909 fb3e e230 4b3e d32f 853d
000001e0: f81b d53c 3dd7 d63d adbf 7c3d b1e7 c03d
000001f0: 7f9d 48be 0788 fa3d 7a9d 883e 71d5 f63e
00000200: d218 86bd aea3 59be 11f8 443e e6b0 b6bd
00000210: cd01 eb3e 5dc7 b3bd 6f71 3fbe ec39 2bbd
00000220: 499f 023e 6702 05be 702b 243d 0a8c 3d3e
00000230: 19c2 a2bd 9c83 243d fe51 09bc a6c4 7cbd
00000240: 562c a03d 1e09 313e 544c 1c3e d9dd ddbd
00000250: 948b cb3c b8bd 8e3d d24d d43d e953 c1bd
00000260: 1544 c93d 9ced b73d 93f3 273d fcc4 283c
00000270: df1f 843c 695f adbc df4f 4dbd c59c 0bbe
00000280: db65 13be 7529 94bd fdda bdbc 456f 0f3e
00000290: e0b7 11bd 033b 34be 58c2 f03d 8dc6 973c
000002a0: f094 cfbd 9868 d33d f553 903e 0b7c d2bd
000002b0: 644f a43e 7341 133e 0071 8d3e da96 233e
000002c0: 4c93 4f3e 9e8b 34be 3aa4 1dbc 17fb 873e
000002d0: 726b 5abe 958c 85bd e4f7 693d 54c3 e5bd
000002e0: e305 eb3e f27f 273e 6d1e 313d 1b68 1fbf
000002f0: d75a 3bbe fbbc f03d 52c1 403e fb11 82be
00000300: d8d3 62bd 5935 aabd 4dc7 49be d4e6 4d3e
00000310: 11b9 5fbe ece0 37be cfb1 20bd d2c4 99bd
00000320: b7bb 6abd 9bce e13e 85fe d0bd e590 3dbd
00000330: 4fd7 3fbe 0050 903d a327 f2bd f5bb 29bd
00000340: 0f4e 29be 3866 13be e22e 78be f7f4 f7bd
00000350: 5399 0dbd c757 f73d 4cf3 d03c 0d39 cd3c
00000360: 7d13 023d b184 56bd 6d4c dcbd db93 02be
00000370: 8892 a43c 8867 8a3d 777e c83d 3cfe f33d
00000380: 74f9 05be 0de5 9b3c 7e29 8ebc 057f 063d
00000390: f5be 5d3d 4e34 f7bd d0ef b4bc 3838 213e
000003a0: 6430 87bd d2a7 6cbd 56d9 e4bd 784a a93c
000003b0: d083 f0bd fb99 233d b393 96be 9314 9b3e
000003c0: 4791 34be 313b 9cbe c05f 00bf 59b2 863e
000003d0: cc15 a8bd ed28 91be 8f08 a43d f714 353e
000003e0: 76af 2ebd 819a babe 0bcf 2e3e 277e 873d
000003f0: d4aa 9b3e 559d 3cbd d628 97be ad7c 24bf
-0.26572728 0.08126525 -0.07262959 0.037919823 0.0055401446 0.07578792 -0.029964188 0.13310835
-0.022466298 -0.041805033 -0.008795249 -0.0101051545 0.012702594 -0.093678646 0.017704315 -0.001286769
0.011491803 -0.036694977 0.14558922 -0.10039523 0.04027914 0.072583914 -0.021344531 0.08597069
-0.12582168 0.07468532 -0.17753412 -0.071511745 0.11559466 0.13034472 -0.18532957 -0.08997734
0.15387885 -0.018114466 -0.13921289 0.04786906 0.14686555 -0.2055762 -0.21478869 0.23501329
0.34644678 -0.26935837 -0.30049965 -0.27826995 -0.54180026 0.08222445 -0.36036623 -0.6337899
-0.2076856 -0.020574126 0.13556428 -0.47407347 0.17300794 -0.31858626 0.0013671491 0.15229355
-0.6227543 -0.24042526 -0.2254465 -0.19706997 -0.002397271 0.19037053 0.24270965 0.31762022
-0.01866043 0.3990159 -0.14929141 -0.07657248 -0.7200026 -0.092357405 -0.088362195 -0.022584405
-0.07047057 -0.031092307 0.50850296 0.061534233 0.07534146 0.07533482 0.0055081598 -0.04735172
-0.063170835 -0.16022915 0.06586329 0.002528789 -0.00085064955 0.03307832 -0.0061555025 0.12110276
-0.05952722 0.167817 -0.048666403 0.0606467 0.13691267 -0.0058157085 -0.15744558 -0.17233363
0.120221995 -0.21725707 -0.0110168895 0.08444578 -0.06813276 0.11358992 -0.38941646 -0.15239781
0.069386736 0.28298897 0.07955479 -0.14611353 0.22994901 -0.0857174 -0.011531641 -0.044424295
0.41013473 0.15738681 -0.26639298 -0.14965053 -0.9596618 0.49030998 0.19842866 0.06503262
0.026014313 0.10490272 0.061706234 0.09419192 -0.1959133 0.122329764 0.26682645 0.48209718
-0.06547703 -0.21253845 0.19235255 -0.089204594 0.4589981 -0.0877826 -0.18695615 -0.041803285
0.12756075 -0.12989198 0.040080488 0.18510452 -0.079471774 0.040164575 -0.008381365 -0.061710976
0.078209564 0.17288634 0.15263492 -0.1083333 0.02484683 0.0696978 0.103664055 -0.09439833
0.09827439 0.08980867 0.041003775 0.010300871 0.016128479 -0.02116366 -0.050125 -0.13634022
-0.14394324 -0.0723447 -0.02317571 0.1400729 -0.035575747 -0.17600636 0.11755818 0.018527294
-0.101358294 0.10322684 0.28189054 -0.102775656 0.3209182 0.14380436 0.27625275 0.15975514
0.20271033 -0.17631385 -0.009621674 0.26558754 -0.2133005 -0.065209545 0.057121173 -0.112188965
0.4590293 0.16357401 0.043241907 -0.6226823 -0.18296371 0.11754795 0.18823746 -0.25404343
-0.05537781 -0.083109565 -0.19704933 0.20107585 -0.21847941 -0.17956895 -0.03923207 -0.075082436
-0.057307925 0.4410294 -0.10204796 -0.04628076 -0.18734477 0.07046509 -0.11823966 -0.041439015
-0.16533683 -0.14394462 -0.24236634 -0.1210727 -0.03457005 0.12077289 0.025506638 0.025051618
0.031756867 -0.052372638 -0.107567646 -0.12751715 0.020089403 0.06758028 0.09789746 0.11913726
-0.1308344 0.019030118 -0.01735377 0.03283598 0.05413719 -0.12070523 -0.022087008 0.15744102
-0.06601027 -0.057777233 -0.11174266 0.020665392 -0.11743891 0.03994177 -0.2940956 0.30289134
-0.17633544 -0.3051391 -0.501461 0.26307943 -0.082072824 -0.28351536 0.08009445 0.17683779
-0.0426478 -0.36446002 0.17071168 0.066158585 0.3040377 -0.04604848 -0.29523343 -0.6425274

_backbone.gflus.W_in.2.bias f4 [68]
00000000: 0685 383d ad46 0ebd d30a e33c d926 473d
00000010: 6bd0 0a3e 50ee b33e dd98 b83d fed1 1d3e
00000020: 69d1 e93d 1598 95bc ca49 b5bd f110 193d
00000030: a8d5 e0bb 1d38 a73d 5816 153e 5d6a 96bc
00000040: be3c b13e 29f1 bd3e 554f 813d aed4 8a3e
00000050: a99a 8dbc ea56 313e ef65 a93d d176 313e
00000060: 7441 f43d 10df 8fbd 8537 c1be 77d5 183e
00000070: b426 49bd 0fcc cb3e be23 003e b5f4 bd3d
00000080: 729f 863e f79f 993d 338c 473e b90f 443e
00000090: e040 993e 8e39 ae3e 94d2 963e f513 a03e
000000a0: c51c a73e 3a67 173f 20ad 8f3e bfde e73d
000000b0: 32c1 863d 5992 f73e f698 fc3e b72d 033f
000000c0: 059e af3d 11f6 af3d 9b08 0d3f 2fa9 023e
000000d0: a05f 793e e499 953d 81d1 1c3e 5386 963e
000000e0: 150c b23e 6786 9d3e a88c 473d 6db2 8c3e
000000f0: f979 423e 93dd e53d ae43 223c dd35 843e
00000100: 6856 5f3e 2a98 3c3e c713 0e3e 4905 e03d
0.045048736 -0.03473537 0.027715122 0.048621032 0.13556068 0.35142756 0.09013531 0.15412137
0.11416895 -0.018260995 -0.08851965 0.037369672 -0.0068614073 0.08165 0.14559305 -0.018361265
0.34616655 0.37098053 0.063139595 0.27115387 -0.017285662 0.17318311 0.082713954 0.17330481
0.11926547 -0.07024968 -0.3773767 0.1492518 -0.049109176 0.39804122 0.12513635 0.0927519
0.26293522 0.07501214 0.19487076 0.19146623 0.29932308 0.34028286 0.29457533 0.31265226
0.32639137 0.59141886 0.2806177 0.11321782 0.06579818 0.48353842 0.4933545 0.5124163
0.08575062 0.08591855 0.55091256 0.12759851 0.24352884 0.07304743 0.15314294 0.29399356
0.34774843 0.30766603 0.048718125 0.27479878 0.18991841 0.112239026 0.009903831 0.25822344
0.21810305 0.18417421 0.13874732 0.10938508

_backbone.gflus.W_in.3.weight f4 [68, 68]
00000000: 96e2 1f3d 2f80 b43d 8edf 013e 8b19 09be
00000010: 2c3a 2c3d 0ee8 7dbd 47e8 a4bd 2a10 ffbc
00000020: d742 6abd eecb 1dbc ff3f b2bd 7982 8b3d
00000030: fae1 ae3d 7013 f2bd 3195 06be 8d21 eabc
00000040: 9724 7f3d b260 213e 350b 83bd 04d9 ce3c
00000050: b657 273d bb29 313d c498 9d3d 9569 383d
00000060: 6a9c bb3d eedf 24bc b18e f83d a07a 033d
00000070: bc63 6cbe e158 b13d bdf3 a73d dfba c63d
00000080: 81d1 1e3c 91b4 2d3d c621 4d3e 31ab d3be
00000090: bca8 223e 6ecf 66be 91ea 41be 729b 86be
000000a0: d091 3c3e ae28 85bd 75c5 24be 11e3 2bbe
000000b0: 4fc1 18bf 9887 b43e 2f27 f8be 9dcf 1abe
000000c0: 1553 823d d541 98be 20ef 16be 9768 b23d
000000d0: dbbe bb3d 07b9 20bf 36b8 cc3e 8486 903e
000000e0: a7f7 c8be f69a 82bd e585 14ba 4d2d e3be
000000f0: e769 68be 2726 b23e 6695 03be 99bb debd
00000100: ace7 1abf 63c3 e43d 7ecb 423e b9ab e13d
00000110: 56fc f23b fb2c 02be 6b9d 1cbe 9f1c 173c
00000120: 491d 953d 60eb 5cbd 1d35 d13d 2d2d 043e
00000130: 27f5 933d 7d1d ee3d c589 d0bd 9d29 b03d
00000140: 32f1 d83c d540 cdbd c11f e3bd ab8f b2bc
00000150: fabf d43d f8c6 163e e335 f53d 298d b1bd
00000160: 79a1 da3d fafa 913d a666 f43d d2a4 bdbd
00000170: 3956 093e 0314 413c dd12 363d 3a44 06be
00000180: 385b cdbd a503 b1bd 3514 edbc 0dc8 153d
00000190: 73ea 36bd bfaa 0a3d 6b99 1c3e 5188 103f
000001a0: d661 0fbe 7765 aebd 7c5e a8be 5f06 bbbe
000001b0: 815b 13bf 5246 20be 2b39 ac3d e4df 8a3d
000001c0: 2718 92ba c343 8bbe 1e8e cd3e 2ab7 d83e
000001d0: 638d 33bd 48bd f93e 73d4 07be 8717 40be
000001e0: e5ba 1e3d a473 153d f119 9d3c a379 8cbd
000001f0: 95f5 36be 65b2 22be 32b1 98bd adc0 3b3e
00000200: 87fe 153e e3e6 f1bd 3a2c 7cbe 4a6c 8a3e
00000210: 43a5 61be b00c 1ebf cafa 71bc 0ef9 263e
00000220: 355b 92bd 56cd c6bd d194 543d 5473 d6bd
00000230: d80f 1f3c 9276 a8bd b0e5 53bd 54e7 2bbd
00000240: f44b 013c ee62 c5bc 719d 09bf be6f c63d
00000250: 5a0b 453c 9c1c c2bd 7f95 1d3e f96f ebbc
00000260: 336a f4bc b558 3c3c 60fb c23c 61d1 f33c
00000270: 384c e83d 5056 383d 0bd5 de3d e61b 0c3d
00000280: 9325 a8bd f183 f63c e18f afbc 941f 183e
00000290: 0e17 1a3c e4dc 6f3d 92bb 1fbd 520f 893d
000002a0: db4c 583d 3d7d dd3c f458 0ebe fe39 e6be
000002b0: 396b 1c3f da6f 98be d9fa 52be bcf1 babe
000002c0: 35da 21be 61da b3be c9d5 3cbe f0d0 02bf
000002d0: 2958 28bf 5354 93bd 5422 06be 743d 03bf
000002e0: f898 32be 3979 553d 2b4f 403d dc61 143e
000002f0: cf3a 2c3e 4b55 48be f337 2ebd 4b86 203f
00000300: 7fb0 e9be 32f0 97bf 6c2b 37be 2fbf 1e3e
00000310: 6b11 fc3d 20f5 2f3b 028a 31bd 8543 cf3e
00000320: 3e63 0cbe a7aa c43d 40b2 36be fe30 ffbd
00000330: 801c aebd df91 c33d 2be1 113e 8e8c 8e3c
00000340: f19b a3bd 3062 41bd ae5e d93d b1f4 843d
00000350: 8486 b13d 26c7 c33d 7523 debd a68a 64bd
00000360: 5757 bf3d 5c10 80bd 77a0 0dbe 44b9 e03c
00000370: f133 b6bc 6d03 f73d 495a 59bd de51 dfbc
00000380: 9b6b 78bd 4650 a13d 4670 c7bb 31dd 69bb
00000390: f519 87bd 1357 f03d cbe4 c73d 6ad5 03be
000003a0: ea7f 48bb 77da 2cbd 9f78 c33c 9c5d a8bc
000003b0: 2bfb 3a3d a93a 04bd 82c8 0bbe 9193 8cbe
000003c0: 6920 14be be03 ac3d 1f95 af3e fdf7 aebc
000003d0: 5395 033e e5a0 d83c a67c 183d ae4a aabe
000003e0: af73 bcbe ba4f 383e 2440 b6be e1eb 8ebe
000003f0: 558a 9abd f9e6 a03e 998f c13d fd19 4ebe
0.03903445 0.088135116 0.12682936 -0.1338865 0.042047665 -0.061988883 -0.08052116 -0.031135637
-0.05719265 -0.00963114 -0.087036125 0.06811995 0.08539195 -0.11820114 -0.1314285 -0.028580451
0.062290754 0.15759543 -0.06398622 0.025249965 0.040855132 0.043252688 0.07695153 0.045022566
0.09160693 -0.010063155 0.12136591 0.032099366 -0.2308492 0.086595304 0.08200786 0.097036116
0.009693504 0.04240853 0.20032415 -0.41341546 0.1588468 -0.22540066 -0.18937136 -0.2629047
0.18414998 -0.065019 -0.16090949 -0.16785838 -0.59669966 0.352597 -0.48467395 -0.1511826
0.06363503 -0.29737726 -0.14739656 0.08711355 0.09167262 -0.6278233 0.39984292 0.28227627
-0.39251444 -0.06377213 -0.0005665704 -0.443705 -0.22696649 0.34794733 -0.1284996 -0.10875625
-0.60509753 0.111700796 0.19022939 0.110190816 0.0074153347 -0.12712471 -0.15294425 0.009223132
0.07280976 -0.05393541 0.10215209 0.12907858 0.072244935 0.11626718 -0.101825275 0.08601687
0.026482198 -0.10022131 -0.11090041 -0.021797022 0.10388179 0.14724338 0.11973169 -0.08669502
0.1067533 0.07127948 0.11933641 -0.092599526 0.13411798 0.011784556 0.044451583 -0.13111964
-0.10027164 -0.08643273 -0.0289403 0.036567736 -0.044657182 0.033854242 0.152929 0.56458
-0.14002165 -0.08515447 -0.32884586 -0.36528298 -0.575615 -0.15651825 0.084093414 0.06780985
-0.0011146114 -0.27200136 0.4014749 0.42327243 -0.04383601 0.48777223 -0.13264637 -0.18758975
0.038752455 0.036487237 0.019177409 -0.06859138 -0.1786712 -0.15888365 -0.07455672 0.18335219
0.14647876 -0.11811616 -0.24626246 0.27035743 -0.22035699 -0.6173811 -0.014769265 0.16305944
-0.071463026 -0.097071335 0.051899735 -0.10471216 0.009708367 -0.082257405 -0.05173272 -0.04196866
0.007891644 -0.024095025 -0.5375586 0.09689282 0.012026632 -0.09478113 0.1538906 -0.028739916
-0.029835796 0.011495759 0.023801506 0.029762926 0.113426626 0.04500419 0.108804785 0.034206294
-0.08210292 0.030092211 -0.021430911 0.14855796 0.009404911 0.058560267 -0.03899724 0.06692375
0.05280767 0.027037257 -0.1390112 -0.4496612 0.6110111 -0.29772836 -0.20603503 -0.36512554
-0.15805896 -0.35127547 -0.18440928 -0.51100063 -0.6575952 -0.07193818 -0.13099033 -0.51265645
-0.17441165 0.05211756 0.0469505 0.14490455 0.16819309 -0.19563787 -0.042533826 0.62704915
-0.45642468 -1.1870177 -0.17887658 0.15502618 0.1230801 0.0026848987 -0.043344505 0.404812
-0.13709733 0.09602862 -0.17841434 -0.124605164 -0.0850153 0.09549307 0.14246051 0.017401006
-0.07988728 -0.04721278 0.10613762 0.06491984 0.08668235 0.09559469 -0.10846607 -0.055796288
0.09342831 -0.0625312 -0.13830744 0.027432092 -0.022241564 0.120612 -0.05306462 -0.027260717
-0.060649496 0.07876639 -0.006086382 -0.003568482 -0.06596748 0.11735358 0.09760436 -0.1287438
-0.003059382 -0.04220053 0.023861228 -0.020552449 0.04564969 -0.032282505 -0.13650706 -0.27456334
-0.14465488 0.08399151 0.34293458 -0.021358484 0.12849931 0.026443908 0.03722825 -0.332601
-0.3680701 0.17999163 -0.3559581 -0.27914336 -0.07545916 0.31426218 0.09451217 -0.20127101

_backbone.gflus.W_in.3.bias f4 [68]
00000000: 60f2 b43d a46e 973d 1c43 88be f925 293d
00000010: 310c 0a3d fbe6 853d 36ee a53d 8627 aabc
00000020: 6f5c 9d3d cd19 1d3d 7d84 11be 83a3 723d
00000030: c58c 1d3e 1bef 773e ba90 0e3e 8519 873e
00000040: 643f 98bc 7d6d 8abe ef48 c93d d0d3 9a3e
00000050: c6bd d5bd 4c0b 6b3d 177b 2c3e bf83 bf3e
00000060: ec89 0dbb 3599 253e 033f 283e 23bc 193e
00000070: 1c36 c83d 70eb b73d 1a06 38bd 8fce 1f3e
00000080: 6ac3 173d e68b 243e ba72 023e a858 853e
00000090: 6c59 bc3e 9dd8 da3d 4708 c23d 62be 803e
000000a0: 005d 003f af36 cf3e 964b 913e 254f 843e
000000b0: a8c7 8e3e 6db4 693e c7bb 9c3e a664 d13d
000000c0: a0e2 633e 96f7 87bd 4be2 553e 088d 7e3e
000000d0: 399c 893d 87d7 063e bf03 773e 7b8a f43d
000000e0: 7d44 973e 6345 7e3e 3824 623e 7c5f 9b3e
000000f0: b3c3 183e 244f 213e c5d4 6d3e d7a8 913e
00000100: 33c4 a53e 3ff6 fcbc 4203 1b3e 977d 113e
0.08835292 0.0739415 -0.266137 0.04129598 0.033703033 0.06538197 0.08102076 -0.0207708
0.07683646 0.038354684 -0.14210697 0.05923797 0.1538573 0.24212305 0.13922396 0.26386657
-0.018584915 -0.27036658 0.09828364 0.30239725 -0.10436587 0.05738382 0.1684383 0.37405202
-0.00215971 0.16171725 0.16430287 0.15013175 0.097759455 0.08980453 -0.044927694 0.1560614
0.037051596 0.16068992 0.12739077 0.26044202 0.36786973 0.10685847 0.09474235 0.2514525
0.50141907 0.40471408 0.2837798 0.25841632 0.278867 0.22822733 0.30612013 0.10224275
0.2225442 -0.0663902 0.20887105 0.24858487 0.0671925 0.13168155 0.24122523 0.119404756
0.2954444 0.24831156 0.22084129 0.30346286 0.14918403 0.15752846 0.23225696 0.28449127
0.3237625 -0.030879138 0.15137962 0.14208065

_backbone.gflus.W_in.4.weight f4 [68, 68]
00000000: 049d b73d 8810 13bd ad1a 3eba 9e4d dabd
00000010: d885 bf3c 2cd0 1cbe cd2f 22be 8f52 f8bc
00000020: a808 85bc 3db9 9b3d 9b52 6fbd f018 e0bd
00000030: 95cb 0e3e 171a 15bb 69df a93d c1a2 36bb
00000040: 640c b3bd 8d4e b6bd cad6 c0bd 8bcb f6bd
00000050: f5bb 833d 6692 7bbc 5e73 d2bd 2a4a 2bbc
00000060: ebd2 02bd 9a63 47bd 53e0 803d 9299 13be
00000070: 6791 4abe d657 6b3d b8b2 903d e622 b5bd
00000080: 6f2b ac3d e870 04be 1e8c dbbd 4748 33be
00000090: ed33 113e 9c90 9f3d 7a66 1dbd 816c 643d
000000a0: bd1d 29be 6d2f 14bf f864 87bd 893e e9bd
000000b0: 2f43 04be da86 30be 4a2d b63d 40d2 20bd
000000c0: 3bdb 38be 9c39 f43e 383b cabd fd1a 023e
000000d0: 4837 bf3e 377b 4d3d 0a34 5dbc 18a6 62bd
000000e0: 1b05 93be 1497 5fbd 50c9 9bbd e0eb 04be
000000f0: eff4 31be dbf4 bf3d 76fc debd d33e 85bc
00000100: aaeb 523e a15e 633e b9cd f7bb a6f6 a9be
00000110: 1133 2abf 170f 2dbd 4767 e8bc 290c ccbd
00000120: 5bbb 0b3d 4648 a2bc 1dfc 823d 45f9 af3d
00000130: beee bcbd 2d3f b1bd 52b2 a03c 26f8 e13d
00000140: 5a2e 0c3e 8f31 833d 1bcc d03d 9c30 af3d
00000150: d3cc 17be 0851 143d 99f6 c0bd d4a3 68bd
00000160: e8c2 3e3d 40c6 bbbc 6e59 4fbd 0849 1d3e
00000170: a114 1c3d d4c1 f33c 6bde 6fbb 25c0 2a3d
00000180: 3af7 65bd 96a4 83bd 2c29 b4bc 560d 9d3d
00000190: 3c6b aabd cb22 81bd 6162 a63e 2846 a6bd
000001a0: ad13 2f3e 9397 e2bc c644 c4bd 29bd 9ebe
000001b0: d583 ebbc e80e c0be ba0f 2dbe 452e 5b3c
000001c0: 7352 d23e 70d4 a83e 1a46 e3be aa25 c4be
000001d0: ae05 a1be 0beb b23e ef3a 9fbc e8db 233e
000001e0: b9ae 853e f413 69be e57b 723e 2c5d 8b3e
000001f0: 74cb a1be f998 a03c 3a7c 64be aa54 5b3d
00000200: 7eca a73e 3e66 453d 1c21 9ebe 15a3 df3d
00000210: 1a80 09bf e160 f83d 0bc9 b1be 8cd9 aabd
00000220: 26da fc3e ed68 0cbe 3120 49bc 92ae c33d
00000230: 22d8 f0bd fb3f 56bd ad7b 2e3d a302 b4bd
00000240: 1c1a 9dbd 18bc 8cbd 95d0 8a3d 82cc debd
00000250: 4476 1b3d 3d49 48bb e0a3 89bd 168a f43c
00000260: a971 70bd 0d3b a6bc 4f14 e7bd 7d95 b23d
00000270: 6308 2ebd ca36 8cbd 197e 62bb 2d80 03be
00000280: 3e68 a1bd 21a2 10bd 4bce 88bd 4df0 c1bd
00000290: 0f19 f9bc 58dc 76bb 796f 873d bc72 cbbc
000002a0: 2157 c0bd ee59 d33d 8702 c93e 62a8 ea3c
000002b0: 0b45 85bd 51bb 9d3e ff45 113f bf9d a83e
000002c0: e2ba 6bbe 7b21 36be c57f b03e c129 103f
000002d0: d64a 993e e539 ffbe 74d0 e6bd 2729 2ebe
000002e0: e710 843e 8b4e c5bc 1aac 1b3e 591e 4b3e
000002f0: 0093 f23d 1eba b13e 64f9 bdbd ced7 0cbf
00000300: 738f aa3e 4cac c73e be34 ac3d dade a33d
00000310: 6432 c9be a0ef 23be af8a 983e 387b 03bd
00000320: f8c3 50bc 2a36 123e f20e 8ebd e540 adbe
00000330: 49ac 913e f4c5 d43d 3de3 8d3d 6771 723d
00000340: 5442 e73b 3b43 113d 213f 2fbe 2739 05bd
00000350: 701d 69bb bfed 553d 0f6d 39be 0cd6 ba3d
00000360: 8c06 30bd 2f31 18bd 7c1e 3e3d 635a 823d
00000370: 886b 8f3d c6ec dcbc 04a7 ae3d 9451 66bd
00000380: 3f19 973d 1d4b b93d 7430 e53c 1656 ac3d
00000390: bc31 743d ee6f 113e 283e 953d 5ecc 9c3d
000003a0: 95c4 9ebc 218e a8bd 28e5 a5bc 3b6e bfbd
000003b0: c290 543c 4a41 223e 66a1 e03e 6000 c63d
000003c0: 6671 4a3e 4004 203e 2ed8 663d b751 0dba
000003d0: 6a7a 283e 3f39 83bd 55cc 9fbd efe1 07bf
000003e0: 23e0 033d 7967 223c 957f a7be 230c 08be
000003f0: c925 a03c 2cbf 033e bdb4 b5be 8bb5 78be
0.08965495 -0.035904437 -0.00072519 -0.106593356 0.023379251 -0.15313786 -0.15838547 -0.030312805
-0.01623948 0.07603691 -0.058428388 -0.109422565 0.13944848 -0.0022751146 0.08294565 -0.0027868005
-0.08742598 -0.08901701 -0.09415968 -0.120505415 0.06432334 -0.015354728 -0.10275911 -0.010454694
-0.03193943 -0.04867897 0.062927864 -0.14414051 -0.19782029 0.057456814 0.07065338 -0.08844547
0.08406722 -0.12933695 -0.107200846 -0.1750804 0.14179964 0.07791254 -0.038427807 0.05576754
-0.1651525 -0.57884866 -0.06611055 -0.11388881 -0.12916254 -0.17238942 0.08895357 -0.03926301
-0.1805238 0.47700202 -0.09874576 0.12705608 0.37346864 0.050166335 -0.013501177 -0.05533418
-0.28714833 -0.05458744 -0.07606757 -0.12980604 -0.17378591 0.09372874 -0.10887997 -0.016265308
0.20597711 0.22204067 -0.007562366 -0.3319599 -0.6648417 -0.04225072 -0.028369559 -0.09963257
0.034114223 -0.019809853 0.06395743 0.08592466 -0.09225224 -0.08654628 0.01961628 0.11033659
0.13689557 0.06405937 0.1019518 0.085541934 -0.14824228 0.03621009 -0.09422035 -0.056796864
0.046572596 -0.022921681 -0.050622396 0.1535989 0.03810561 0.02975551 -0.0036601077 0.04168715
-0.056143977 -0.06427877 -0.021992289 0.07668559 -0.083212346 -0.06305464 0.32496932 -0.0811885
0.1709735 -0.027660167 -0.0958343 -0.31003693 -0.028749386 -0.37511373 -0.1690053 0.013377731
0.4107853 0.32974577 -0.4438942 -0.38309985 -0.31449646 0.3494495 -0.019437281 0.16001856
0.26109865 -0.22761518 0.23680075 0.27219522 -0.31600535 0.019604193 -0.22313014 0.05354754
0.32771677 0.04819321 -0.30884635 0.10919777 -0.5371109 0.12127853 -0.34723696 -0.08342275
0.49385184 -0.13711901 -0.012275741 0.09554781 -0.11759974 -0.05230711 0.042598415 -0.087895654
-0.076709956 -0.068718135 0.06778065 -0.108788505 0.037954584 -0.0030561232 -0.0672071 0.029851
-0.058702145 -0.02029183 -0.112831704 0.08719919 -0.042488467 -0.06846388 -0.0034560023 -0.12841864
-0.07881211 -0.03531087 -0.06679972 -0.09469662 -0.030407457 -0.0037667956 0.066130586 -0.024834983
-0.093916185 0.10319887 0.3925974 0.028644744 -0.065073095 0.30806974 0.5674743 0.3293285
-0.23020509 -0.1778621 0.3447248 0.5631371 0.29939908 -0.49848858 -0.11270228 -0.17007886
0.25794145 -0.024085304 0.1520237 0.19835795 0.11844444 0.3471231 -0.09276083 -0.5501679
0.33312568 0.3899864 0.08408497 0.0800149 -0.39296257 -0.16009378 0.29793307 -0.032099932
-0.012742035 0.14278474 -0.06936444 -0.33838573 0.28451756 0.10389319 0.06928108 0.05919018
0.0070574675 0.035464507 -0.17113926 -0.032525208 -0.0035570525 0.052228685 -0.18108009 0.091228575
-0.042974994 -0.03715628 0.04641579 0.06364896 0.07002932 -0.026968371 0.085279495 -0.056230143
0.07377862 0.0904753 0.027977206 0.08414857 0.059617743 0.14202854 0.07287246 0.076561674
-0.019380847 -0.08230234 -0.020250872 -0.09347197 0.012973966 0.15845218 0.43873137 0.0966804
0.1976982 0.15626621 0.05635851 -0.00053908996 0.16452947 -0.06407403 -0.07802645 -0.5307912
0.032196175 0.009912365 -0.32714525 -0.1328588 0.019549267 0.12865895 -0.35489455 -0.24288003

_backbone.gflus.W_in.4.bias f4 [68]
00000000: 2264 df3d 9d8f 953d e3a7 423e 14b3 b5bd
00000010: 7980 c93d f530 4a3e 915d 74be 27ea 083e
00000020: afc2 6e3e ea11 f03d ac54 313e 305e 213e
00000030: dffa e33d f4b0 203e 5b37 08bc 5182 063d
00000040: 7a57 8d3e 8f5b 0dbd a1d2 2e3e 9660 843e
00000050: 845a 7ebc f501 0cbe 1613 03bd bc28 e53d
00000060: a409 05be 1903 ddbc 16ed bf3c 51cc d8bd
00000070: 25db 873d d377 373e f1a5 63be e04c 973e
00000080: 9739 f33d 0f35 a3bd dd1b fe3e ff6f 203e
00000090: 4229 6a3e 22aa 923e 677f 853d 891b ed3e
000000a0: 3b92 d93e 44a4 9e3e b2aa 483e 121a 9c3e
000000b0: 22db 6e3e 2ff1 9a3e 68f6 053e 8a60 0d3e
000000c0: c8a7 ad3e 6b4c 753e 670f 2f3d b34c f33e
000000d0: b18e 983e b9f3 2e3e 2641 193e 786f 9b3e
000000e0: 8139 993e 36d7 1c3e 3247 c63e a632 0b3e
000000f0: e7e1 7b3e e4d1 013e 2794 373e 56cb 763e
00000100: b401 123e 5a0d 3e3e 3a4d 9f3e c67d ad3e
0.10907771 0.07302783 0.19009356 -0.08872047 0.09838957 0.19745238 -0.23863818 0.13370572
0.23316453 0.11722167 0.17317456 0.15758586 0.11131834 0.15692502 -0.008313979 0.032839123
0.27605802 -0.034511145 0.17072536 0.2585494 -0.01552451 -0.13672622 -0.032000624 0.1118941
-0.12991959 -0.026979016 0.023428481 -0.10585845 0.066335954 0.17916803 -0.2223127 0.29550838
0.11876219 -0.079691045 0.49630633 0.15667723 0.22867301 0.28645426 0.06518441 0.4631007
0.42494377 0.309847 0.19596365 0.3048864 0.2332578 0.30262133 0.13082278 0.13806358
0.3391707 0.23954932 0.0427393 0.47519454 0.29796365 0.1708516 0.14966258 0.3035848
0.29926684 0.15316471 0.38726193 0.1359354 0.24597894 0.12677723 0.1792761 0.24101004
0.14258462 0.1855978 0.31113607 0.3388502
