saved_models/classification-1_epoch=9-valid_loss=0.32.ckpt (torch, 584480 bytes, 102 tensors)

T0 f4 [7]
0.20166072 0.6887921 0.06236537 0.71480626 0.8065419 0.066324815 0.19448613
00000000: 2680 4e3e ae54 303f d572 7f3d 8bfd 363f
00000010: 8879 4e3f 4ed5 873d 5f27 473e

_backbone.gflus.feature_masks f4 [6, 34]
0.698575 0.7693505 0.9838294 0.9725938 0.6140461 0.9520589 0.96891475 0.76993823
0.93667036 1.1120164 0.9520207 0.9527603 1.0074468 0.9733309 0.9230058 0.7750418
0.7249921 0.9370391 0.9391887 0.9707361 0.93774 0.6308137 0.93667805 0.79167116
0.9412909 0.9456163 1.0195249 0.89256984 1.0504568 0.8985966 0.7382787 1.0080743
0.9265773 0.7238572 0.9374676 0.5213839 0.2717099 0.524886 0.51769507 0.46579084
0.39683518 0.37727258 0.5250614 0.40747467 0.76086676 0.3315739 0.54352987 0.6135835
0.4329549 0.6397576 0.5758064 0.28056324 0.49818882 0.4735057 0.53791785 0.31181812
0.29140753 0.5371826 0.62772375 0.5227956 0.42975068 0.5148567 0.9071808 0.49942273
0.5901394 0.42749727 0.41136837 0.43199402 0.87128264 0.41961947 0.38193595 0.5565002
0.4805381 0.50729007 0.7097551 0.6149012 0.25314113 0.4753655 0.5573747 0.35247073
0.3826301 0.4447964 0.3727763 0.5512994 0.57545835 0.29615015 0.6221879 0.5445526
0.56958324 0.5174728 0.37008935 0.45394167 0.4767024 0.33738276 0.5355087 0.62327516
0.32087925 0.69680244 0.4765033 0.28612834 0.50622153 0.3334343 0.7153573 0.8627334
0.91497165 0.9185776 0.8949342 0.5671733 0.9132842 0.8923339 0.8944622 0.9328166
1.0728836 0.83210576 0.85976374 0.88929987 0.91784555 0.9236365 0.7064474 0.9958203
0.92360365 0.7914126 0.88876224 0.6516625 0.87945884 0.94070613 0.90836596 0.9199583
0.7966429 0.92116493 0.97811687 0.9448149 0.7196456 0.9274533 0.6866098 0.9197296
1.132772 0.9367253 0.7945604 0.7816779 0.76857203 0.9212519 0.91416186 0.9014321
0.8312657 0.79028076 1.0340424 0.78025675 0.8137671 0.51912796 0.91234624 0.9161622
0.9119301 0.75339 0.7434936 0.9244203 0.7083692 0.89704657 0.8881065 0.8815483
0.46080732 0.86606795 0.8539742 0.88047564 0.9675732 0.8937914 0.7383029 0.869874
0.7731918 0.89351785 0.8506741 0.4081179 0.56277406 0.21607256 0.34174815 0.7660493
0.24940641 0.45229632 0.32399312 0.31843102 0.52176696 0.32309875 0.21692343 0.3381553
0.30501655 0.43194953 0.14095473 0.30137706 0.22391157 0.3355204 0.2559898 0.34574738
0.2987614 0.34496513 0.34589025 0.17636727 0.03777374 0.11842448 0.34175947 0.5703156
0.345821 0.31008956 0.40542445 0.24282221
00000000: d0d5 323f 28f4 443f 3edc 7b3f e8fb 783f
00000010: 2032 1d3f 22ba 733f cc0a 783f ac1a 453f
00000020: a1c9 6f3f 8e56 8e3f a1b7 733f 19e8 733f
00000030: 04f4 803f 372c 793f 1c4a 6c3f 2469 463f
00000040: 1599 393f cbe1 6f3f ac6e 703f 2982 783f
00000050: bb0f 703f 027d 213f 22ca 6f3f f6aa 4a3f
00000060: 71f8 703f e913 723f cb7f 823f 757f 643f
00000070: 5e75 863f 6d0a 663f d5ff 3c3f 9408 813f
00000080: 2c34 6d3f b54e 393f e0fd 6f3f 6a79 053f
00000090: 8f1d 8b3e ee5e 063f aa87 043f 237c ee3e
000000a0: fb2d cb3e df29 c13e 6d6a 063f 85a0 d03e
000000b0: 2ac8 423f 0ec4 a93e c624 0b3f cf13 1d3f
000000c0: 44ac dd3e 27c7 233f 0c68 133f fca5 8f3e
000000d0: 9b12 ff3e 576f f23e fcb4 093f a0a6 9f3e
000000e0: 5e33 953e cd84 093f 81b2 203f efd5 053f
000000f0: 4808 dc3e a6cd 033f 003d 683f 56b4 ff3e
00000100: 6013 173f ece0 da3e e09e d23e 522e dd3e
00000110: 610c 5f3f 5dd8 d63e 1c8d c33e cc76 0e3f
00000120: 1709 f63e c3dd 013f 83b2 353f 2a6a 1d3f
00000130: b79b 813e 1b63 f33e 1cb0 0e3f 0b77 b43e
00000140: 18e8 c33e 5bbc e33e 89dc be3e f521 0d3f
00000150: 3d51 133f fea0 973e b547 1f3f cd67 0b3f
00000160: 35d0 113f 1979 043f 5a7c bd3e 0b6b e83e
00000170: 5612 f43e 6fbd ac3e 1917 093f f68e 1f3f
00000180: 494a a43e a561 323f 3ef8 f33e 6a7f 923e
00000190: bc97 013f e7b7 aa3e a821 373f 19dc 5c3f
000001a0: 953b 6a3f e727 6b3f 681a 653f 4532 113f
000001b0: fecc 693f ff6f 643f 7afb 643f 12cd 6e3f
000001c0: 4054 893f e204 553f 7a19 5c3f 28a9 633f
000001d0: edf7 6a3f 7173 6c3f bdd9 343f 14ee 7e3f
000001e0: 4a71 6c3f 049a 4a3f ec85 633f 5bd3 263f
000001f0: 3724 613f 1ed2 703f ac8a 683f 6382 6b3f
00000200: caf0 4b3f 77d1 6b3f de65 7a3f 64df 713f
00000210: b23a 383f 946d 6d3f a9c5 2f3f 6673 6b3f
00000220: acfe 903f 3bcd 6f3f 4f68 4b3f 0b1c 483f
00000230: 23c1 443f 2ad7 6b3f 8306 6a3f 41c4 663f
00000240: d4cd 543f d74f 4a3f 805b 843f e8be 473f
00000250: 0a53 503f 92e5 043f 868f 693f 9b89 6a3f
00000260: 4074 693f 2bde 403f 9955 3e3f cfa6 6c3f
00000270: af57 353f d8a4 653f f35a 633f 26ad 613f
00000280: f0ee eb3e a1b6 5d3f 0e9e 5a3f da66 613f
00000290: e1b2 773f 83cf 643f 6b01 3d3f 10b0 5e3f
000002a0: e6ef 453f 96bd 643f c7c5 593f d4f4 d03e
000002b0: f611 103f 2042 5d3e 9df9 ae3e cf1b 443f
000002c0: 6564 7f3e 6293 e73e 6de2 a53e 6409 a33e
000002d0: 8592 053f 336d a53e 2d21 5e3e b122 ad3e
000002e0: 212b 9c3e 7d28 dd3e 7056 103e 184e 9a3e
000002f0: 1349 653e 54c9 ab3e 1811 833e cd05 b13e
00000300: 41f7 983e 459f b03e 8718 b13e 9f99 343e
00000310: a3b8 1a3d 8988 f23d 19fb ae3e 3400 123f
00000320: 730f b13e 0fc4 9e3e cb93 cf3e 63a6 783e

_backbone.gflus.t f4 [6, 1]
0.047530055 0.29189014 0.14521515 0.046940573 0.07762259 0.25508288
00000000: e0ae 423d a072 953e 48b3 143e c244 403d
00000010: 98f8 9e3d 399a 823e

_backbone.gflus.W_in.0.weight f4 [68, 68]
0.10660819 0.10209115 -0.007952208 0.044809207 -0.025407288 0.042015206 -0.052825782 0.06686609
0.11129263 0.083118096 0.013938659 -0.043753035 0.21995842 -0.073107876 0.08340483 -0.008630551
0.086251974 0.07339323 0.020462394 -0.072368436 -0.008821715 -0.01342989 0.0064062034 0.07778268
-0.15876493 -0.11936958 -0.17373295 -0.04192272 -0.14453532 -0.066062346 0.09305813 -0.21036609
0.14355518 0.01505698 0.108788244 0.011088734 -0.13893217 0.17209832 -0.18101971 -0.0982449
0.15680213 -0.05715745 -0.043390255 0.27171707 0.06651295 -0.20216952 0.5483563 0.041057073
-0.0026322298 0.11009749 -0.37785193 0.060398538 0.16471007 -0.10947737 -0.02559052 0.022421084
0.075313665 -0.24755451 0.056785785 -0.50764275 -0.15078698 0.1336166 -0.17072701 0.32341188
-0.38354242 -0.17235512 0.21254146 -0.21094108 -0.07106231 -0.07157992 0.0563617 0.03671746
0.1156259 -0.04618421 -0.06325931 -0.094622426 -0.14166243 0.43662417 0.09704985 0.16481215
-0.1469283 -0.052387405 0.037097592 -0.045317918 0.0712551 -0.0465443 0.044081703 -0.044180613
-0.012757705 0.03501821 -0.015925312 -0.031279963 0.083348334 0.08439167 -0.08182414 -0.08573254
0.15786207 -0.03208567 -0.04519559 -0.057679854 -0.094642855 0.03031047 0.028905526 -0.15992717
-0.10486873 -0.06870791 -0.24466956 0.14942646 -0.0041346163 -0.21440834 -0.023032766 0.36110368
0.2496311 0.4333563 -0.61342627 0.012072504 -0.016831584 -0.023712685 -0.18186563 -0.22260743
-0.056301557 0.13562275 0.11564145 -0.23240837 -0.2073836 -0.052284196 -0.04649329 0.087965995
0.06538252 -0.33206046 0.11255711 0.06515444 -0.15930071 0.036614962 0.09983828 -0.13554645
-0.10041689 -0.12108384 0.104874656 0.012924423 0.045518972 -0.048797093 0.03766235 -0.08612895
0.019840788 0.19228286 0.122869916 0.054833714 0.11168184 -0.029820865 0.055265248 -0.04984834
-0.0127160605 -0.033974063 0.16691577 -0.16017382 -0.0051948945 0.042986967 0.078917496 -0.063009255
0.06984729 0.09562523 0.0228131 -0.08819043 0.09820114 -0.039958484 -0.053402897 0.19235574
0.07910519 -0.069925375 0.05413122 0.017361803 0.0026613767 0.0016798445 -0.0911033 0.34128428
-0.08972046 0.37311664 0.30939668 0.052472677 0.1880699 0.0922526 -0.20458645 -0.094792485
0.043749534 0.2220303 -0.06143329 0.24158476 -0.01161905 0.091768354 -0.06682596 0.09719541
0.2348018 0.44582427 -0.10034598 0.10550794 0.067350306 0.1488928 -0.019684331 -0.09838876
-0.028354017 0.01398878 0.24811232 -0.20296745 -0.0052213958 -0.06565295 -0.15008666 -0.17467181
-0.041253597 0.08860055 0.12743577 0.059955668 -0.14695366 0.13510464 0.011413098 0.18297572
-0.047279757 0.009560021 0.04419972 -0.045647737 -0.0797858 0.05156599 -0.05521952 -0.009817124
-0.06605119 0.082902424 0.05318246 0.044613663 -0.06001992 -0.067663155 -0.06577277 0.09403941
0.028819982 0.14544946 0.06402872 0.062044222 -0.02387808 -0.09477566 -0.1295891 0.044666737
-0.036917225 -0.1416379 -0.056319047 -0.23633456 -0.0342388 -0.12417639 -0.15824734 0.22616504
-0.11234168 0.15640938 -0.19693577 -0.1551628 -0.22116621 -0.01714032 -0.11096079 -0.16187863
00000000: 6555 da3d 2a15 d13d fa49 02bc dc89 373d
00000010: f222 d0bc 2318 2c3d d95f 58bd 17f1 883d
00000020: 64ed e33d d239 aa3d f95e 643c 6236 33bd
00000030: c83c 613e 95b9 95bd 27d0 aa3d 2867 0dbc
00000040: e0a4 b03d 314f 963d c0a0 a73c e735 94bd
00000050: f488 10bc 0b09 5cbc 21eb d13b 874c 9f3d
00000060: 4693 22be 0a78 f4bd 0de7 31be 28b7 2bbd
00000070: 1101 14be b24b 87bd 4395 be3d 356a 57be
00000080: 2100 133e 8db1 763c 5fcc de3d 85ad 353c
00000090: 3c44 0ebe 8b3a 303e 3b5d 39be 9f34 c9bd
000000a0: bd90 203e ee1d 6abd fbb9 31bd 801e 8b3e
000000b0: f137 883d 8705 4fbe 1461 0c3f 762b 283d
000000c0: 7d81 2cbb cb7a e13d cf75 c1be 7564 773d
000000d0: c2a9 283e ac35 e0bd 36a3 d1bc 6cac b73c
000000e0: 0d3e 9a3d ee7e 7dbe 3698 683d e0f4 01bf
000000f0: e767 1abe cad2 083e 10d3 2ebe 3e96 a53e
00000100: ac5f c4be dc7d 30be 78a4 593e f000 58be
00000110: 1e89 91bd 7e98 92bd 87db 663d 0c65 163d
00000120: 46cd ec3d a72b 3dbd 198e 81bd 67c9 c1bd
00000130: f50f 11be 348d df3e 12c2 c63d 84c4 283e
00000140: 5f74 16be 2d94 56bd a5f3 173d 489f 39bd
00000150: 32ee 913d 3ca5 3ebd 048f 343d bbf6 34bd
00000160: b105 51bc 416f 0f3d cd75 82bc 6b1f 00bd
00000170: 88b2 aa3d 8ad5 ac3d 6a93 a7bd 8b94 afbd
00000180: 98a6 213e 436c 03bd 031f 39bd b641 6cbd
00000190: 1dd4 c1bd aa4d f83c 48cb ec3c f3c3 23be
000001a0: 6bc5 d6bd bcb6 8cbd a88a 7abe 4003 193e
000001b0: ad7b 87bb dc8d 5bbe 36af bcbc 95e2 b83e
000001c0: 4c9f 7f3e e1e0 dd3e 8109 1dbf c0cb 453c
000001d0: 64e2 89bc 1b41 c2bc fc3a 3abe 34f3 63be
000001e0: 769c 66bd b1e0 0a3e 6dd5 ec3d 76fc 6dbe
000001f0: 5e5c 54be f427 56bd c06f 3ebd 8427 b43d
00000200: 45e7 853d d403 aabe 5884 e63d b16f 853d
00000210: ba1f 23be 92f9 153d 0378 cc3d b0cc 0abe
00000220: 5fa7 cdbd cefa f7bd 86c8 d63d f6c0 533c
00000230: 1a72 3a3d 76df 47bd d643 1a3d 6064 b0bd
00000240: 2689 a23c cce5 443e 39a3 fb3d 5199 603d
00000250: 73b9 e43d e34a f4bc d05d 623d c62d 4cbd
00000260: 0657 50bc 6328 0bbd f8eb 2a3e 9b04 24be
00000270: ef39 aabb 1a13 303d 7f9f a13d ff0a 81bd
00000280: 190c 8f3d 29d7 c33d 8ae2 ba3c 2f9d b4bd
00000290: ae1d c93d 82ab 23bd ffbc 5abd e7f8 443e
000002a0: e701 a23d 0935 8fbd b3b8 5d3d 573a 8e3c
000002b0: 7e6a 2e3b 3a2e dc3a 5e94 babd d0bc ae3e
000002c0: 5cbf b7bd 2509 bf3e 3e69 9e3e 97ed 563d
000002d0: 6595 403e eeee bc3d 1c7f 51be 9022 c2bd
000002e0: b632 333d e95b 633e 79a1 7bbd ff61 773e
000002f0: d45d 3ebc 0cf1 bb3d 0ddc 88bd 630e c73d
00000300: e26f 703e 1443 e43e 3182 cdbd 8c14 d83d
00000310: f5ee 893d 5b77 183e 0941 a1bc 0c80 c9bd
00000320: af46 e8bc 3231 653c 2811 7e3e b3d6 4fbe
00000330: 3e18 abbb 0e75 86bd 51b0 19be 2bdd 32be
00000340: 88f9 28bd 3574 b53d 867e 023e 1394 753d
00000350: 057b 16be df58 0a3e 01fe 3a3c fd5d 3b3e
00000360: 6ba8 41bd a2a1 1c3c c40a 353d 1ff9 3abd
00000370: bd66 a3bd dc36 533d dd2d 62bd 01d8 20bc
00000380: d945 87bd bfc8 a93d dad5 593d d1bc 363d
00000390: 73d7 75bd fb92 8abd e0b3 86bd bc97 c03d
000003a0: e217 ec3c b4f0 143e 7d21 833d 1522 7e3d
000003b0: f79b c3bc be19 c2bd 01b3 04be 78f4 363d
000003c0: 8436 17bd 8709 11be cdae 66bd b001 72be
000003d0: fc3d 0cbd 3150 febd 970b 22be cf97 673e
000003e0: 6513 e6bd c829 203e 88a9 49be ffe2 1ebe
000003f0: 6579 62be db69 8cbc 693f e3bd 83c3 25be

_backbone.gflus.W_in.0.bias f4 [68]
-0.211956 0.15235807 0.31316644 0.01564379 0.10369916 -0.15840036 0.1706254 0.115154654
0.051045943 0.016567359 -0.2205782 0.114066504 0.41716027 0.07842267 0.065478116 0.2277987
0.273287 0.05240395 0.19098851 0.036057923 0.012002369 0.24922761 0.15934038 0.3932914
0.27847078 0.28703 0.07353771 0.4004584 -0.025782121 0.2925019 0.17403498 0.20547901
0.30577868 0.15109478 0.20989648 0.036710057 0.03539368 0.1402975 0.0056038364 0.32979324
0.15184848 -0.12844987 0.14324507 0.5422485 0.12431856 0.03376614 0.27040416 0.24129447
0.1178288 0.09243644 -0.010454891 -0.044810496 0.13789971 0.055508923 -0.079098195 0.14937086
-0.007705285 0.0687787 -0.03218972 0.027776012 -0.113578126 -0.08740835 0.17189018 0.051502775
-0.080500476 0.14118867 -0.08168091 0.01790222
00000000: fe0a 59be c103 1c3e 5a57 a03e 6827 803c
00000010: 3a60 d43d b433 22be 6db8 2e3e 34d6 eb3d
00000020: 8d15 513d 45b8 873c 40df 61be b39b e93d
00000030: 0896 d53e 119c a03d 6419 863d 1044 693e
00000040: 46ec 8b3e 86a5 563d 7e92 433e 79b1 133d
00000050: 96a5 443c 8635 7f3e 202a 233e 7e5d c93e
00000060: b993 8e3e 99f5 923e f09a 963d e208 cd3e
00000070: 0735 d3bc cfc2 953e 3a36 323e 1769 523e
00000080: 068f 9c3e 97b8 1a3e 1aef 563e 495d 163d
00000090: f7f8 103d 26aa 0f3e 63a0 b73b a9da a83e
000000a0: 2b7e 1b3e 5d88 03be d6ae 123e ccd0 0a3f
000000b0: bb9a fe3d 5d4e 0a3d 6a72 8a3e e615 773e
000000c0: 3a50 f13d 514f bd3d fe4a 2bbc 368b 37bd
000000d0: 9535 0d3e 535d 633d 3cfe a1bd adf4 183e
000000e0: 9e7c fcbb d9db 8c3d 5ed9 03bd 858a e33c
000000f0: a69b e8bd 2603 b3bd fb03 303e 93f4 523d
00000100: 6fdd a4bd c393 103e 5248 a7bd ada7 923c

_backbone.gflus.W_in.1.weight f4 [68, 68]
0.11292267 0.038741127 0.036669362 -0.07478784 0.10230412 -0.07487629 0.02307978 0.013259444
0.0817279 0.012727498 0.09906142 0.03157744 0.17818117 -0.06222323 0.031104848 0.22309509
-0.1281004 -0.049462754 0.12697433 0.051984843 -0.13243538 0.043155 -0.11936249 -0.026844181
0.047582075 0.019799832 -0.027142193 0.1122714 0.07539814 0.12503824 -0.19134542 -0.04473049
0.0074308966 0.09104494 0.11962858 -0.18942632 0.18868838 -0.044998217 -0.094492376 0.3666951
0.021272285 0.056418955 -0.42064914 0.024850003 0.0883263 0.4017352 -0.12483408 -0.46269134
0.14416847 -0.1078008 -0.1461205 0.04978772 -0.0462768 -0.18879937 -0.19314986 0.15699165
-0.44378045 0.13348517 0.038013946 -0.090509675 -0.15341379 0.3017093 0.06894805 -0.08677442
-0.2720479 0.2265395 0.29423392 -0.00462203 -0.21425839 -0.10237891 0.008766179 -0.011380244
0.07240225 -0.037657782 -0.04090892 -0.045526292 -0.0068507968 0.06019317 -0.3004111 -0.08475594
-0.098074645 0.058240123 0.1014726 -0.25407094 0.07584311 0.024913182 -0.03859931 0.007099414
0.045613673 0.118952535 0.05261622 -0.059113506 -0.091579676 -0.0744157 0.00079891953 0.004846711
0.075776204 -0.13253617 0.036223195 -0.04028652 0.010304437 0.10676732 -0.045177624 -0.078232475
-0.19274572 -0.016977753 0.17428717 0.21794356 -0.007954646 -0.14400603 -0.14205636 0.15087225
0.014001008 -0.14037603 -0.049150802 0.08931177 0.035724036 0.14073223 0.06313426 0.3204481
0.18642966 -0.034702715 0.11254533 0.09533125 0.526681 -0.39125594 -0.48519444 -0.251672
-0.3414664 0.50700593 0.08280278 -0.016416583 0.0211092 0.23151124 0.05111083 -0.26033917
0.2309529 -0.0312343 0.07021212 0.10707678 -1.2662272e-05 0.0023679025 0.11742717 -0.007470849
0.12746947 0.11256583 0.10305852 -0.11579864 0.20034626 -0.21151735 0.12230353 -0.06596983
0.06649202 0.035882574 -0.06438844 0.11790511 -0.09873222 -0.0503928 -0.01889737 0.06963184
-0.013382022 0.08217635 0.05241592 0.12282966 0.35482526 -0.08181675 0.03330136 0.04773195
-0.035576362 0.039732914 0.20948745 0.17494655 0.2567204 0.67146546 0.23346029 0.021923328
-0.5898947 0.03400531 0.29303244 0.114088185 0.1318039 -0.10938287 0.077515565 -0.12996377
-0.107067876 0.2113612 -0.020820057 -0.17553943 0.060282446 -0.40378618 0.10961726 -0.26204014
-0.20937677 -0.16985482 0.13620244 0.02970262 -0.10402892 0.29646343 0.15024163 -0.034303103
0.111033864 0.046146307 -0.1662997 0.2647617 0.32212675 0.06488018 0.040579718 -0.06464926
-0.12029322 -0.1033584 -0.024025587 0.03833434 0.030367173 -0.0058610616 0.26399562 -0.047849294
0.067570284 0.015880644 0.043838196 -0.13672526 0.112202205 0.008041634 -0.04719323 -0.1106204
-0.1450995 -0.10392192 0.0862386 -0.041655615 -0.01089049 -0.082197875 -0.033831727 0.068321705
0.0941006 -0.01529483 -0.06884352 0.094388805 0.09425873 -0.09964201 0.21269532 -0.12777685
-0.4437706 -0.092344604 -0.41673863 0.05138907 -0.05577036 0.16330382 0.13471816 -0.11831449
-0.12888639 0.3918448 0.22500993 0.17482948 0.112143345 -0.42420995 0.16827758 -0.15488511
00000000: 0044 e73d 04af 1e3d 9d32 163d 5e2a 99bd
00000010: d384 d13d be58 99bd cf11 bd3c 243e 593c
00000020: f560 a73d ff86 503c b7e0 ca3d 5957 013d
00000030: 2075 363e c9dd 7ebd 98cf fe3c 0a73 643e
00000040: c02c 03be 7599 4abd 8f05 023e 0fee 543d
00000050: 249d 07be 4cc3 303d 5274 f4bd 54e8 dbbc
00000060: 6ce5 423d 4233 a23c 4e59 debc 8cee e53d
00000070: 576a 9a3d 060a 003e 0ef0 43be 5137 37bd
00000080: e17e f33b c575 ba3d d4ff f43d f9f8 41be
00000090: 8737 413e 0d50 38bd 3885 c1bd 76bf bb3e
000000a0: 3743 ae3c 9017 673d 535f d7be 3c92 cb3c
000000b0: 6be4 b43d 3cb0 cd3e 03a9 ffbd e1e5 ecbe
000000c0: e6a0 133e aac6 dcbd 9da0 15be 35ee 4b3d
000000d0: be8c 3dbd 9f54 41be 14c9 45be 6bc2 203e
000000e0: 3137 e3be 56b0 083e 83b4 1b3d 235d b9bd
000000f0: 8118 1dbe a479 9a3e a334 8d3d cab6 b1bd
00000100: dd49 8bbe f8f9 673e d4a5 963e 6674 97bb
00000110: 8d66 5bbe 09ac d1bd 05a0 0f3c 3474 3abc
00000120: a147 943d 0c3f 1abd 1d90 27bd c779 3abd
00000130: a67c e0bb 1d8d 763d 7ccf 99be 8694 adbd
00000140: 5cdb c8bd 328d 6e3d ded0 cf3d 9615 82be
00000150: a253 9b3d bb16 cc3c 4f1a 1ebd 33a2 e83b
00000160: 67d5 3a3d 639d f33d 1b84 573d 0121 72bd
00000170: 208e bbbd 4267 98bd 956e 513a 29d1 9e3b
00000180: 8e30 9b3d 90b7 07be c65e 143d 7a03 25bd
00000190: f1d3 283c d3a8 da3d 2c0c 39bd 5938 a0bd
000001a0: 225f 45be ee14 8bbc 5678 323e 992c 5f3e
000001b0: 3454 02bc 5176 13be 3977 11be 417e 1a3e
000001c0: 7c64 653c bcbe 0fbe 5a52 49bd 17e9 b63d
000001d0: 5e53 123d 1c1c 103e 894c 813d c611 a43e
000001e0: 6be7 3e3e 6f24 0ebd 2a7e e63d 083d c33d
000001f0: 91d4 063f b352 c8be 686b f8be 27db 80be
00000200: afd4 aebe 24cb 013f 8194 a93d 127c 86bc
00000210: 33ed ac3c 4811 6d3e 9759 513d 2d4b 85be
00000220: eb7e 6c3e 13df ffbc 5fcb 8f3d 124b db3d
00000230: 0b70 54b7 d02e 1b3b a87d f03d 06ce f4bb
00000240: 5b87 023e ea88 e63d 5810 d33d d627 edbd
00000250: 9227 4d3e 0198 58be 467a fa3d 311b 87bd
00000260: f82c 883d 9bf9 123d 16de 83bd 3c78 f13d
00000270: 1e34 cabd ae68 4ebd a8ce 9abc 239b 8e3d
00000280: 4540 5bbc 134c a83d 13b2 563d 1e8e fb3d
00000290: a8ab b53e 8a8f a7bd 0267 083d 9482 433d
000002a0: 85b8 11bd fbbe 223d e183 563e 3025 333e
000002b0: db70 833e 29e5 2b3f 3710 6f3e 8d98 b33c
000002c0: 5703 17bf 2749 0b3d 5908 963e 11a7 e93d
000002d0: 9af7 063e 2004 e0bd 7bc0 9e3d 3915 05be
000002e0: 6746 dbbd 126f 583e d38e aabc 9cc0 33be
000002f0: baea 763d 10bd cebe 047f e03d 202a 86be
00000300: dd66 56be 6cee 2dbe a778 0b3e e952 f33c
00000310: 1d0d d5bd 0eca 973e f1d8 193e 6981 0cbd
00000320: b965 e33d e903 3d3d 784a 2abe d88e 873e
00000330: cced a43e e6df 843d eb36 263d d566 84bd
00000340: 4b5c f6bd 92ad d3bd 4fd1 c4bc 7804 1d3d
00000350: 94c4 f83c 260e c0bb 6f2a 873e 9ffd 43bd
00000360: 4a62 8a3d 2018 823c ae8f 333d b501 0cbe
00000370: 45ca e53d 0fc1 033c b04d 41bd f38c e2bd
00000380: f794 14be 04d5 d4bd dd9d b03d 149f 2abd
00000390: 076e 32bc 5c57 a8bd 2393 0abd 40ec 8b3d
000003a0: d1b7 c03d 2b97 7abc d5fd 8cbd eb4e c13d
000003b0: b90a c13d 1c11 ccbd cdcc 593e efd7 02be
000003c0: e635 e3be 2b1f bdbd c45e d5be 587d 523d
000003d0: 766f 64bd 1e39 273e 8ff3 093e de4e f2bd
000003e0: cbfa 03be e29f c83e 0169 663e 8006 333e
000003f0: 69ab e53d 0c32 d9be f550 2c3e 349a 1ebe

_backbone.gflus.W_in.1.bias f4 [68]
-0.07662056 -0.07041051 0.10607268 -0.120633036 0.060531817 -0.05277253 0.28168604 -0.10198392
0.32048252 -0.017308785 -0.22980121 -0.090426795 -0.022573337 0.28767517 0.15738447 -0.06289798
0.6141873 0.11220969 0.1287349 -0.0976054 0.17288785 -0.016958702 0.04445739 -0.11758789
0.2428182 0.076080546 0.184022 0.010685218 -0.09112402 0.16835539 0.078275315 0.39513472
-0.0330056 0.11949711 0.3116269 0.24330357 0.12407246 0.018972836 0.123734854 0.19674963
0.23964863 0.36391705 0.15149905 0.27845263 0.024450455 0.5594509 0.25903904 0.109112866
0.019011369 -0.19460315 0.21377006 0.25487816 0.20472316 0.12941217 0.19824255 0.13369882
0.0968753 0.3882163 0.24900693 -0.033543076 0.07215594 0.23713344 0.2897551 0.21802424
0.011834591 0.15528303 0.064964645 -0.18320759
00000000: 3deb 9cbd 6333 90bd a23c d93d 740e f7bd
00000010: 36f0 773d 0228 58bd 2739 903e f2dc d0bd
00000020: 4916 a43e 27cb 8dbc 0251 6bbe af31 b9bd
00000030: b8eb b8bc 294a 933e 6529 213e a8d0 80bd
00000040: 613b 1d3f 32ce e53d 15d3 033e 57e5 c7bd
00000050: 8309 313e faec 8abc f418 363d ebd1 f0bd
00000060: 56a5 783e 1ed0 9b3d 4370 3c3e 0d11 2f3c
00000070: 3b9f babd 5b65 2c3e cf4e a03d 194f ca3e
00000080: e130 07bd e7ba f43d 908d 9f3e 9224 793e
00000090: b419 fe3d ec6c 9b3c b368 fd3d bc78 493e
000000a0: 7366 753e 5653 ba3e 9122 1b3e 5891 8e3e
000000b0: 524c c83c 2d38 0f3f c4a0 843e 9176 df3d
000000c0: bbbd 9b3c 0c46 47be 8ae6 5a3e 647f 823e
000000d0: f3a2 513e a084 043e 1800 4b3e 58e8 083e
000000e0: 8f66 c63d 49c4 c63e acfb 7e3e 7764 09bd
000000f0: 7ec6 933d 1cd3 723e c85a 943e bf41 5f3e
00000100: dfe5 413c 8402 1f3e 2f0c 853d c59a 3bbe

_backbone.gflus.W_in.2.weight f4 [68, 68]
-0.28881267 0.08155467 -0.07288177 0.037943892 0.005620799 0.0757918 -0.029966954 0.13310684
-0.020957306 -0.04190673 -0.00880946 -0.009508686 0.012142143 -0.09414106 0.01868711 -0.0012503213
0.011477254 -0.037933856 0.14559305 -0.10039833 0.040301614 0.07241126 -0.022031896 0.08583063
-0.12570524 0.07391719 -0.17755328 -0.07152839 0.11575397 0.13034432 -0.18532033 -0.089400396
0.15390103 -0.017504623 -0.19319917 0.09492045 0.08955165 -0.2460308 -0.17057504 0.24043208
0.2972305 -0.23162846 -0.2970253 -0.27612016 -0.4295647 0.04369977 -0.31258112 -0.6472406
-0.14361002 0.10946479 0.08672098 -0.3577862 0.16158564 -0.28801242 0.019183064 0.16172396
-0.46725613 -0.23109193 -0.18914986 -0.2933498 -0.036043227 0.094372496 0.19363073 0.3618166
-0.14045236 0.44163343 -0.07604547 -0.09625894 -0.7039341 -0.09233331 -0.089382716 -0.02249454
-0.07031016 -0.031203752 0.5085031 0.061545074 0.075892605 0.07528001 0.005503771 -0.047406796
-0.06289782 -0.16007513 0.06609928 0.0025152762 -0.00083925907 0.03164033 -0.0061677094 0.12109611
-0.059507575 0.1676885 -0.048486125 0.060602408 0.13689166 -0.0069182026 -0.1574048 -0.17230983
0.11950647 -0.21725701 -0.011132977 0.082882926 -0.0681532 0.11338809 -0.36374983 -0.099362716
0.13351423 0.2635139 0.14068685 -0.20192777 0.194841 -0.05668377 -0.021003235 -0.059591763
0.352155 0.18473439 -0.29303563 -0.08781004 -0.70803034 0.40744406 0.23188007 0.10904106
0.12640409 0.051053114 0.019292133 0.12204658 -0.15384535 0.15212092 0.251163 0.3923297
-0.066387594 -0.15756805 0.15211739 0.049163032 0.39651546 -0.03681639 -0.32679555 -0.018662224
0.16010453 -0.12959786 0.038414385 0.1850215 -0.079710394 0.04021543 -0.008383077 -0.061725885
0.07873399 0.17315173 0.1526583 -0.10847734 0.025167376 0.06962297 0.103308804 -0.094404206
0.09828715 0.08992079 0.041005682 0.010313418 0.01613247 -0.021133253 -0.050484356 -0.13633406
-0.14401387 -0.07241897 -0.023170318 0.1400833 -0.035319775 -0.1760088 0.11768865 0.01822978
-0.10130622 0.10279942 0.30106395 -0.062010415 0.14206861 0.07505006 0.28282383 0.18553811
0.13616031 -0.09119648 -0.06866633 0.2579077 -0.09626714 -0.07069308 0.050655607 -0.08230717
0.35677275 0.11515353 0.13778855 -0.36239296 -0.13996375 0.014955846 0.17496127 -0.14928438
-0.021754041 0.0055628247 -0.12756768 0.102160975 -0.24510482 -0.20856202 -0.032764353 -0.08334428
-0.005618705 0.31472942 -0.024947744 -0.08815166 -0.15812798 0.070313826 -0.11964514 -0.04143241
-0.16528915 -0.14406495 -0.2423661 -0.12105312 -0.03424372 0.12082218 0.025491424 0.02537561
0.03147131 -0.052466586 -0.10774757 -0.12749864 0.020084178 0.06811884 0.09790385 0.11913415
-0.13086168 0.019033642 -0.017824845 0.032904495 0.05413493 -0.12130792 -0.022089362 0.15744868
-0.06698331 -0.057777192 -0.1117619 0.020614905 -0.11748015 0.040194545 -0.21583913 0.21468978
-0.155404 -0.25831193 -0.43698525 0.16643451 -0.03894961 -0.31762674 0.031582322 -0.028087659
-0.06956121 -0.2483629 0.12703744 -0.0069963834 0.33147916 -0.014911855 -0.16727541 -0.4714407
00000000: 41df 93be 2306 a73d 0a43 95bd 0e6b 1b3d
00000010: ae2e b83b bb38 9b3d 427d f5bc 294d 083e
00000020: a8ae abbc 64a6 2bbd 8e55 10bc 52ca 1bbc
00000030: d7ef 463c 07cd c0bd b615 993c d2e1 a3ba
00000040: 180b 3c3c 8860 1bbd 5816 153e a49d cdbd
00000050: 4e13 253d 5b4c 943d 3c7c b4bc f8c7 af3d
00000060: e0b8 00be e561 973d 87d0 35be 7a7d 92bd
00000070: 6b10 ed3d fb78 053e 9dc4 3dbe 8e17 b7bd
00000080: 3b98 1d3e db65 8fbc 01d6 45be a765 c23d
00000090: db66 b73d 7fef 7bbe 39ab 2ebe d433 763e
000000a0: 992e 983e 0330 6dbe b313 98be 9f5f 8dbe
000000b0: e8ef dbbe 88fe 323d a20a a0be 8fb1 25bf
000000c0: 810e 13be 132f e03d c59a b13d c12f b7be
000000d0: b576 253e 5d76 93be cd25 9d3c f79a 253e
000000e0: 323c efbe 5da3 6cbe 80b0 41be f231 96be
000000f0: 10a2 13bd 5e46 c13d 2247 463e 0740 b93e
00000100: bed2 0fbe c71d e23e babd 9bbd 6823 c5bd
00000110: 0635 34bf 3f19 bdbd 490e b7bd 7846 b8bc
00000120: c6fe 8fbd 039f ffbc 422d 023f b016 7c3d
00000130: 956d 9b3d 682c 9a3d fa58 b43b a12d 42bd
00000140: 92d0 80bd bcea 23be 0f5f 873d 55d7 243b
00000150: b901 5cba 4a99 013d 7f1a cabb 3d01 f83d
00000160: 37be 73bd 89b6 2b3e 6399 46bd 3b3a 783d
00000170: 542d 0c3e 17b2 e2bb b92e 21be fd71 30be
00000180: cfbf f43d 9f78 5ebe 1767 36bc 86be a93d
00000190: e893 8bbd 0438 e83d 6b3d babe ae7e cbbd
000001a0: f4b7 083e 4beb 863e 3710 103e 27c6 4ebe
000001b0: 6684 473e 3e2d 68bd fa0e acbc 7e16 74bd
000001c0: a94d b43e 032b 3d3e c408 96be c0d5 b3bd
000001d0: 7a41 35bf 829c d03e f871 6d3e eb50 df3d
000001e0: 1370 013e 121d 513d 890a 9e3c 8ff3 f93d
000001f0: a389 1dbe 96c5 1b3e 7098 803e 70df c83e
00000200: 38f6 87bd 8559 21be a9c4 1b3e 2d5f 493d
00000210: 1304 cb3e c8cc 16bd bf51 a7be 85e1 98bc
00000220: 71f2 233e 4db5 04be 6758 1d3d 4776 3d3e
00000230: 343f a3bd efb8 243d 2c59 09bc 48d4 7cbd
00000240: 493f a13d b04e 313e 7552 1c3e 5e29 debd
00000250: d02b ce3c 7d96 8e3d 9193 d33d fe56 c1bd
00000260: c64a c93d 6428 b83d 93f5 273d 9cf9 283c
00000270: 3e28 843c a51f adbc afc8 4ebd 289b 0bbe
00000280: 5f78 13be 6650 94bd aecf bdbc ff71 0f3e
00000290: 78ab 10bd a73b 34be bf06 f13d 9f56 953c
000002a0: a379 cfbd 8188 d23d 0e25 9a3e a2fe 7dbd
000002b0: 6f7a 113e d9b3 993d 49ce 903e b4fd 3d3e
000002c0: 9c6d 0b3e 38c5 babd efa0 8cbd 7a0c 843e
000002d0: b527 c5bd 89c7 90bd 417c 4f3d a990 a8bd
000002e0: ebaa b63e 9dd5 eb3d 7118 0d3e 928b b9be
000002f0: a852 0fbe 5d09 753c 0c29 333e 01de 18be
00000300: 8835 b2bc 5b48 b63b 1aa1 02be c639 d13d
00000310: c2fc 7abe 4891 55be ea33 06bd 68b0 aabd
00000320: 1d1d b8bb 3724 a13e 365f ccbc dc88 b4bd
00000330: 4dec 21be b200 903d 8308 f5bd 08b5 29bd
00000340: 8f41 29be c385 13be d22e 78be b3ea f7bd
00000350: 2543 0cbd 9e71 f73d 64d3 d03c 83e0 cf3c
00000360: 0fe8 003d 34e7 56bd c2aa dcbd 018f 02be
00000370: 9387 a43c e481 8b3d d081 c83d 9bfc f33d
00000380: 9b00 06be 71ec 9b3c 6905 92bc ddc6 063d
00000390: 97bc 5d3d 4970 f8bd c0f4 b4bc 3a3a 213e
000003a0: 8c2e 89bd c7a7 6cbd 6ce3 e4bd 97e0 a83c
000003b0: 6f99 f0bd 09a3 243d ef04 5dbe a3d7 5b3e
000003c0: 3a22 1fbe 7641 84be 88bc dfbe cf6d 2a3e
000003d0: a089 1fbd f99f a2be 775c 013d 1718 e6bc
000003e0: 1c76 8ebd d852 7ebe 1a16 023e eb41 e5bb
000003f0: a3b7 a93e da50 74bc 3f4a 2bbe ad60 f1be

_backbone.gflus.W_in.2.bias f4 [68]
0.05792226 -0.020380603 0.015548081 0.06415143 0.07065156 0.29243213 0.023834983 0.15675287
0.08694361 -0.003246575 -0.13189104 0.07034512 -0.103423126 0.056927666 0.12700333 -0.028235942
0.19371875 0.2774583 0.06292896 0.2869663 -0.03416991 0.23903708 0.0851722 0.071767025
0.13264543 -0.098908246 -0.3276282 0.11933176 -0.057512674 0.35376388 0.07297427 0.08394173
0.1977415 0.09736053 0.16579348 0.12602758 0.25063127 0.26109648 0.30975652 0.2971279
0.2596982 0.43861607 0.21589756 0.16822621 0.040950153 0.35467747 0.4650488 0.4216733
0.10696451 0.10941496 0.5183706 0.12011281 0.1886251 0.061019696 0.15134598 0.21704265
0.28912774 0.264963 0.029849296 0.14669001 0.21799444 0.114457056 0.009451347 0.22346498
0.26789778 0.09215733 0.15908198 0.10021359
00000000: e43f 6d3d 39f5 a6bc 61bd 7e3c d361 833d
00000010: c4b1 903d aab9 953e 9541 c33c d383 203e
00000020: 7e0f b23d 7dc4 54bb 720e 07be 1a11 903d
00000030: 81cf d3bd fc2c 693d 290d 023e 104f e7bc
00000040: 355e 463e 040f 8e3e e6e0 803d 3fed 923e
00000050: bff5 0bbd 23c6 743e c36e ae3d 97fa 923d
00000060: 34d4 073e 6890 cabd e2be a7be 3664 f43d
00000070: 6992 6bbd 8a20 b53e 8973 953d a4e9 ab3d
00000080: bf7c 4a3e f564 c73d c4c5 293e 600d 013e
00000090: be52 803e 70ae 853e 6898 9e3e 2621 983e
000000a0: 2af7 843e 4992 e03e 4014 5d3e 7e43 2c3e
000000b0: 59bb 273d 4998 b53e e01a ee3e 90e5 d73e
000000c0: 3610 db3d f314 e03d f0b3 043f b4fd f53d
000000d0: f026 413e caef 793d 71fa 1a3e 6e40 5e3e
000000e0: 8d08 943e 3ba9 873e 8386 f43c e835 163e
000000f0: ef39 5f3e 7668 ea3d d3d9 1a3c 01d4 643e
00000100: e629 893e fbbc bc3d 63e6 223e c83c cd3d

_backbone.gflus.W_in.3.weight f4 [68, 68]
0.03784147 0.08915472 0.12688786 -0.13390824 0.041820448 -0.06011293 -0.08059388 -0.031157974
-0.057154793 -0.009828013 -0.092363596 0.07031855 0.08484886 -0.11826187 -0.1313206 -0.028565902
0.061256714 0.15759072 -0.06392914 0.024637649 0.04097002 0.043656573 0.07630018 0.044879038
0.091446064 -0.0098687345 0.11863304 0.03201155 -0.23085034 0.08660344 0.08439047 0.09721352
0.013514024 0.04185721 0.09490232 -0.38295385 0.15145466 -0.2689697 -0.25597042 -0.23579144
0.24582157 -0.13326831 -0.1488733 -0.08308307 -0.5432065 0.4100641 -0.39641714 -0.26633784
-0.033899665 -0.27517265 -0.18900706 0.011994741 0.1166945 -0.49815628 0.4494554 0.15475349
-0.2674397 -0.09758192 -0.049255595 -0.41532913 -0.090880044 0.30571446 -0.06598366 -0.008039129
-0.44971207 0.13847454 0.17413794 0.08146911 0.007426789 -0.12657885 -0.1527629 0.009015062
0.07336269 -0.060346045 0.10210514 0.12886396 0.072292365 0.11767955 -0.1612923 0.08440833
0.026731344 -0.09990313 -0.111186564 -0.022077939 0.10159434 0.1472772 0.11976049 -0.08742195
0.10599585 0.06759842 0.11962635 -0.0923981 0.1341359 0.011361823 0.047904987 -0.13090917
-0.10028595 -0.0862908 -0.033781756 0.036766544 -0.04474365 0.03400604 0.2136927 0.54938453
-0.09800351 -0.10121457 -0.25934714 -0.31554297 -0.37152708 -0.11200092 0.11584813 -0.016791739
-0.016131517 -0.16587338 0.20224656 0.27183703 0.06474647 0.3643634 -0.12423188 -0.18804261
0.09080047 0.009652901 -0.046523377 0.01081799 -0.18932782 -0.17377754 -0.051635366 0.0829559
0.25895086 -0.15781307 -0.18570521 0.21897757 -0.10088882 -0.54780734 -0.02837126 0.13380454
-0.070402406 -0.09574916 0.050867442 -0.1046549 0.0091723455 -0.08002679 -0.051716726 -0.042188328
0.007930964 -0.023156852 -0.47971532 0.0980488 0.011843966 -0.09481718 0.15383573 -0.028671619
-0.02929662 0.011510813 0.023799775 0.029692084 0.11329165 0.04524363 0.10830911 0.034256168
-0.08211009 0.030063543 -0.021491118 0.14847884 0.009403587 0.058519848 -0.036907483 0.06688527
0.052209746 0.027126452 -0.15036274 -0.2581053 0.47600812 -0.22611022 -0.078119025 -0.35410118
-0.04294188 -0.24197568 -0.1913716 -0.4844641 -0.5853351 -0.009467855 -0.29710504 -0.4439595
-0.22125064 0.0747474 0.070833005 0.28223678 0.2540138 -0.13814825 0.040363394 0.6248133
-0.4059483 -0.8187638 -0.088721715 0.08733248 0.07698979 0.010617143 -0.03993465 0.30191672
-0.2266994 0.15456061 -0.14847587 -0.23712762 -0.08996424 0.09488766 0.14193243 0.017478002
-0.08023694 -0.042886008 0.10634698 0.064428866 0.08643432 0.09562279 -0.08973036 -0.053089965
0.09302569 -0.06243549 -0.13835092 0.027430752 -0.023024514 0.12061801 -0.05304759 -0.026235301
-0.060933035 0.08059182 -0.005866433 -0.0035455106 -0.06598091 0.11735718 0.09706648 -0.12862755
-0.0030533236 -0.042295743 0.026647473 -0.020469276 0.04642683 -0.032105304 -0.101345085 -0.2500909
-0.12671833 0.066690214 0.21380962 0.06841639 0.062184814 0.020948308 -0.020909 -0.23262314
-0.30846038 0.10999653 -0.2537573 -0.19138604 -0.11809726 0.2875151 0.06275966 -0.16172194
00000000: a8ff 1a3d c096 b63d e4ee 013e 3e1f 09be
00000010: eb4b 2b3d fa38 76bd 670e a5bd 023f ffbc
00000020: 251b 6abd ad05 21bc 2029 bdbd 2c03 903d
00000030: 3dc5 ad3d 4833 f2bd e878 06be 0a03 eabc
00000040: 52e8 7a3d 765f 213e 48ed 82bd e5d4 c93c
00000050: 2ed0 273d 3cd1 323d 4543 9c3d 15d3 373d
00000060: 1348 bb3d 79b0 21bc e1f5 f23d 8b1e 033d
00000070: 0864 6cbe 255d b13d e9d4 ac3d e217 c73d
00000080: ed69 5d3c 7772 2b3d 265c c23d 8712 c4be
00000090: ee16 1b3e 66b6 89be 8e0e 83be 5073 71be
000000a0: a6b8 7b3e 7d77 08be 3e72 18be 7527 aabd
000000b0: 950f 0bbf ecf3 d13e 30f7 cabe 6f5d 88be
000000c0: 60da 0abd 6ee3 8cbe 118b 41be 9785 443c
000000d0: 87fd ee3d 570e ffbe 051f e63e b377 1e3e
000000e0: dbed 88be 08d9 c7bd 3cc0 49bd 05a6 d4be
000000f0: 511f babd 9b86 9c3e 7122 87bd 8db6 03bc
00000100: a940 e6be 45cc 0d3e 3751 323e 47d9 a63d
00000110: 6c5c f33b e39d 01be e16d 1cbe e9b3 133c
00000120: 2e3f 963d 6a2d 77bd 801c d13d eaf4 033e
00000130: 050e 943d fa01 f13d cf29 25be 46de ac3d
00000140: b1fb da3c 039a ccbd c8b5 e3bd cbdc b4bc
00000150: b110 d03d d6cf 163e fd44 f53d 480a b3bd
00000160: 5a14 d93d 0a71 8a3d a9fe f43d 373b bdbd
00000170: ec5a 093e f126 3a3c 0538 443d 0e0d 06be
00000180: b862 cdbd 3bb9 b0bd bd5e 0abd 8498 163d
00000190: 1e45 37bd eb49 0b3d 42d2 5a3e 77a4 0c3f
000001a0: 10b6 c8bd 9649 cfbd 26c9 84be d98e a1be
000001b0: cc38 bebe bd60 e5bd c941 ed3d d48e 89bc
000001c0: 3e26 84bc b6da 29be b919 4f3e 392e 8b3e
000001d0: cc99 843d d78d ba3e 496d febd 3e8e 40be
000001e0: 99f5 b93d 3427 1e3c 4c8f 3ebd f03d 313c
000001f0: 27df 41be bdf2 31be 9b7f 53bd c8e4 a93d
00000200: 3595 843e c099 21be 8229 3ebe a83b 603e
00000210: cc9e cebd 1a3d 0cbf d86a e8bc 0f04 093e
00000220: 232f 90bd 2318 c4bd 615a 503d 4f55 d6bd
00000230: 9b47 163c 16e5 a3bd ebd4 53bd abcd 2cbd
00000240: e0f0 013c 70b3 bdbc 3f9d f5be cfcd c83d
00000250: 320d 423c 822f c2bd 1d87 1d3e bee0 eabc
00000260: 77ff efbc d997 3c3c bff7 c23c d03c f33c
00000270: 7405 e83d 6251 393d 2bd1 dd3d 3250 0c3d
00000280: 5629 a8bd d247 f63c 240e b0bc d60a 183e
00000290: 8111 1a3c 82b2 6f3d 4d2c 17bd 25fb 883d
000002a0: e3d9 553d 4b38 de3c b1f8 19be 6126 84be
000002b0: 56b7 f33e 7089 67be defc 9fbd c04c b5be
000002c0: d3e3 2fbd 79c8 77be ebf6 43be ae0b f8be
000002d0: 85d8 15bf 101f 1bbc 271e 98be a94e e3be
000002e0: 878f 62be 2a15 993d e510 913d 5781 903e
000002f0: 190e 823e bc76 0dbe 1654 253d c4f3 1f3f
00000300: 75d8 cfbe 819a 51bf bbb3 b5bd 5fdb b23d
00000310: d3ac 9d3d 86f3 2d3c 8492 23bd d494 9a3e
00000320: e323 68be 2345 1e3e 0f0a 18be 95d1 72be
00000330: 2c3f b8bd 7654 c23d bc56 113e 072e 8f3c
00000340: 4453 a4bd 3da9 2fbd 72cc d93d 48f3 833d
00000350: 7a04 b13d e2d5 c33d 8dc4 b7bd dd74 59bd
00000360: 4184 be3d 5bbc 7fbd ddab 0dbe 75b6 e03c
00000370: e89d bcbc 9306 f73d 6e48 59bd 6aeb d6bc
00000380: eb94 79bd 530d a53d 353b c0bb cc5b 68bb
00000390: 0021 87bd f658 f03d caca c63d f1b6 03be
000003a0: 451a 48bb 4d3e 2dbd cd4b da3c 2faf a7bc
000003b0: 0f2a 3e3d da80 03bd 038e cfbd ea0b 80be
000003c0: 73c2 01be e194 883d e9f0 5a3e e41d 8c3d
000003d0: 81b5 7e3d c99b ab3c 5a49 abbc c334 6ebe
000003e0: 85ee 9dbe dc45 e13d 7aec 81be b4fa 43be
000003f0: fadc f1bd 2e35 933e 2388 803d 709a 25be

_backbone.gflus.W_in.3.bias f4 [68]
0.032229137 0.023248736 -0.2290551 0.05779306 0.029650198 -0.0021248749 0.070854485 -0.082051896
-0.03124158 0.03331336 -0.016373402 0.009853241 0.13417679 0.22282733 0.07828918 0.22830948
0.0026562584 -0.25782275 0.10667345 0.22510414 -0.07484225 -0.0022185044 0.0736132 0.34329903
0.0061354246 0.16062386 0.076505266 0.11906785 0.1376066 0.028556839 -0.02643002 0.10757824
-0.003151484 0.053139452 0.14239636 0.22433312 0.3262376 0.122877374 0.09819828 0.22803314
0.3687294 0.40655863 0.22189155 0.2359616 0.22534014 0.22902288 0.24001575 0.0998741
0.21487549 0.033941835 0.14572704 0.1794356 0.025643375 0.116428964 0.26638305 0.12235203
0.16605256 0.23302226 0.1783113 0.2240565 0.15697505 0.13337618 0.27464148 0.24064092
0.31292522 0.059963442 0.11661316 0.18387009
00000000: b302 043d 2274 be3c 6c8d 6abe 6ab8 6c3d
00000010: f9e4 f23c 7c41 0bbb 281c 913d d30a a8bd
00000020: 58ee ffbc 9773 083d 8321 86bc 7d6f 213c
00000030: a465 093e d92c 643e 1456 a03d f6c9 693e
00000040: 9f14 2e3b 5801 84be 9c77 da3d b381 663e
00000050: e546 99bd 5464 11bb 84c2 963d e4c4 af3e
00000060: ac0b c93b 957a 243e cbae 9c3d d8d9 f33d
00000070: bfe8 0c3e 08f0 e93c c583 d8bc fb51 dc3d
00000080: 2189 4ebb c1a8 593d 5ad0 113e 95b7 653e
00000090: 9d08 a73e 22a7 fb3d 2e1c c93d 8581 693e
000000a0: 1aca bc3e 7428 d03e 8a37 633e eb9f 713e
000000b0: 91bf 663e f984 6a3e b0c6 753e cb8a cc3d
000000c0: 5208 5c3e 9806 0b3d 7839 153e f7bd 373e
000000d0: 0e12 d23c 4f72 ee3d 5c63 883e b393 fa3d
000000e0: af09 2a3e 639d 6e3e 3d97 363e 116f 653e
000000f0: 11be 203e c493 083e cf9d 8c3e 936a 763e
00000100: bc37 a03e 3a9c 753d e1d2 ee3d 7148 3c3e

_backbone.gflus.W_in.4.weight f4 [68, 68]
0.044566855 -0.035915658 -0.0009684687 -0.10713912 0.024362361 -0.15312988 -0.15838963 -0.030232852
-0.01616538 0.076240115 -0.058428306 -0.10949819 0.1397892 -0.0035928395 0.08295838 -0.0027875628
-0.08742657 -0.08973971 -0.09384344 -0.1205285 0.06554437 -0.015361442 -0.10276095 -0.010525504
-0.03226508 -0.048727006 0.062893644 -0.144182 -0.19781823 0.05741056 0.069250755 -0.08846427
0.08510854 -0.12932776 -0.15201636 -0.19546728 0.095021226 0.06157507 -0.11548667 0.04751402
-0.114602044 -0.3195821 -0.057032246 -0.094302215 -0.12263575 -0.111863256 0.049813148 -0.015514688
-0.07140353 0.42351413 -0.12577039 -0.00093149627 0.30868936 0.008206686 0.11299632 -0.011678143
-0.20726965 -0.09160278 -0.14355311 -0.14128177 -0.15441668 0.06385311 -0.1486067 -0.0014322485
0.12501927 0.14773767 -0.008817883 -0.33909485 -0.61834145 -0.042249747 -0.028001843 -0.10005963
0.033369012 -0.019815214 0.06393239 0.08588198 -0.0922454 -0.087015055 0.01961463 0.11009092
0.13692617 0.06433608 0.10196808 0.085553594 -0.1482468 0.03629515 -0.093425356 -0.056799024
0.046716943 -0.022929566 -0.050616406 0.15360388 0.038323376 0.029718291 -0.0036430338 0.041692875
-0.056148052 -0.06425773 -0.024041325 0.07667769 -0.08282226 -0.063064955 0.38835308 -0.16410221
0.25750467 -0.0555008 -0.058027055 -0.22931263 0.054215986 -0.36820772 -0.22280595 -0.0150646055
0.16113725 0.37174618 -0.2672166 -0.29058635 -0.15335432 0.28105384 -0.06478019 0.014068014
0.11192508 -0.09694704 0.04049873 0.3094633 -0.33362976 -0.024579346 -0.22214854 0.08126857
0.31909037 0.07765069 -0.28721613 0.12342321 -0.38080215 0.038673874 -0.20884752 -0.102233805
0.38206413 -0.13711272 -0.011359967 0.09414285 -0.1170386 -0.0523114 0.042652663 -0.0879009
-0.07683725 -0.07108211 0.067778446 -0.10963557 0.038506836 -0.003943263 -0.06720924 0.029877445
-0.058705904 -0.019450998 -0.11146904 0.087187305 -0.042693403 -0.06843447 -0.0034447876 -0.12841614
-0.07928801 -0.035354838 -0.0669041 -0.09467528 -0.030406436 -0.003763867 0.065709375 -0.024871906
-0.0935364 0.103031784 0.32133418 0.0420224 -0.02081999 0.29889804 0.50244474 0.22001918
-0.29912254 -0.12815727 0.411748 0.3985924 0.11898468 -0.5145188 0.011829501 -0.15189849
0.30269155 0.0034698646 0.19226736 0.13978194 0.02490433 0.32041228 -0.1834319 -0.44791868
0.25151703 0.3227235 0.13790978 0.072563514 -0.2642189 -0.14710356 0.2330542 -0.044177312
0.008880748 0.08289753 0.07004048 -0.26970512 0.2875398 0.103885345 0.069300115 0.060006533
0.008160182 0.035501372 -0.1711244 -0.032482773 -0.0035769152 0.052544586 -0.18107705 0.09017969
-0.042771798 -0.037379704 0.046431657 0.0636441 0.07007028 -0.026418952 0.08558708 -0.056230146
0.07309187 0.09049736 0.027989067 0.08416822 0.05867449 0.14204726 0.07285531 0.076551974
-0.019377578 -0.082263455 -0.020602588 -0.09344592 0.012941198 0.15840791 0.28211278 0.016398046
0.19598556 0.1325124 0.03824544 0.012125218 0.21080908 -0.036722325 -0.04979515 -0.38409555
0.010521523 0.107417494 -0.26945457 -0.15864487 -0.045027487 0.08664284 -0.29469034 -0.23778068
00000000: bc8b 363d 4c1c 13bd d6e0 7dba c16b dbbd
00000010: 9393 c73c 14ce 1cbe e430 22be e3aa f7bc
00000020: 426d 84bc c723 9c3d 8552 6fbd 9640 e0bd
00000030: e624 0f3e d875 6bbb 15e6 a93d 8baf 36bb
00000040: b40c b3bd 74c9 b7bd fd30 c0bd a5d7 f6bd
00000050: 203c 863d 8fae 7bbc 5574 d2bd 2a73 2cbc
00000060: 6328 04bd f895 47bd 62ce 803d 72a4 13be
00000070: dd90 4abe 5627 6b3d 57d3 8d3d c12c b5bd
00000080: 634d ae3d 7f6e 04be 2daa 1bbe 9328 48be
00000090: 7d9a c23d 2436 7c3d 4684 ecbd 109e 423d
000000a0: 7ab4 eabd 44a0 a3be a59a 69bd 8521 c1bd
000000b0: 7428 fbbd 9018 e5bd df08 4c3d 5131 7ebc
000000c0: 043c 92bd d8d6 d83e f4c9 00be a82f 74ba
000000d0: 880c 9e3e 5675 063c 9d6a e73d af55 3fbc
000000e0: 7f3e 54be 3d9a bbbd 96ff 12be 2bac 10be
000000f0: 681f 1ebe 6bc5 823d 5b2c 18be 49ba bbba
00000100: 0d05 003e 8b48 173e e278 10bc d79d adbe
00000110: a04b 1ebf 120e 2dbd 1f64 e5bc 10ec ccbd
00000120: f2ad 083d 8453 a2bc fcee 823d e4e2 af3d
00000130: 28eb bcbd f334 b2bd dcae a03c 5977 e13d
00000140: 6036 0c3e a2c2 833d a4d4 d03d b936 af3d
00000150: 02ce 17be 39aa 143d cb55 bfbd 18a6 68bd
00000160: 445a 3f3d c9d6 bbbc 2653 4fbd 564a 1d3e
00000170: f9f8 1c3d c673 f33c f7bf 6ebb 26c6 2a3d
00000180: 80fb 65bd 8f99 83bd 50f2 c4bc 3109 9d3d
00000190: b89e a9bd 3328 81bd 37d6 c63e 690a 28be
000001a0: a7d7 833e cf54 63bd c7ad 6dbd eed0 6abe
000001b0: 9511 5e3d b985 bcbe 3e27 64be 89d1 76bc
000001c0: 2a01 253e 8455 be3e 9dd0 88be bcc7 94be
000001d0: ea08 1dbe 4ae6 8f3e 7aab 84bd 877d 663c
000001e0: fa38 e53d 2b8c c6bd ffe1 253d f971 9e3e
000001f0: 85d1 aabe a05a c9bc e87a 63be 2370 a63d
00000200: d05f a33e 5307 9f3d fe0d 93be 4fc5 fc3d
00000210: 80f8 c2be 7f68 1e3d 20dc 55be f55f d1bd
00000220: e99d c33e 4767 0cbe 281f 3abc f7cd c03d
00000230: efb1 efbd 7b44 56bd 8fb4 2e3d 6305 b4bd
00000240: d95c 9dbd 7f93 91bd 6dcf 8a3d 9d88 e0bd
00000250: 58b9 1d3d 7d36 81bb ffa4 89bd 8bc1 f43c
00000260: 9a75 70bd b357 9fbc e149 e4bd 428f b23d
00000270: 47df 2ebd 5f27 8cbd f2c1 61bb 857f 03be
00000280: c161 a2bd 3cd0 10bd 0405 89bd 1de5 c1bd
00000290: eb16 f9bc 36ab 76bb a392 863d 2bc0 cbbc
000002a0: 0390 bfbd 5402 d33d ea85 a43e ae1f 2c3d
000002b0: af8e aabc 2a09 993e 38a0 003f b54c 613e
000002c0: 9726 99be a93b 03be a2d0 d23e 4e14 cc3e
000002d0: 3dae f33d 81b7 03bf 86d0 413c 478b 1bbe
000002e0: 63fa 9a3e ab66 633b bce1 443e ff22 0f3e
000002f0: 2a04 cc3c 140d a43e 92d5 3bbe 9955 e5be
00000300: d7c6 803e 043c a53e 3938 0d3e 2e9c 943d
00000310: b347 87be 51a2 16be c3a5 6e3e 45f3 34bd
00000320: 8f80 113c 2ec6 a93d 6271 8f3d ca16 8abe
00000330: 6b38 933e d7c1 d43d 38ed 8d3d 69c9 753d
00000340: 49b2 053c e369 113d 3c3b 2fbe a80c 05bd
00000350: ae6a 6abb fe38 573d 436c 39be 21b0 b83d
00000360: 7b31 2fbd 761b 19bd 1f2f 3e3d d757 823d
00000370: 0281 8f3d 8f6c d8bc 4748 af3d 9551 66bd
00000380: 31b1 953d ae56 b93d 5449 e53c 6360 ac3d
00000390: a954 703d d674 113e 2a35 953d 48c7 9c3d
000003a0: babd 9ebc be79 a8bd c2c6 a8bc 9360 bfbd
000003b0: 5207 543c af35 223e 1671 903e 3255 863c
000003c0: 70b0 483e 55b1 073e 40a7 1c3d daa8 463c
000003d0: 56de 573e 266a 16bd 00f6 4bbd 2ca8 c4be
000003e0: 7762 2c3c b4fd db3d f3f5 89be cd73 22be
000003f0: be6e 38bd cd71 b13d a7e1 96be c77c 73be

_backbone.gflus.W_in.4.bias f4 [68]
0.06290151 0.015142868 0.13989243 -0.12018819 0.145543 0.09170733 -0.18630227 0.09356081
0.18810035 0.07025116 0.15974875 0.058693286 0.02217732 0.11763005 -0.0042843497 -0.005751591
0.19439374 -0.04547331 0.13961287 0.24116127 -0.044408794 -0.11017577 -0.0036005636 0.16909093
-0.101424694 0.044333804 -0.016848704 -0.08577862 0.05784456 0.0157328 -0.22354178 0.22307685
0.07839651 -0.055939507 0.47004154 0.091146246 0.21053763 0.22558624 0.018033808 0.37574866
0.38812438 0.26720455 0.16781804 0.25165936 0.21655907 0.26767617 0.1191186 0.10076606
0.26673177 0.22998741 -0.024857389 0.36267352 0.25204238 0.12682728 0.10463095 0.29383403
0.25651535 0.17091231 0.28829697 0.12113998 0.17966214 0.10231216 0.16848916 0.22198199
0.2757634 0.21997598 0.2467206 0.36799344
00000000: 82d2 803d cb19 783c f63f 0f3e 3a25 f6bd
00000010: 3909 153e 0dd1 bb3d 06c6 3ebe cf9c bf3d
00000020: 619d 403e d7df 8f3d 2d95 233e 5f68 703d
00000030: 36ad b53c 06e8 f03d bb63 8cbb d877 bcbb
00000040: 270f 473e 3942 3abd adf6 0e3e fbf2 763e
00000050: ffe5 35bd d6a3 e1bd 6ff7 6bbb 2c26 2d3e
00000060: c0b7 cfbd 5d97 353d 4b06 8abc b3ac afbd
00000070: 6bee 6c3d 13e2 803c 23e8 64be 426e 643e
00000080: 598e a03d d320 65bd 49a9 f03e e2aa ba3d
00000090: 2d97 573e 1400 673e a3bb 933c 2162 c03e
000000a0: 3db8 c63e 09cf 883e 7ed8 2b3e 7fd9 803e
000000b0: a9c1 5d3e da0c 893e 74f4 f33d 705e ce3d
000000c0: 1191 883e d281 6b3e b9a1 cbbc 58b0 b93e
000000d0: b30b 813e 03df 013e c048 d63d 6a71 963e
000000e0: fb55 833e a303 2f3e a99b 933e 3d18 f83d
000000f0: 5af9 373e 0a89 d13d 6c88 2c3e 3f4f 633e
00000100: dc30 8d3e 6241 613e 53a4 7c3e a369 bc3e
