saved_models/regression-14_epoch=0-valid_loss=6018917888.00.ckpt (torch, 92111 bytes, 29 tensors)

_backbone.linear_layers.0.weight f4 [50, 59]
6.768829 -6.975566 5.411746 -4.4442835 9.367387 9.709985 2.0070593 4.850213
5.5337944 -5.145013 1.1107463 -4.558108 -5.2767086 6.386401 -4.6580286 -6.8203816
3.3764296 -6.499801 6.7505755 5.7215176 4.98129 -4.359439 -5.799082 5.6754007
5.1827226 6.851502 -5.5618095 5.327707 -6.4425173 -6.6182 5.4410753 3.9385538
-6.4369807 -6.1532326 6.6321115 -5.3712764 -7.114894 6.559216 -1.5487357 -3.1161332
-6.5227957 6.359104 5.2003 4.266007 -6.998967 -2.315712 -5.0710616 -6.019247
-1.5534412 -6.228731 -7.1386867 7.2576203 7.1677413 7.147902 -7.2483273 5.332702
-5.1101775 -3.2005708 2.2897785 5.540266 -8.455889 6.6843348 -3.270481 9.326816
9.825921 2.2457132 4.982283 6.887821 -6.5176525 1.0844253 -4.203072 -5.293534
5.0609093 -4.709229 -6.879631 6.1359434 -6.6155214 6.721977 4.5375485 3.7013776
-4.4288034 -7.18961 4.708474 6.5102386 7.099843 -7.0101 6.2649345 -6.623764
-5.245176 4.824705 5.38523 -6.476409 -6.327601 6.5436454 -6.741976 -7.211146
6.868735 -1.23861 -4.4609094 -6.6836705 6.7044573 4.154445 4.599185 -7.0253263
-3.99275 -6.57338 -4.8605423 -2.9849784 -6.288469 -7.171195 7.2671885 7.351029
7.3142385 -7.392672 4.102121 -5.098518 -3.586253 2.2700348 5.7060633 -8.348126
6.860136 -3.3292038 8.067127 9.660376 2.2046115 6.151193 6.958315 -6.5710964
1.0819225 -4.2627997 -5.174334 6.3969164 -4.835667 -6.686078 6.033383 -6.786035
6.8023605 5.743437 3.6414447 -5.6440506 -7.245471 4.939729 6.5211782 7.0306444
-5.712685 6.0356727 -6.516131 -6.627221 4.954352 4.091239 -6.3813753 -6.1680455
6.6439795 -6.7010474 -7.1655216 6.747541 -1.6636642 -3.3250268 -6.5501714 6.4056754
5.4877863 4.7371345 -6.9532576 -3.825003 -6.4209466 -4.7630196 -1.3421226 -6.211164
-7.2229357 7.198369 7.06381 7.270889 -7.1454053 4.0354905 -5.2766123 -3.4848073
2.349924 5.464322 -6.951274 6.75315 -4.582119 9.380321 9.808904 2.073827
6.1599984 5.624065 -5.175235 0.816544 -4.1080146 -5.259301 4.960158 -4.563395
-6.7408953 5.970649 -6.4922276 6.660798 4.4664173 3.6047018 -4.5060716 -7.152519
3.318099 6.2342916 6.8793654 -6.8751087 5.9531684 -6.428013 -6.411407 4.786376
4.103264 -6.359783 -6.0330143 5.366478 -5.3264966 -7.1410995 6.732228 -1.5297476
-3.2145412 -6.3525596 6.3106585 5.363907 4.5765934 -6.896472 -2.2903597 -6.4645596
-4.651636 -1.3234682 -6.3070865 -6.953831 7.230419 7.0916495 7.263461 -7.1573143
4.1416693 -5.1410913 -3.51121 2.2679076 6.7563963 -6.199739 3.6827831 -4.5937176
7.8876295 8.085545 3.779643 2.385535 6.43038 -3.9459403 -0.9044809 -2.5949173
-2.8232021 3.5196712 -2.79731 -4.9942217 3.722877 -3.6639814 3.823143 5.3222756
00000000: 3f9a d840 d637 dfc0 062d ad40 9237 8ec0
00000010: d1e0 1541 195c 1b41 a973 0040 f234 9b40
00000020: d814 b140 f2a3 a4c0 ef2c 8e3f 05dc 91c0
00000030: ccda a8c0 665d cc40 920e 95c0 9140 dac0
00000040: 6c17 5840 5ffe cfc0 b704 d840 ac16 b740
00000050: ba66 9f40 8680 8bc0 1492 b9c0 e29c b540
00000060: ddd8 a540 813f db40 58fa b1c0 937c aa40
00000070: 1a29 cec0 4bc8 d3c0 4a1d ae40 4411 7c40
00000080: bffb cdc0 48e7 c4c0 423a d440 7fe1 abc0
00000090: 36ad e3c0 19e5 d140 f93c c6bf ba6e 47c0
000000a0: beba d0c0 c87d cb40 dc68 a640 2183 8840
000000b0: 8af7 dfc0 a034 14c0 2346 a2c0 ac9d c0c0
000000c0: 29d7 c6bf c451 c7c0 1f70 e4c0 6d3e e840
000000d0: 235e e540 9dbb e440 4cf2 e7c0 7fa5 aa40
000000e0: 9386 a3c0 27d6 4cc0 bb8b 1240 dc49 b140
000000f0: 524b 07c1 12e6 d540 904f 51c0 a33a 1541
00000100: f936 1d41 c4b9 0f40 dd6e 9f40 0869 dc40
00000110: 9c90 d0c0 73ce 8a3f 917f 86c0 a164 a9c0
00000120: f8f2 a140 01b2 96c0 f025 dcc0 a659 c440
00000130: 5ab2 d3c0 701a d740 9933 9140 5fe3 6c40
00000140: c2b8 8dc0 4911 e6c0 d2ab 9640 e053 d040
00000150: ea31 e340 bd52 e0c0 587a c840 e0f5 d3c0
00000160: 7bd8 a7c0 fc63 9a40 ce53 ac40 be3e cfc0
00000170: b57b cac0 8b65 d140 44be d7c0 b5c1 e6c0
00000180: adcc db40 c68a 9ebf c5bf 8ec0 a1e0 d5c0
00000190: ea8a d640 37f1 8440 862c 9340 79cf e0c0
000001a0: 3789 7fc0 2159 d2c0 9089 9bc0 e309 3fc0
000001b0: 233b c9c0 6e7a e5c0 cf8c e840 a13b eb40
000001c0: 3e0e ea40 c590 ecc0 9344 8340 0f27 a3c0
000001d0: 2b85 65c0 4048 1140 1298 b640 ed91 05c1
000001e0: 3c86 db40 ad11 55c0 f412 0141 e690 1a41
000001f0: 5b18 0d40 93d6 c440 84aa de40 6c46 d2c0
00000200: 707c 8a3f db68 88c0 2594 a5c0 8ab3 cc40
00000210: c9bd 9ac0 5af4 d5c0 7911 c140 3327 d9c0
00000220: f0ac d940 3cca b740 6e0d 6940 109c b4c0
00000230: e6da e7c0 4312 9e40 7ead d040 0afb e040
00000240: 51ce b6c0 3b24 c140 2584 d0c0 3212 d4c0
00000250: 0d8a 9e40 6eeb 8240 3a34 ccc0 a160 c5c0
00000260: 7b9b d440 fb6e d6c0 f44b e5c0 dbeb d740
00000270: f3f2 d4bf 3dcd 54c0 019b d1c0 4bfb cc40
00000280: f29b af40 9b96 9740 1681 dec0 d9cc 74c0
00000290: 6578 cdc0 a86a 98c0 acca abbf dbc1 c6c0
000002a0: 4a22 e7c0 0a59 e640 bb0a e240 1fab e840
000002b0: 29a7 e4c0 bd22 8140 02da a8c0 1507 5fc0
000002c0: 2865 1640 badb ae40 d670 dec0 ce19 d840
000002d0: b8a0 92c0 cb15 1641 45f1 1c41 95b9 0440
000002e0: b51e c540 57f8 b340 869b a5c0 0709 513f
000002f0: db74 83c0 324c a8c0 9db9 9e40 5507 92c0
00000300: 6ab5 d7c0 8e0f bf40 54c0 cfc0 4225 d540
00000310: e4ec 8e40 6fb3 6640 bd31 90c0 70e1 e4c0
00000320: bc5b 5440 517f c740 c323 dc40 e400 dcc0
00000330: 5b80 be40 48b2 cdc0 3f2a cdc0 fe29 9940
00000340: f04d 8340 5883 cbc0 740e c1c0 30ba ab40
00000350: a972 aac0 e383 e4c0 696e d740 c5ce c3bf
00000360: 0bbb 4dc0 2b48 cbc0 eaf0 c940 20a5 ab40
00000370: 7473 9240 e6af dcc0 4195 12c0 acdd cec0
00000380: 34da 94c0 6867 a9bf a7d3 c9c0 c985 dec0
00000390: 985f e740 cbee e240 466e e840 b808 e5c0
000003a0: 8e88 8440 d283 a4c0 aab7 60c0 6625 1140
000003b0: 6634 d840 4364 c6c0 b8b2 6b40 bcff 92c0
000003c0: 7667 fc40 645e 0141 ace5 7140 9bac 1840
000003d0: acc5 cd40 498a 7cc0 0f8c 67bf 2013 26c0
000003e0: 58af 34c0 4b42 6140 2107 33c0 aad0 9fc0
000003f0: 9e43 6e40 ac7e 6ac0 60ae 7440 1550 aa40

_backbone.linear_layers.0.bias f4 [50]
9.695538 9.893043 9.668219 9.710998 7.5071573 6.983573 9.709737 7.067996
9.790515 9.752449 9.789229 7.945282 9.714503 9.576073 9.7171135 9.915045
7.3787527 9.763094 9.579031 9.705572 7.1517367 9.675116 3.0488765 6.866439
9.759235 9.822798 9.745906 9.801023 7.2158527 7.206618 9.755796 7.9653206
7.866769 7.619047 6.8834186 7.628543 6.2374806 9.745803 9.759531 9.743454
7.6753073 9.705071 9.875045 7.522926 9.737868 7.5647397 7.779729 7.193087
7.1117573 9.782792
00000000: ec20 1b41 e749 1e41 06b1 1a41 3f60 1b41
00000010: a23a f040 6e79 df40 155b 1b41 062d e240
00000020: f3a5 1c41 080a 1c41 afa0 1c41 c03f fe40
00000030: 9b6e 1b41 9837 1941 4c79 1b41 06a4 1e41
00000040: be1e ec40 a235 1c41 b643 1941 064a 1b41
00000050: 07db e440 46cd 1a41 cb20 4340 deb9 db40
00000060: d425 1c41 2e2a 1d41 3bef 1b41 fdd0 1c41
00000070: 44e8 e640 9d9c e640 be17 1c41 e8e3 fe40
00000080: 92bc fb40 3ccf f340 f744 dc40 061d f440
00000090: 7199 c740 cfee 1b41 0a27 1c41 30e5 1b41
000000a0: 1e9c f540 f947 1b41 2f00 1e41 cfbb f040
000000b0: 4fce 1b41 5912 f240 8af3 f840 c52d e640
000000c0: 8493 e340 5186 1c41

_embedding_layer.cat_embedding_layers.0.weight f4 [13, 7]
-0.69116527 0.7282097 0.12694316 -0.14746287 -0.5146798 2.635399 0.595935 3.637442
6.149666 6.7620997 -6.4855657 -0.21951103 -2.7653496 -4.9377437 2.132206 4.592855
7.5372477 -5.4420037 -0.52518654 -2.2751598 -6.916562 1.3435067 6.0902305 4.828827
-3.83709 2.6927083 -5.248501 -5.2691092 4.4680715 4.1656675 7.8951635 -5.8719697
-0.44579515 -6.1400285 -5.2012167 2.229667 5.532201 7.0129232 -6.656968 0.4490666
-4.1712008 -4.634254 3.9552636 3.6214504 8.643769 -5.1974854 0.35512838 -3.0671751
-3.9366496 2.0570607 7.720765 5.066414 -8.367862 0.434119 -0.98978543 -3.9431162
3.3289785 5.243537 6.3440557 -4.0101566 2.5987632 -4.833367 -5.0485744 2.2222977
4.6980624 3.089615 -7.4296284 0.3735217 -2.0340161 -3.3968294 2.1363442 4.059733
6.215481 -5.625662 0.9661032 0.4072181 -2.1090167 2.847958 4.2382073 7.030048
-5.609652 -1.182796 -0.6893721 -3.9277773 3.7898672 5.2695417 6.0277753 -4.048644
-0.7263336 -5.1060605 -5.0965147
00000000: 35f0 30bf f36b 3a3f 63fd 013e 8200 17be
00000010: 0ec2 03bf 61aa 2840 328f 183f dacb 6840
00000020: 10ca c440 1f63 d840 c189 cfc0 80c7 60be
00000030: 7dfb 30c0 ff01 9ec0 1076 0840 abf8 9240
00000040: 2231 f140 e524 aec0 a072 06bf 389c 11c0
00000050: 7a54 ddc0 07f8 ab3f 2be3 c240 c085 9a40
00000060: e292 75c0 5555 2c40 b8f3 a7c0 8b9c a8c0
00000070: 71fa 8e40 264d 8540 2ea5 fc40 2de7 bbc0
00000080: 433f e4be 1d7b c4c0 5e70 a6c0 ddb2 0e40
00000090: ca07 b140 de69 e040 e205 d5c0 0fec e53e
000000a0: 7a7a 85c0 cf4b 94c0 0a23 7d40 d8c5 6740
000000b0: e14c 0a41 cd51 a6c0 63d3 b53e 994c 44c0
000000c0: 11f2 7bc0 e2a6 0340 8210 f740 1020 a240
000000d0: c3e2 05c1 d844 de3e 9462 7dbf 045c 7cc0
000000e0: fc0d 5540 0ecb a740 8102 cb40 3453 80c0
000000f0: 2352 2640 f1aa 9ac0 ec8d a1c0 203a 0e40
00000100: 8756 9640 41bc 4540 84bf edc0 3c3e bf3e
00000110: 522d 02c0 a765 59c0 ddb9 0840 55e9 8140
00000120: 38e5 c640 6c05 b4c0 8a52 773f e47e d03e
00000130: 21fa 06c0 f244 3640 659f 8740 27f6 e040
00000140: 4582 b3c0 dc65 97bf b17a 30bf b460 7bc0
00000150: 2f8d 7240 16a0 a840 89e3 c040 7e8e 81c0
00000160: 00f1 39bf d964 a3c0 a616 a3c0

_embedding_layer.cat_embedding_layers.1.weight f4 [27, 14]
-0.37327778 0.49207863 -1.5971761 2.0853508 0.70581514 -0.17623797 1.123204 -0.6624541
-0.029970972 -1.1241298 -0.62896997 -0.9270151 -0.6314213 -0.18306957 6.2615223 -6.4814463
-7.932571 3.4656217 -8.669775 7.48305 5.566059 5.544208 -6.57508 -8.524116
5.8740644 8.359298 7.27176 -7.0233254 8.822201 -7.040181 -6.8752513 2.9233255
-9.689079 8.48193 5.518655 2.6491141 -5.9648495 -8.039499 4.8368196 5.090578
7.9321723 -7.6407065 10.249089 -8.446326 -10.179969 9.552057 -11.601891 12.327586
9.4399185 9.35303 -11.475706 -13.529017 10.70798 11.525338 10.760645 -10.486618
4.191538 -3.4301362 -7.596024 5.4442983 -3.6205661 5.2455354 4.0718703 2.9644196
-3.5221868 -7.585571 2.7706227 4.109252 6.851543 -5.0943656 10.616411 -7.9099336
-10.339706 10.819411 -10.143982 9.9277935 9.251743 9.34039 -10.107007 -12.602707
8.590078 10.466797 9.5062475 -10.563641 2.4171307 -3.2681305 -5.575552 3.7998865
-3.2889476 3.8310494 3.1130533 3.2478352 -1.5923764 -5.318753 4.2151976 3.3977215
4.596063 -4.5115848 14.166691 -15.649773 -15.768756 17.443783 -17.377382 13.343368
14.204554 15.197257 -13.767464 -17.53105 13.630439 15.2614155 17.950325 -18.14185
4.428743 -1.5112517 -6.913543 5.6036444 -4.4353814 6.3653407 3.290664 5.93635
-8.030136 -5.895448 3.9415836 4.018544 6.2319646 -8.895125 4.1600122 -1.1283829
-2.5212545 3.2105365 -2.4288018 3.0048654 1.9439896 1.4668194 -0.39929456 -3.8962898
4.166899 2.6094215 4.0203495 -3.7343948 9.662664 -7.935144 -9.253352 6.9533143
-9.306163 9.381486 9.208283 8.322348 -7.37983 -9.831658 6.5955105 8.384699
10.515689 -10.114021 8.856594 -6.5849915 -8.695109 8.867026 -9.112594 8.033013
6.421345 6.910794 -5.983596 -10.183238 5.5273113 5.468787 8.173539 -8.767077
2.4706922 -4.2121353 -6.826475 4.450674 -5.134981 3.3638816 5.217128 3.6443157
-3.1682918 -5.4131813 2.7648888 3.9240808 5.828776 -5.9529004 5.7827363 -4.7978215
-7.157683 6.338782 -6.82591 5.8887224 3.5125833 4.64019 -2.8988802 -6.6955976
3.6111188 5.940727 5.36785 -8.094046 3.4260523 -3.642016 -5.7408137 1.8453271
-5.202787 4.211789 3.802978 4.2638955 -3.859668 -6.90313 3.6623025 4.3441925
6.188098 -5.8820176 7.4460196 -6.46749 -6.752306 8.189054 -7.4951234 8.98426
5.153639 5.560735 -6.806454 -7.226289 6.5508623 6.864158 9.116346 -8.248001
12.555055 -14.79842 -17.064886 14.785384 -16.833038 14.837338 15.364318 14.710093
-14.535973 -19.587317 14.607252 17.156849 19.22364 -15.686519 8.327501 -4.172969
-8.030359 3.2161233 -6.956487 6.89459 7.087085 6.1275516 -5.6320996 -7.444194
4.846989 7.6619244 8.911027 -7.72475 5.804837 -3.7405744 -5.646742 3.1681266
00000000: 441e bfbe bbf1 fb3e 4470 ccbf 6376 0540
00000010: 4db0 343f ba77 34be 26c5 8f3f 9896 29bf
00000020: af85 f5bc 7ce3 8fbf 2d04 21bf dd50 6dbf
00000030: d4a4 21bf 9776 3bbe 645e c840 0268 cfc0
00000040: 9fd7 fdc0 bfcc 5d40 66b7 0ac1 2575 ef40
00000050: 281d b240 276a b140 0e67 d2c0 c762 08c1
00000060: 56f8 bb40 afbf 0541 42b2 e840 15bf e0c0
00000070: bc27 0d41 2a49 e1c0 0f02 dcc0 c417 3b40
00000080: 7806 1bc1 fcb5 0741 d298 b040 168b 2940
00000090: 0ce0 bec0 caa1 00c1 3ac7 9a40 04e6 a240
000000a0: 5bd4 fd40 ab80 f4c0 45fc 2341 2724 07c1
000000b0: 27e1 22c1 3ad5 1841 58a1 39c1 cb3d 4541
000000c0: e809 1741 03a6 1541 7e9c 37c1 db76 58c1
000000d0: e353 2b41 c967 3841 9a2b 2c41 30c9 27c1
000000e0: 1421 8640 5a87 5bc0 a112 f3c0 b137 ae40
000000f0: 5bb7 67c0 6ddb a740 c34c 8240 0db9 3d40
00000100: 826b 61c0 ffbc f2c0 e251 3140 fe7e 8340
00000110: d73f db40 0b05 a3c0 d2dc 2941 2d1e fdc0
00000120: 706f 25c1 4f1c 2d41 c04d 22c1 3ed8 1e41
00000130: 2407 1441 3d72 1541 4db6 21c1 b0a4 49c1
00000140: f670 0941 0078 2741 9719 1841 ac04 29c1
00000150: 45b2 1a40 0d29 51c0 ec6a b2c0 5731 7340
00000160: 1e7e 52c0 ea2f 7540 443c 4740 88dc 4f40
00000170: fdd2 cbbf 3933 aac0 e6e2 8640 4574 5940
00000180: f312 9340 e75e 90c0 c4aa 6241 7865 7ac1
00000190: d34c 7cc1 de8c 8b41 e104 8bc1 6f7e 5541
000001a0: da45 6341 f727 7341 8847 5cc1 973f 8cc1
000001b0: 4716 5a41 c22e 7441 449a 8f41 8222 91c1
000001c0: 43b8 8d40 b270 c1bf bf3b ddc0 0e51 b340
000001d0: a5ee 8dc0 dfb0 cb40 3d9a 5240 94f6 bd40
000001e0: 707b 00c1 83a7 bcc0 e842 7c40 ea97 8040
000001f0: 416c c740 6f52 0ec1 d21e 8540 da6e 90bf
00000200: 3c5c 21c0 6e79 4d40 7d71 1bc0 b74f 4040
00000210: a7d4 f83f bdc0 bb3f 5670 ccbe d05c 79c0
00000220: 3d57 8540 c300 2740 b4a6 8040 5300 6fc0
00000230: 469a 1a41 b3ec fdc0 bb0d 14c1 8d81 de40
00000240: 0be6 14c1 911a 1641 2155 1341 5628 0541
00000250: 9127 ecc0 794e 1dc1 6c0e d340 ba27 0641
00000260: 4340 2841 08d3 21c1 9cb4 0d41 40b8 d2c0
00000270: 2b1f 0bc1 57df 0d41 2fcd 11c1 3987 0041
00000280: a97b cd40 3925 dd40 9e79 bfc0 8bee 22c1
00000290: bcdf b040 4e00 af40 d1c6 0241 f345 0cc1
000002a0: d21f 1e40 d0c9 86c0 7c72 dac0 ec6b 8e40
000002b0: c451 a4c0 d649 5740 b6f2 a640 783c 6940
000002c0: 4bc5 4ac0 c838 adc0 f0f3 3040 2424 7b40
000002d0: 5585 ba40 297e bec0 2d0c b940 c187 99c0
000002e0: bd0b e5c0 4dd7 ca40 db6d dac0 6a70 bc40
000002f0: 2ace 6040 707c 9440 4187 39c0 5642 d6c0
00000300: 921c 6740 701a be40 6dc5 ab40 3681 01c1
00000310: 7144 5b40 ca16 69c0 bfb4 b7c0 ae33 ec3f
00000320: 3b7d a6c0 fac6 8640 fe63 7340 d571 8840
00000330: cd04 77c0 71e6 dcc0 2a63 6a40 a003 8b40
00000340: e604 c640 7d39 bcc0 cb45 ee40 aef5 cec0
00000350: e412 d8c0 5d06 0341 0dd8 efc0 87bf 0f41
00000360: 9cea a440 8bf1 b140 79ce d9c0 c23d e7c0
00000370: aaa0 d140 2fa7 db40 8edc 1141 d0f7 03c1
00000380: 81e1 4841 54c6 6cc1 e384 88c1 ef90 6c41
00000390: 10aa 86c1 bd65 6d41 3fd4 7541 8a5c 6b41
000003a0: 5893 68c1 d3b2 9cc1 4eb7 6941 3a41 8941
000003b0: 04ca 9941 fbfb 7ac1 723d 0541 f688 85c0
000003c0: 5a7c 00c1 f7d4 4d40 8b9b dec0 7ba0 dc40
000003d0: 66c9 e240 e714 c440 293a b4c0 d636 eec0
000003e0: 891a 9b40 7c2e f540 9193 0e41 2731 f7c0
000003f0: 3ac1 b940 9265 6fc0 1cb2 b4c0 96c2 4a40

_embedding_layer.cat_embedding_layers.2.weight f4 [45, 23]
-0.85289407 -0.2595837 -1.2281793 0.8520383 -0.8309206 0.390508 0.27805638 1.9066914
-1.5570132 -0.36500436 1.3116921 0.15629646 -1.0588948 -0.49070767 -1.3974792 -0.9002656
0.052872907 1.3886461 0.92618275 -1.3750098 0.5295497 0.72147864 -0.0013568131 2.976719
-3.2442424 -3.6094794 -0.9169294 3.2024808 -2.0506468 -4.4251523 3.0002897 -3.0356402
-3.3828304 2.185271 1.4982294 -0.72603756 -0.7327014 1.5911045 1.3728118 2.254273
-3.7767766 -1.7437159 -2.453955 -0.39459655 2.2861567 -1.348161 5.461456 -4.7255597
-4.6630516 3.4486582 5.397462 -5.00092 -5.6392603 3.8764567 -6.6273165 -4.377444
5.134643 -0.9962509 -2.6836712 -4.432041 6.3555737 2.8659942 3.9797542 -4.249849
-1.4014562 -4.7625227 -2.576904 0.83029 -3.4822104 10.006273 -8.7897835 -8.3521385
7.0422125 7.8852963 -8.461415 -10.218583 13.181602 -8.406677 -9.2183485 9.08437
-10.292995 -8.537284 -8.213204 8.960425 8.907294 7.546068 -10.152529 -10.6087475
-9.394266 -11.765522 -8.462961 -9.411147 9.346969 -6.5029826 -6.551465 6.2739043
9.211718 -6.3816037 -7.639261 6.704928 -8.689126 -7.312938 8.421813 -7.358872
-7.589152 -6.0268283 7.566415 7.5726247 7.81519 -6.1236386 -3.9164104 -9.866696
-6.9194403 -1.242514 -5.7811894 7.584077 -6.6239142 -8.843012 7.8467107 5.211288
-8.023338 -7.2287316 7.5793633 -6.9804907 -10.190247 8.219154 -6.2032723 -4.5691953
-7.85858 6.5385838 7.551195 6.413585 -9.916194 -3.3011422 -6.718409 -8.790784
-1.3493816 -7.7666345 14.759179 -12.596235 -13.876558 11.503073 15.149863 -11.77289
-13.377932 12.701836 -15.355457 -13.031527 15.182371 -11.088492 -12.802083 -11.480708
12.779612 10.217987 11.102694 -12.79433 -12.301192 -14.763011 -11.1380415 -10.622412
-13.0230465 10.431739 -10.587334 -9.111346 8.89021 11.061274 -10.2725525 -13.394705
9.649648 -10.675588 -13.191978 11.9584055 -7.5271907 -9.851905 -10.116559 12.451625
8.4535 8.89388 -10.955605 -8.714352 -10.698103 -11.62813 -8.743497 -10.89789
-0.9753317 -0.40497285 -1.1715928 -4.7390723 0.6363625 -1.3271861 -0.040592127 0.0020460323
-0.09237579 0.32671875 -0.57652277 0.79858565 -0.18038689 1.123792 0.83300364 -0.00082583487
0.5171627 -0.70439917 1.438595 1.1218058 -1.9888537 4.794968 1.3022133 0.014227234
-1.1638972 -1.405587 -1.2240974 3.001337 -0.59550273 -1.3727337 0.14555699 -0.552164
-2.505882 2.19517 0.99367124 -0.051643487 -1.1135184 2.4031518 1.5791051 3.4798238
-1.7812407 1.1567373 -2.081119 -2.0140285 5.35294 -0.5166462 3.5441513 -1.8282864
-4.712711 1.0324031 2.0490103 -3.126618 -3.0350685 3.5455227 -0.71697587 -3.318277
3.338967 -0.83556277 -1.83451 -0.981098 3.8249266 2.9762917 0.9728238 -2.808788
1.1051141 -3.8488448 -2.4041793 2.331811 -1.8229563 5.6427693 -3.9139087 -2.888221
00000000: 4457 5abf 28e8 84be fb34 9dbf 2f1f 5a3f
00000010: 36b7 54bf aaf0 c73e 685d 8e3e 770e f43f
00000020: 354c c7bf dae1 babe 87e5 a73f 2e0c 203e
00000030: dd89 87bf 093e fbbe 99e0 b2bf ce77 66bf
00000040: 4391 583d 28bf b13f 501a 6d3f 5200 b0bf
00000050: 9290 073f d3b2 383f 18d7 b1ba 9082 3e40
00000060: aba1 4fc0 b601 67c0 e3bb 6abf 72f5 4c40
00000070: cc3d 03c0 d99a 8dc0 bf04 4040 ee47 42c0
00000080: 4b80 58c0 7bdb 0b40 fbc5 bf3f 99dd 39bf
00000090: 5292 3bbf 50a9 cb3f 4cb8 af3f 0246 1040
000000a0: b5b6 71c0 1532 dfbf 990d 1dc0 8f08 cabe
000000b0: 6450 1240 8a90 acbf 3fc4 ae40 c937 97c0
000000c0: b837 95c0 d1b6 5c40 02b8 ac40 8907 a0c0
000000d0: d274 b4c0 de17 7840 fa12 d4c0 0514 8cc0
000000e0: ff4e a440 4d0a 7fbf 45c1 2bc0 48d3 8dc0
000000f0: dc60 cb40 736c 3740 4bb4 7e40 c3fe 87c0
00000100: eb62 b3bf 9666 98c0 ffeb 24c0 e38d 543f
00000110: 89dc 5ec0 b219 2041 f4a2 0cc1 5ca2 05c1
00000120: ce59 e140 5954 fc40 f561 07c1 517f 23c1
00000130: d7e7 5241 c081 06c1 5b7e 13c1 9459 1141
00000140: 1cb0 24c1 b798 08c1 4969 03c1 e75d 0f41
00000150: 4784 0e41 6479 f140 c270 22c1 6ebd 29c1
00000160: ea4e 16c1 943f 3cc1 4a68 07c1 0f94 16c1
00000170: 2f8d 1541 6f18 d0c0 9aa5 d1c0 d3c3 c840
00000180: 3263 1341 1936 ccc0 d374 f4c0 c58e d640
00000190: a906 0bc1 9703 eac0 bfbf 0641 e17b ebc0
000001a0: 55da f2c0 c7db c0c0 1220 f240 f152 f240
000001b0: 0916 fa40 d9f4 c3c0 78a6 7ac0 fddd 1dc1
000001c0: 0e6c ddc0 b30a 9fbf 81ff b8c0 c2b0 f240
000001d0: 1bf7 d3c0 fa7c 0dc1 4118 fb40 dfc2 a640
000001e0: 985f 00c1 c551 e7c0 258a f240 2e60 dfc0
000001f0: 400b 23c1 a881 0341 3581 c6c0 d936 92c0
00000200: 7d79 fbc0 143c d140 64a3 f140 173c cd40
00000210: bba8 1ec1 ea45 53c0 35fd d6c0 0da7 0cc1
00000220: 89b8 acbf 4588 f8c0 9925 6c41 2e8a 49c1
00000230: 6206 5ec1 960c 3841 d765 7241 c25d 3cc1
00000240: 020c 56c1 b83a 4b41 f4af 75c1 2281 50c1
00000250: feea 7241 776a 31c1 55d5 4cc1 fbb0 37c1
00000260: 4a79 4c41 e07c 2341 a2a4 3141 93b5 4cc1
00000270: afd1 44c1 4b35 6cc1 6b35 32c1 66f5 29c1
00000280: 665e 50c1 67e8 2641 b865 29c1 13c8 11c1
00000290: 4d3e 0e41 fafa 3041 605c 24c1 b650 56c1
000002a0: f564 1a41 35cf 2ac1 5812 53c1 a155 3f41
000002b0: bfde f0c0 67a1 1dc1 6ddd 21c1 db39 4741
000002c0: 8941 0741 554d 0e41 284a 2fc1 fc6d 0bc1
000002d0: 6e2b 2bc1 d20c 3ac1 5de5 0bc1 c25d 2ec1
000002e0: 57af 79bf 9a58 cfbe c1f6 95bf 7ba6 97c0
000002f0: a7e8 223f 3ce1 a9bf ee43 26bd ba16 063b
00000300: 852f bdbd ae47 a73e ff96 13bf 1c70 4c3f
00000310: 57b7 38be 6bd8 8f3f ba3f 553f d77c 58ba
00000320: c664 043f 8153 34bf e223 b83f 5597 8f3f
00000330: c292 febf 6170 9940 edae a63f 5819 693c
00000340: 95fa 94bf 46ea b3bf 39af 9cbf e815 4040
00000350: de72 18bf bdb5 afbf e40c 153e 9f5a 0dbf
00000360: 5f60 20c0 aa7d 0c40 3d61 7e3f 1f88 53bd
00000370: c587 8ebf 3dcd 1940 1e20 ca3f 6fb5 5e40
00000380: b2ff e3bf f80f 943f 0e31 05c0 d8e5 00c0
00000390: 494b ab40 ed42 04bf 60d3 6240 4a05 eabf
000003a0: 87ce 96c0 c925 843f fc22 0340 821a 48c0
000003b0: 903e 42c0 d8e9 6240 bb8b 37bf a65e 54c0
000003c0: a3b1 5540 71e7 55bf 39d1 eabf 3d29 7bbf
000003d0: 99cb 7440 907b 3e40 fb0a 793f 2fc3 33c0
000003e0: 6174 8d3f 7953 76c0 13de 19c0 643c 1540
000003f0: a256 e9bf 9191 b440 7b7d 7ac0 9dd8 38c0

_embedding_layer.cat_embedding_layers.3.weight f4 [18, 9]
-1.0438933 -0.012937221 1.2983814 -0.2308993 -1.7902802 0.071746595 1.2876308 0.0019369965
-0.7520378 -3.2118814 4.8301115 6.126442 3.7367506 -4.3891807 1.4886653 -2.751973
1.089655 0.6682009 -5.4812236 4.7764425 5.62494 6.127446 -4.7969484 2.6650124
-3.3626997 -3.0669858 1.1197335 -8.021185 6.5205135 7.4503613 6.5076413 -7.7014174
5.183972 -2.6113498 -4.875969 2.6889474 -5.9096103 7.563846 5.062447 7.0426817
-6.6106668 3.5941904 -5.0532475 -4.044301 2.4961243 -8.097472 7.56937 9.004585
7.5932555 -7.632804 6.207455 -6.076796 -5.4719515 3.1074216 -10.811101 12.259379
11.403453 10.677276 -11.142835 12.011903 -7.766698 -8.176511 8.068703 -12.053776
11.17082 13.171864 13.416069 -14.158823 10.979582 -12.030343 -9.317134 11.993395
-9.919086 9.199184 8.837492 9.24826 -10.1416855 7.0704956 -6.072166 -6.739929
5.3061585 -17.46114 17.03941 18.110296 16.90028 -16.917006 14.239117 -17.782644
-14.926187 16.0104 -13.851185 15.6982 14.915452 15.05555 -13.405663 12.8673725
-12.479639 -13.949432 11.76973 -13.877317 10.354199 13.197349 13.432145 -12.238349
12.641787 -8.975959 -13.070985 10.346453 -13.4072 13.681677 13.315606 13.6157875
-13.073769 12.6255455 -11.534439 -13.625752 12.915572 -13.033384 16.16922 16.133263
18.091646 -16.473324 13.534267 -17.754414 -15.033865 13.288528 -17.219994 19.16992
18.048279 19.372211 -19.343376 17.6438 -18.414614 -17.395761 16.28391 -14.658027
16.789236 14.436701 15.831317 -15.989859 13.3091 -13.998825 -12.971159 12.753078
-18.165941 19.634144 14.313589 17.43222 -15.177666 18.887901 -18.620178 -12.771245
16.651669 -17.661236 19.263979 18.185781 17.484747 -18.48475 15.353222 -17.21542
-17.47278 12.743162
00000000: 4c9e 85bf a3f6 53bc 5d31 a63f de70 6cbe
00000010: e727 e5bf e1ef 923d 16d1 a43f d1e2 fd3a
00000020: 8d85 40bf 778f 4dc0 4690 9a40 d00b c440
00000030: ec26 6f40 2b74 8cc0 968c be3f 5320 30c0
00000040: d179 8b3f 370f 2b3f 2f66 afc0 9ed8 9840
00000050: 82ff b340 0a14 c440 9a80 99c0 908f 2a40
00000060: 7936 57c0 7f49 44c0 6d53 8f3f c656 00c1
00000070: 0ca8 d040 5c69 ee40 993e d040 0372 f6c0
00000080: 19e3 a540 5b20 27c0 f007 9cc0 b717 2c40
00000090: 871b bdc0 070b f240 91ff a140 a65d e140
000000a0: 958a d3c0 3707 6640 34b4 a1c0 ea6a 81c0
000000b0: 80c0 1f40 3f8f 01c1 4738 f240 c812 1041
000000c0: f3fb f240 ee3f f4c0 79a3 c640 1d75 c2c0
000000d0: 3a1a afc0 ffdf 4640 45fa 2cc1 6b26 4441
000000e0: 8b74 3641 1fd6 2a41 0d49 32c1 c130 4041
000000f0: ca88 f8c0 fdd2 02c1 6819 0141 44dc 40c1
00000100: aebb 3241 f4bf 5241 38a8 5641 8a8a 62c1
00000110: 5eac 2f41 497c 40c1 fb12 15c1 f2e4 3f41
00000120: 94b4 1ec1 dc2f 1341 5e66 0d41 dff8 1341
00000130: 5844 22c1 8041 e240 2f4f c2c0 80ad d7c0
00000140: 0dcc a940 6ab0 8bc1 b650 8841 e3e1 9041
00000150: c633 8741 0756 87c1 6cd3 6341 db42 8ec1
00000160: a9d1 6ec1 4d15 8041 749e 5dc1 d42b 7b41
00000170: b1a5 6e41 88e3 7041 987d 56c1 c2e0 4d41
00000180: 9aac 47c1 e030 5fc1 d050 3c41 7e09 5ec1
00000190: cdaa 2541 5728 5341 11ea 5641 47d0 43c1
000001a0: c244 4a41 879d 0fc1 c122 51c1 128b 2541
000001b0: e483 56c1 26e8 5a41 b90c 5541 44da 5941
000001c0: 282e 51c1 3c02 4a41 108d 38c1 1503 5ac1
000001d0: 2fa6 4e41 be88 50c1 905a 8141 ec10 8141
000001e0: b1bb 9041 5ec9 83c1 5c8c 5841 0a09 8ec1
000001f0: b68a 70c1 d09d 5441 8cc2 89c1 ff5b 9941
00000200: e062 9041 4afa 9a41 3cbf 9ac1 8126 8d41
00000210: 2151 93c1 852a 8bc1 7345 8241 4787 6ac1
00000220: 5b50 8641 bafc 6641 134d 7d41 76d6 7fc1
00000230: 13f2 5441 30fb 5fc1 de89 4fc1 9c0c 4c41
00000240: d953 91c1 ba12 9d41 7604 6541 3075 8b41
00000250: b8d7 72c1 6c1a 9741 20f6 94c1 0557 4cc1
00000260: 9e36 8541 364a 8dc1 a11c 9a41 7b7c 9141
00000270: c3e0 8b41 c5e0 93c1 cca6 7541 2eb9 89c1
00000280: 41c8 8bc1 fee3 4b41

_embedding_layer.normalizing_batch_norm.bn.weight f4 [6]
-15.084107 16.644434 3.9635406 -5.525568 18.360394 14.669785
00000000: 8158 71c1 cd27 8541 a6aa 7d40 74d1 b0c0
00000010: 16e2 9241 70b7 6a41

_embedding_layer.normalizing_batch_norm.bn.bias f4 [6]
4.4557614 -6.5889297 6.3851104 -4.8420177 6.618774 7.0719266
00000000: 9995 8e40 83d8 d2c0 d352 cc40 cff1 9ac0
00000010: ffcc d340 394d e240

_embedding_layer.normalizing_batch_norm.bn.running_mean f4 [6]
0.013785892 0.01396868 -0.010337353 -0.01648435 0.013817131 -0.0013446629
00000000: 39de 613c e4dc 643c 005e 29bc 300a 87bc
00000010: 3f61 623c 663f b0ba

_embedding_layer.normalizing_batch_norm.bn.running_var f4 [6]
1.0093644 1.0000176 1.00686 0.9895727 0.99465114 0.9955627
00000000: da32 813f 9400 803f cae0 803f a354 7d3f
00000010: 75a1 7e3f 32dd 7e3f

head.layers.0.weight f4 [1, 50]
6.221086 6.4430566 6.371443 6.2030025 5.127025 4.8291836 6.1924496 4.749201
6.2828455 6.378963 6.3406863 5.348812 6.3144264 6.1342773 6.2767644 6.4182534
5.1490917 6.4718113 6.2297487 6.313713 4.8068604 6.240831 1.9454473 5.0382752
6.424385 6.224129 6.3011303 6.2918415 4.9380116 4.8612 6.201365 5.4117885
5.3532352 5.095494 4.70106 5.094741 4.578917 6.4231176 6.2962284 6.3204517
5.17195 6.3142705 6.334284 4.9912186 6.4106684 5.111933 5.287032 4.9220195
4.97744 6.326053
00000000: 2313 c740 852d ce40 dce2 cb40 ff7e c640
00000010: 9710 a440 ac88 9a40 8c28 c640 74f9 9740
00000020: 120d c940 7720 cc40 e7e6 ca40 7829 ab40
00000030: c80f ca40 004c c440 41db c840 5562 cd40
00000040: 5cc5 a440 1419 cf40 1a5a c740 f009 ca40
00000050: cdd1 9940 e3b4 c740 6b04 f93f 8d39 a140
00000060: 9094 cd40 112c c740 dca2 c940 c456 c940
00000070: 3104 9e40 f38e 9b40 9571 c640 5f2d ad40
00000080: b44d ab40 490e a340 156f 9640 1e08 a340
00000090: 7d86 9240 2e8a cd40 b47a c940 2441 ca40
000000a0: 9d80 a540 810e ca40 74b2 ca40 10b8 9f40
000000b0: 3224 cd40 f594 a340 5e2f a940 2f81 9d40
000000c0: 3047 9f40 076f ca40

exp_avg f4 [50, 59]
-185510.8 352342.47 6306.192 51482.438 7322.864 -150986.47 256.99573 -11404.513
-12231.179 4226.516 -7215.537 -1807.1105 6125.0786 -39441.168 28534.914 43602.758
-33848.254 52706.297 -39717.59 -32878.547 -25491.455 38199.637 51345.836 -10251.147
-20423.836 -40721.547 41326.094 -5394.627 11921.036 24914.422 -11028.033 -7130.3804
4716.2603 6211.731 -40555.402 14049.84 10905.888 -1354.0234 -12593.116 1988.1603
5410.4834 -25041.824 -332.99686 1637.9791 16067.485 -7647.1543 13513.791 -396.05597
3462.2266 10300.214 32865.5 -33881.434 -33889.414 -35405.17 39750.562 -27343.412
33084.117 24781.52 -38375.367 -192178.5 364959.97 6510.005 53350.918 7530.872
-156426.56 254.66594 -11832.37 -12693.352 4400.8745 -7475.33 -1860.1791 6360.1997
-40876.03 29572.51 45188.8 -35078.105 54616.29 -41163.23 -34074.004 -26420.957
39585.21 53208.2 -10638.546 -21178.684 -42206.457 42830.65 -5614.8174 12377.046
25833.14 -11445.446 -7408.1797 4913.152 6463.2554 -42037.504 14580.613 11329.098
-1432.7539 -13028.141 2080.5046 5631.5454 -25968.428 -367.1459 1674.8217 16673.361
-7902.499 14026.283 -384.64374 3601.704 10695.863 34070.055 -35122.555 -35130.605
-36701.785 41201.46 -28341.523 34287.87 25688.639 -39761.574 -190034.67 360883.78
6442.8643 52743.14 7434.4893 -154679.56 253.75061 -11697.561 -12548.114 4348.214
-7392.181 -1841.2211 6286.7437 -40416.66 29240.318 44681.33 -34683.695 54003.785
-40700.117 -33691.152 -26123.604 39140.28 52610.836 -10515.982 -20938.562 -41731.824
42349.473 -5547.9907 12235.912 25542.043 -11315.393 -7322.757 4854.5083 6387.1963
-41566.727 14414.722 11198.65 -1412.7151 -12886.073 2054.5789 5565.574 -25676.152
-359.05487 1659.537 16483.695 -7816.7637 13866.645 -383.95132 3560.9285 10573.831
33688.246 -34728.625 -34736.375 -36290.57 40739.9 -28024.771 33904.75 25402.14
-39318.613 -181354.14 346347.4 6534.2275 51478.254 7758.4795 -150353.4 19.119257
-11604.018 -12736.06 4542.8823 -7211.16 -1616.0541 6365.7803 -39855.2 28713.9
43984.875 -33949.523 52993.766 -40037.676 -33231.84 -25805.205 38444.188 51667.184
-10527.649 -20849.26 -41168.867 41695.324 -5378.518 11959.59 24930.594 -10916.85
-7300.975 4738.744 6280.5317 -40446.62 14043.392 11033.16 -1488.9674 -12621.995
1985.0146 5464.59 -25122.844 -431.1202 1411.96 16133.178 -7699.963 13606.96
-267.33795 3110.003 10302.224 32984.81 -34086.19 -34174.48 -35551.516 39913.21
-27362.34 33163.246 24662.438 -38306.348 -153352.1 291255.12 5858.058 42225.363
3461.1428 -126003.914 401.3126 -8765.457 -9584.456 2867.8882 -5841.5347 -1732.3157
4639.886 -32000.775 23098.598 35330.938 -27415.701 42886.094 -32078.223 -26691.23
00000000: b329 35c8 cf0a ac48 8911 c545 701a 4947
00000010: e9d6 e445 9e72 13c8 747f 8043 0d32 32c6
00000020: b71c 3fc6 2114 8445 4c7c e1c5 89e3 e1c4
00000030: a168 bf45 2b11 1ac7 d4ed de46 c252 2a47
00000040: 4138 04c7 4ce2 4d47 9725 1bc7 8c6e 00c7
00000050: e926 c7c6 a337 1547 d691 4847 972c 20c6
00000060: ac8f 9fc6 8c11 1fc7 186e 2147 0495 a8c5
00000070: 2544 3a46 d8a4 c246 2250 2cc6 0bd3 dec5
00000080: 1562 9345 d91d c245 676b 1ec7 5c87 5b46
00000090: 8d67 2a46 c040 a9c4 77c4 44c6 2185 f844
000000a0: de13 a945 a6a3 c3c6 997f a6c3 55bf cc44
000000b0: f10d 7b46 3cf9 eec5 2a27 5346 2a07 c6c3
000000c0: a063 5845 dbf0 2046 8061 0047 6f59 04c7
000000d0: 6a61 04c7 2c4d 0ac7 9046 1b47 d39e d5c6
000000e0: 1e3c 0147 0a9b c146 5ee7 15c7 a0ac 3bc8
000000f0: ff33 b248 0a70 cb45 eb66 5047 fa56 eb45
00000100: a4c2 18c8 7baa 7e43 7be1 38c6 6855 46c6
00000110: ff86 8945 a49a e9c5 bb85 e8c4 99c1 c645
00000120: 08ac 1fc7 0509 e746 cd84 3047 1b06 09c7
00000130: 4a58 5547 3bcb 20c7 011a 05c7 ea69 cec6
00000140: 36a1 1a47 33d8 4f47 2f3a 26c6 5e75 a5c6
00000150: 75de 24c7 a64e 2747 8a76 afc5 2f64 4146
00000160: 48d2 c946 c9d5 32c6 7081 e7c5 3789 9945
00000170: 0bfa c945 8135 24c7 74d2 6346 6404 3146
00000180: 2018 b3c4 9090 4bc6 1308 0245 5dfc af45
00000190: dbe0 cac6 ad92 b7c3 4b5a d144 b942 8246
000001a0: fef3 f6c5 2229 5b46 6652 c0c3 441b 6145
000001b0: 741f 2746 0e16 0547 8e32 09c7 9b3a 09c7
000001c0: c95d 0fc7 76f1 2047 0c6b ddc6 dfef 0547
000001d0: 47b1 c846 9351 1bc7 ab94 39c8 7936 b048
000001e0: ea56 c945 2407 4e47 ea53 e845 e40d 17c8
000001f0: 28c0 7d43 3ec6 36c6 7510 44c6 b6e1 8745
00000200: 7301 e7c5 1327 e6c4 f375 c445 a9e0 1dc7
00000210: a370 e446 5489 2e47 b27b 07c7 c9f3 5247
00000220: 1efc 1ec7 279b 03c7 3517 ccc6 48e4 1847
00000230: d682 4d47 ee4f 24c6 2095 a3c6 d303 23c7
00000240: 796d 2547 ed5f adc5 a62f 3f46 168c c746
00000250: 92cd 30c6 0ed6 e4c5 11b4 9745 9299 c745
00000260: ba5e 22c7 e33a 6146 9afa 2e46 e296 b0c4
00000270: 4b58 49c6 4369 0045 98ec ad45 4e98 c8c6
00000280: 0687 b3c3 2f71 cf44 64c7 8046 1c46 f4c5
00000290: 94aa 5846 c5f9 bfc3 db8e 5e45 5337 2546
000002a0: 3f98 0347 a0a8 07c7 60b0 07c7 92c2 0dc7
000002b0: e623 1f47 8bf1 dac6 c070 0447 4874 c646
000002c0: 9d96 19c7 891a 31c8 6d1d a948 d231 cc45
000002d0: 4116 4947 d673 f245 5ad4 12c8 3df4 9841
000002e0: 1250 35c6 3d00 47c6 0ff7 8d45 4859 e1c5
000002f0: bb01 cac4 3eee c645 33af 1bc7 cd53 e046
00000300: e0d0 2b47 869d 04c7 c401 4f47 ad65 1cc7
00000310: d7cf 01c7 699a c9c6 302c 1647 2fd3 4947
00000320: 997e 24c6 85e2 a2c6 ded0 20c7 53df 2247
00000330: 2514 a8c5 5cde 3a46 30c5 c246 6693 2ac6
00000340: cd27 e4c5 f415 9445 4144 c445 9ffe 1dc7
00000350: 916d 5b46 a464 2c46 f51e bac4 fb37 45c6
00000360: 7820 f844 b8c4 aa45 b045 c4c6 638f d7c3
00000370: b87e b044 b614 7c46 b49f f0c5 d79b 5446
00000380: 42ab 85c3 0c60 4245 e5f8 2046 cfd8 0047
00000390: 3126 05c7 7b7e 05c7 84df 0ac7 36e9 1b47
000003a0: aec4 d5c6 3f8b 0147 e0ac c046 59a2 15c7
000003b0: 06c2 15c8 e436 8e48 7710 b745 5df1 2447
000003c0: 4952 5845 f519 f6c7 03a8 c843 d4f5 08c6
000003d0: d3c1 15c6 363e 3345 478c b6c5 1a8a d8c4
000003e0: 17ff 9045 8d01 fac6 3275 b446 f002 0a47
000003f0: 672f d6c6 1886 2747 729c fac6 7686 d0c6

exp_avg_sq f4 [50, 59]
1.5533571e+12 3.0262315e+12 2.9132438e+12 1.7468928e+12 3.2024552e+12 4.2305514e+12 1.01024635e+12 1.8198854e+12
2.728024e+12 2.2498357e+12 3.6240317e+11 9.989403e+11 2.6162722e+11 2.4152808e+12 1.598817e+12 2.9246326e+12
1.7399812e+12 2.6248998e+12 2.8155634e+12 1.5754676e+12 1.3302159e+12 1.588974e+12 2.8090103e+12 1.9540695e+12
2.3902895e+12 3.2433095e+12 2.7477467e+12 2.3441166e+12 3.0511265e+12 2.8010212e+12 1.6826926e+12 1.8418447e+12
2.7148592e+12 2.6968808e+12 3.000774e+12 2.6901487e+12 3.6940496e+12 3.039351e+12 9.726768e+11 1.3290757e+12
2.6022387e+12 2.8460927e+12 1.7255504e+12 2.0041286e+12 3.4721639e+12 1.2751021e+12 2.7353678e+12 1.9319701e+12
6.8789115e+11 2.3571553e+12 3.028349e+12 3.141184e+12 3.3498905e+12 3.1563516e+12 3.1431126e+12 1.4575209e+12
1.7114338e+12 1.2546833e+12 9.514026e+11 1.6226925e+12 3.172021e+12 3.0424443e+12 1.8266248e+12 3.357911e+12
4.450175e+12 1.05178445e+12 1.8992115e+12 2.848499e+12 2.3485921e+12 3.7599687e+11 1.0403905e+12 2.7652234e+11
2.5217886e+12 1.6678059e+12 3.0551806e+12 1.8165143e+12 2.7412996e+12 2.9410525e+12 1.6445195e+12 1.3880944e+12
1.6588563e+12 2.9352591e+12 2.0388154e+12 2.4964893e+12 3.3883895e+12 2.8711518e+12 2.4508736e+12 3.1892837e+12
2.9289362e+12 1.7597368e+12 1.9240628e+12 2.8386465e+12 2.8189888e+12 3.1375848e+12 2.8129357e+12 3.8640634e+12
3.1783801e+12 1.0165231e+12 1.3887882e+12 2.721108e+12 2.975778e+12 1.8036924e+12 2.0933799e+12 3.6316604e+12
1.3307713e+12 2.8596896e+12 2.0206282e+12 7.179605e+11 2.46481e+12 3.1632542e+12 3.2814342e+12 3.4994145e+12
3.297167e+12 3.283534e+12 1.5207601e+12 1.785116e+12 1.3085369e+12 9.9098015e+11 1.5884886e+12 3.1023911e+12
2.974322e+12 1.7922565e+12 3.2831767e+12 4.3486096e+12 1.0301062e+12 1.8582766e+12 2.7849612e+12 2.2970407e+12
3.6868158e+11 1.01862795e+12 2.7039923e+11 2.466031e+12 1.6316653e+12 2.9867618e+12 1.7776767e+12 2.6803925e+12
2.8752258e+12 1.6096154e+12 1.3590204e+12 1.6234343e+12 2.8694537e+12 1.9943812e+12 2.441463e+12 3.3117147e+12
2.80695e+12 2.3969716e+12 3.1179352e+12 2.8634162e+12 1.7209817e+12 1.8828262e+12 2.775553e+12 2.7566557e+12
3.0673152e+12 2.7498292e+12 3.7750914e+12 3.1067246e+12 9.951288e+11 1.3594684e+12 2.6602866e+12 2.9089643e+12
1.7648491e+12 2.0476634e+12 3.5485306e+12 1.3029457e+12 2.7958077e+12 1.9764466e+12 7.033895e+11 2.4101732e+12
3.0920865e+12 3.2073837e+12 3.4200693e+12 3.22272e+12 3.2093328e+12 1.4883682e+12 1.746371e+12 1.2809913e+12
9.704743e+11 1.5335272e+12 2.9842908e+12 2.8723606e+12 1.7248664e+12 3.15721e+12 4.172708e+12 9.9743734e+11
1.7961204e+12 2.6899576e+12 2.2193643e+12 3.5792037e+11 9.8596074e+11 2.594376e+11 2.3820433e+12 1.5773245e+12
2.883865e+12 1.7177666e+12 2.5885719e+12 2.7764274e+12 1.5556477e+12 1.3138205e+12 1.5687679e+12 2.7701084e+12
1.9274291e+12 2.3580692e+12 3.1970558e+12 2.7098048e+12 2.3130648e+12 3.009028e+12 2.7627385e+12 1.6603318e+12
1.8187538e+12 2.6781292e+12 2.6606617e+12 2.9593798e+12 2.6530244e+12 3.640751e+12 2.9972903e+12 9.6087566e+11
1.3129166e+12 2.5667174e+12 2.806969e+12 1.7038692e+12 1.9777719e+12 3.4224983e+12 1.2592822e+12 2.698066e+12
1.9072502e+12 6.7955104e+11 2.3255271e+12 2.985552e+12 3.0965616e+12 3.3018507e+12 3.111539e+12 3.0983408e+12
1.4387308e+12 1.688238e+12 1.238769e+12 9.393388e+11 1.266735e+12 2.4279937e+12 2.3894987e+12 1.4168663e+12
2.5657834e+12 3.3107592e+12 8.410293e+11 1.4961944e+12 2.2407118e+12 1.8487605e+12 3.070246e+11 8.303779e+11
1.9563486e+11 1.9826188e+12 1.3190945e+12 2.394892e+12 1.4259223e+12 2.1525159e+12 2.306119e+12 1.29164e+12
00000000: a6d5 b453 5d26 3054 b792 2954 765d cb53
00000010: 4d68 3a54 2140 7654 6037 6b53 d0dc d353
00000020: baca 1e54 2af5 0254 d3c1 a852 7b95 6853
00000030: caa8 7352 7d96 0c54 7620 ba53 6c3c 2a54
00000040: 7b8f ca53 0eca 1854 2ae3 2354 9868 b753
00000050: 86db 9a53 1efb b853 8481 2354 cf7b e353
00000060: 1722 0b54 14c9 3c54 9ef0 1f54 0f72 0854
00000070: 5499 3154 780a 2354 26e4 c353 406b d653
00000080: 8e06 1e54 a8fa 1c54 04ab 2e54 5796 1c54
00000090: a105 5754 dce9 3054 0e78 6253 8bb9 9a53
000000a0: 6178 1754 16aa 2554 69e1 c853 b04f e953
000000b0: 461b 4a54 0171 9453 2838 1f54 32e9 e053
000000c0: 8229 2053 5a34 0954 eb45 3054 4ad7 3654
000000d0: 42fd 4254 4eb9 3754 07f4 3654 82ad a953
000000e0: b43c c753 7a10 9253 0484 5d53 01e8 bc53
000000f0: cca2 3854 f417 3154 a9a5 d453 c674 4354
00000100: 6384 8154 3de3 7453 ea18 dd53 f1cd 2554
00000110: c0b4 0854 5216 af52 1b3c 7253 08c4 8052
00000120: 94c9 1254 7d28 c253 bdd5 3154 5878 d353
00000130: 8c90 1f54 1931 2b54 8072 bf53 7098 a153
00000140: c51d c153 c5da 2a54 6f59 ed53 9750 1154
00000150: f03a 4554 7f1f 2754 dda8 0e54 08a4 3954
00000160: 8d7c 2a54 3edc cc53 8afd df53 213b 2554
00000170: 3516 2454 a8a1 3654 02bc 2354 08eb 6054
00000180: 8e01 3954 80ad 6c53 1dad a153 ab63 1e54
00000190: 8c36 2d54 39fa d153 95b3 f353 f563 5354
000001a0: 13ec 9a53 b274 2654 6a3b eb53 c829 2753
000001b0: 8878 0f54 2920 3854 2e01 3f54 57b1 4b54
000001c0: 9eeb 3f54 7820 3f54 2f0a b153 9ad0 cf53
000001d0: 7055 9853 05bb 6653 a6ec b853 3b95 3454
000001e0: da20 2d54 68a5 d053 251b 3f54 551f 7d54
000001f0: 1dd7 6f53 f554 d853 281b 2254 93b4 0554
00000200: 45ae ab52 f52a 6d53 33d4 7b52 ba8a 0f54
00000210: 6af3 bd53 38da 2d54 e5f2 ce53 f604 1c54
00000220: 345c 2754 4762 bb53 f735 9e53 1dfe bc53
00000230: 3106 2754 312d e853 a21c 0e54 65c4 4054
00000240: d062 2354 a985 0b54 db7c 3554 3aac 2654
00000250: 4059 c853 9830 db53 f68e 2154 5f75 2054
00000260: 8f8a 3254 a60f 2054 3fbd 5b54 ced5 3454
00000270: 4cb2 6753 5143 9e53 5cd9 1a54 f252 2954
00000280: 9a74 cd53 2061 ee53 3a8d 4e54 cfae 9753
00000290: c8bc 2254 b316 e653 48c5 2353 614a 0c54
000002a0: aefb 3354 beb1 3a54 0113 4754 4596 3b54
000002b0: c9ce 3a54 d444 ad53 e94d cb53 8420 9553
000002c0: c7f4 6153 ac86 b253 66b5 2d54 8231 2754
000002d0: 06cd c853 18c6 3754 32e2 7254 e63b 6853
000002e0: 8f18 d153 7e93 1c54 1b2f 0154 6fab a652
000002f0: d78f 6553 be9e 7152 36a7 0a54 ef9f b753
00000300: f0dc 2754 6ff9 c753 baac 1654 fe9b 2154
00000310: ea19 b553 e7f2 9853 eda0 b653 d53d 2154
00000320: dd61 e053 f841 0954 d817 3a54 3dbb 1d54
00000330: 5aa3 0654 0326 2f54 03d0 2054 be49 c153
00000340: 16bb d353 3ce3 1b54 f3de 1a54 3242 2c54
00000350: 256d 1a54 6beb 5354 1b77 2e54 a7b8 5f53
00000360: f7d7 9853 1267 1554 1963 2354 425b c653
00000370: 323e e653 3337 4754 8999 9253 510c 1d54
00000380: 7c08 de53 6638 1e53 0e5d 0754 31c8 2d54
00000390: 5d3e 3454 6931 4054 8b1d 3554 e058 3454
000003a0: 857d a753 6a89 c453 3136 9053 f5b4 5a53
000003b0: a577 9353 ed53 0d54 4e16 0b54 e8f1 a453
000003c0: 2759 1554 28b6 4054 41d1 4353 112e ae53
000003d0: 356d 0254 5b39 d753 2ff8 8e52 6156 4153
000003e0: fc32 3652 a5ce e653 1490 9953 ac66 0b54
000003f0: ccff a553 f995 fa53 da3b 0654 df5d 9653

exp_avg f4 [50]
-2671.5042 -2770.811 -2739.3489 -2727.7517 -2107.3694 -2049.9436 -2722.719 -2239.3525
-2699.2205 -2741.8938 -2724.9885 -2281.8955 -2900.7043 -2814.7524 -2696.7495 -2759.7327
-2165.831 -2783.675 -2675.6467 -2713.031 -2040.722 -2680.9912 -1063.779 -2116.107
-2762.4749 -2672.3965 -2707.6526 -2702.8792 -2782.2356 -1943.5709 -2663.099 -2718.7063
-2266.191 -2140.7644 -1994.6195 -2272.6252 -1914.8896 -2762.4478 -2705.3855 -2903.5735
-2202.4978 -2713.3618 -2722.128 -2503.542 -2756.4539 -2052.7913 -2254.1904 -2524.262
-2089.565 -2906.1973
00000000: 11f8 26c5 fa2c 2dc5 9535 2bc5 077c 2ac5
00000010: e9b5 03c5 191f 00c5 812b 2ac5 a4f5 0bc5
00000020: 87b3 28c5 4d5e 2bc5 d14f 2ac5 549e 0ec5
00000030: 454b 35c5 0aec 2fc5 fe8b 28c5 b97b 2cc5
00000040: 4c5d 07c5 cdfa 2dc5 593a 27c5 7f90 29c5
00000050: 1b17 ffc4 dc8f 27c5 eef8 84c4 b641 04c5
00000060: 99a7 2cc5 5806 27c5 713a 29c5 11ee 28c5
00000070: c5e3 2dc5 45f2 f2c4 9671 26c5 4deb 29c5
00000080: 0ea3 0dc5 3bcc 05c5 d353 f9c4 010a 0ec5
00000090: 785c efc4 2aa7 2cc5 2b16 29c5 2d79 35c5
000000a0: f7a7 09c5 ca95 29c5 0c22 2ac5 ac78 1cc5
000000b0: 4347 2cc5 a94c 00c5 0ce3 0cc5 31c4 1dc5
000000c0: 0a99 02c5 28a3 35c5

exp_avg_sq f4 [50]
9.964028e+10 1.0445453e+11 1.0143554e+11 9.749861e+10 8.0485016e+10 7.7946175e+10 9.869025e+10 7.723631e+10
9.869359e+10 1.0299645e+11 1.0093218e+11 8.473818e+10 9.965872e+10 9.598715e+10 9.805865e+10 1.0429207e+11
8.033291e+10 1.051407e+11 9.7520394e+10 1.0235301e+11 8.014173e+10 1.00502454e+11 4.1598505e+10 8.079267e+10
1.0343995e+11 9.8711765e+10 1.0249046e+11 1.00516274e+11 8.186272e+10 7.923167e+10 1.0014236e+11 8.52608e+10
8.22378e+10 7.9372665e+10 7.602447e+10 8.069573e+10 7.440823e+10 1.0442919e+11 9.9138494e+10 1.0013819e+11
7.883415e+10 9.893904e+10 1.02204236e+11 8.225544e+10 1.0347655e+11 8.323449e+10 8.462696e+10 7.84128e+10
7.825845e+10 1.006413e+11
00000000: 3098 b951 cd8f c251 3cf0 bc51 f69a b551
00000010: 3fea 9551 a22f 9151 2ed3 b751 24dd 8f51
00000020: c5d4 b751 89d8 bf51 3700 bc51 50d6 9d51
00000030: fba0 b951 3dca b251 02a6 b651 5642 c251
00000040: b7a1 9551 fed6 c351 59a5 b551 b8a5 be51
00000050: 8e46 9551 4e33 bb51 6df7 1a51 f27c 9651
00000060: 03ac c051 70dd b751 42e7 be51 e539 bb51
00000070: 307b 9851 9b94 9351 9987 ba51 84cf 9e51
00000080: 0a2e 9951 d6d7 9351 4b9b 8d51 b94e 9651
00000090: 9c98 8a51 b883 c251 eba8 b851 9c85 ba51
000000a0: 0dd7 9251 d049 b851 c75e be51 7336 9951
000000b0: 77bd c051 4c09 9b51 47a1 9d51 230e 9251
000000c0: 89c4 9151 8375 bb51

exp_avg f4 [13, 7]
0.0 0.0 0.0 0.0 0.0 0.0 0.0 103782.08
208896.62 243742.08 -225059.19 11408.881 -136455.7 -177343.4 -163765.52 -331662.44
-387310.0 356947.47 -17211.533 215430.39 274005.84 -67237.3 -136687.05 -159835.61
147258.88 -6785.5996 88871.17 111745.69 130549.8 261530.8 305050.56 -281285.78
14258.417 -170847.53 -222499.36 21881.303 43123.55 49806.69 -46253.715 2500.0232
-28027.465 -39138.887 224947.22 452145.6 527988.2 -486894.38 23842.29 -294433.75
-379645.78 3621.0295 5937.235 7064.3237 -6643.73 1628.8348 -5411.3623 -10950.719
-230969.39 -467358.97 -545731.75 503052.4 -22659.453 302486.7 384473.75 147179.42
295932.88 345355.06 -318467.22 15714.961 -192975.97 -249157.2 -354493.94 -717175.8
-837734.4 771929.9 -36752.14 466377.16 593599.44 -28819.768 -59428.496 -69737.16
64104.75 -2699.475 38411.42 46214.094 -85773.555 -174345.61 -203815.27 187639.1
-9166.529 113298.82 142852.88
00000000: 0000 0000 0000 0000 0000 0000 0000 0000
00000010: 0000 0000 0000 0000 0000 0000 0ab3 ca47
00000020: 2800 4c48 8507 6e48 ccc8 5bc8 8643 3246
00000030: ed41 05c8 da2f 2dc8 61ed 1fc8 cef1 a1c8
00000040: c01d bdc8 6f4a ae48 1177 86c6 9961 5248
00000050: bbca 8548 a652 83c7 c37b 05c8 e716 1cc8
00000060: b8ce 0f48 cc0c d4c5 9693 ad47 d840 da47
00000070: e6fa fe47 b366 7f48 52f3 9448 b958 89c8
00000080: abc9 5e46 e2d7 26c8 d748 59c8 9bf2 aa46
00000090: 8d73 2847 b18e 4247 b7ad 34c7 5f40 1c45
000000a0: eef6 dac6 e3e2 18c7 ceac 5b48 33c6 dc48
000000b0: 43e7 0049 ccbd edc8 9444 ba46 38c4 8fc8
000000c0: b95f b9c8 7950 6245 e189 b945 97c2 dc45
000000d0: d79d cfc5 b79a cb44 e61a a9c5 e01a 2bc6
000000e0: 598e 61c8 df33 e4c8 3c3c 05c9 8da1 f548
000000f0: e806 b1c6 d6b2 9348 38bb bb48 dbba 0f48
00000100: 9c7f 9048 62a1 a848 6780 9bc8 d88b 7546
00000110: fe73 3cc8 4d51 73c8 be17 adc8 7d17 2fc9
00000120: 6686 4cc9 9e75 3c49 2490 0fc7 25b9 e348
00000130: f7eb 1049 8927 e1c6 7f24 68c7 9434 88c7
00000140: c068 7a47 9ab7 28c5 6c0b 1647 1886 3447
00000150: c786 a7c7 6742 2ac8 d109 47c8 c63d 3748
00000160: 1e3a 0fc6 6949 dd47 3881 0b48

exp_avg_sq f4 [13, 7]
0.0 0.0 0.0 0.0 0.0 0.0 0.0 1.2318986e+13
2.981444e+13 3.4765435e+13 3.1991022e+13 7.035191e+12 1.5880486e+13 4.2374456e+12 1.057914e+13 2.47288e+13
2.859423e+13 2.6416404e+13 6.295365e+12 1.3424931e+13 3.3302577e+12 1.2981308e+13 3.191475e+13 3.719841e+13
3.423422e+13 7.340716e+12 1.6770053e+13 4.71684e+12 1.3019263e+13 3.1105225e+13 3.619937e+13 3.333936e+13
7.5344186e+12 1.6716929e+13 4.47418e+12 1.3348136e+13 3.188775e+13 3.706367e+13 3.4155008e+13 7.747884e+12
1.7097834e+13 4.861057e+12 1.5093623e+13 3.5920888e+13 4.163893e+13 3.841716e+13 8.851335e+12 1.926034e+13
4.766452e+12 1.8496052e+13 4.4306874e+13 5.1518296e+13 4.7469816e+13 1.0711318e+13 2.3719586e+13 6.8582805e+12
1.7475307e+13 4.1133753e+13 4.769887e+13 4.400939e+13 1.0284954e+13 2.2306196e+13 5.9389373e+12 1.3065054e+13
3.1259638e+13 3.6308664e+13 3.3475258e+13 7.564989e+12 1.6733335e+13 4.5050306e+12 1.1494772e+13 2.7687314e+13
3.2160946e+13 2.9640278e+13 6.6312853e+12 1.471097e+13 4.3045455e+12 1.5405875e+13 3.5970506e+13 4.164352e+13
3.845498e+13 9.097042e+12 1.960128e+13 4.882092e+12 1.0283047e+13 2.440368e+13 2.8376434e+13 2.6147853e+13
5.984479e+12 1.3177119e+13 3.7461067e+12
00000000: 0000 0000 0000 0000 0000 0000 0000 0000
00000010: 0000 0000 0000 0000 0000 0000 cd43 3355
00000020: b9ed d855 abf3 fc55 ecc3 e855 42c0 cc54
00000030: 6c17 6755 dca6 7654 5ef2 1955 fbec b355
00000040: e70c d055 6334 c055 2038 b754 c45b 4355
00000050: b5d8 4154 24e7 3c55 db35 e855 b853 0756
00000060: 3416 f955 99a4 d554 5109 7455 3247 8954
00000070: 8974 3d55 ff51 e255 4ab1 0356 6693 f255
00000080: cb47 db54 6a43 7355 3d37 8254 ae3d 4255
00000090: 9003 e855 3cd6 0656 a982 f855 3c7e e154
000000a0: 65ce 7855 b279 8d54 21a4 5b55 efad 0256
000000b0: 477b 1756 c5c2 0b56 cbcd 0055 2e23 8c55
000000c0: d6b8 8a54 9593 8655 fe2f 2156 276c 3b56
000000d0: b6b1 2c56 c5de 1b55 2c95 ac55 2c9a c754
000000e0: 974c 7e55 cba4 1556 0987 2d56 f01a 2056
000000f0: 70aa 1555 874c a255 88d8 ac54 1e1f 3e55
00000100: 9d71 e355 1417 0456 8790 f355 8f2b dc54
00000110: 8880 7355 181d 8354 5d45 2755 a473 c955
00000120: 6e00 ea55 52a9 d755 edfe c054 a212 5655
00000130: ba8e 7a54 5b2f 6055 25dc 0256 8d7f 1756
00000140: fee5 0b56 1f61 0455 3b9e 8e55 6c16 8e54
00000150: 56a3 1555 658f b155 3a77 ce55 2c40 be55
00000160: d82b ae54 98c0 3f55 570d 5a54
