saved_models/regression-7_epoch=12-valid_loss=1511857280.00.ckpt (torch, 90767 bytes, 29 tensors)

_backbone.linear_layers.0.weight f4 [50, 58]
00000000: efe2 98c0 0e4d 3842 dd2b 1d41 3ea2 64c1
00000010: f3fb ee41 d453 7cc2 2bd3 bac1 c6e3 9a40
00000020: 4d72 8ec1 a8df 81bf e044 1741 bcfd c33e
00000030: 1554 9541 37b0 e3c0 237f 9040 8fbc edc0
00000040: a7a9 6d40 cf9a aa40 f436 9c41 bf18 23c1
00000050: 6579 38c1 c06e 0cc1 f118 58c1 8913 d8c0
00000060: 8ea2 14c1 9166 8cc2 576b a53f 9b93 e5c0
00000070: 60e0 91c0 52c1 7141 4b83 393f f982 2841
00000080: 845d d5c0 69dd 1341 6614 3dc1 89fa 99c1
00000090: 4137 90c1 4483 39c1 fef4 dd41 2c48 b540
000000a0: 1d03 b141 d187 85c1 a551 4642 4bc1 6741
000000b0: 8f41 95c1 4f10 a641 bef9 a0c1 9346 8c3f
000000c0: b1ce df3f cd92 3440 ea98 f040 52b6 81c1
000000d0: 8f54 eac0 38b8 f2bf fefb a63f 8c06 323f
000000e0: cbd6 1840 82c5 953f 7abb 13c1 c38c de40
000000f0: 76ec a140 460d df40 bf46 cb40 bb7d 59c1
00000100: bffe f33f 3249 8cc0 cab9 5940 83ee 9840
00000110: 625d 82c0 c033 c140 e732 0ec0 7f19 5940
00000120: d0df 9240 8414 b540 1554 2440 5452 82c0
00000130: ada0 8840 0aa6 7e40 1920 33c0 c007 8340
00000140: 2afa 4e40 4902 5cc0 b26c 4c40 837b 2f3e
00000150: 77eb 5ac0 21d6 b5c0 6874 4840 b8d4 bd40
00000160: 21e9 8b40 fc4c bc40 a6eb 2b40 6a86 8cc0
00000170: e4a7 1e40 2530 5240 dd0b 9e40 4d18 2140
00000180: aafd 4cc0 4874 91c0 4360 eebf 0cf8 1040
00000190: 351c 5840 018d 4bc0 d43f 5f40 9859 56c0
000001a0: 2c8c 0e40 4408 5fc0 ccfb 57c0 d41c 7ac0
000001b0: a1de 6440 34e3 17c0 f7d7 19c0 a06b 82c0
000001c0: 2255 8340 2f3d 8140 c1fa 3440 f793 63c0
000001d0: 052b fec0 0d56 0f41 6c48 a240 6a2d a740
000001e0: 624c 3b41 9def 10c1 321d ba40 4cff f0c0
000001f0: e1ed d540 1696 fe40 b0d6 e9c0 d27e 0041
00000200: 9afe c4c0 1b91 da40 d78d ba40 679f ad40
00000210: 6344 d640 d492 dfc0 cab1 5540 783a e240
00000220: 30cf ccc0 e643 e040 c3c7 d440 f969 d0c0
00000230: 8600 ce40 bf55 88bf 705c d9c0 a505 cfc0
00000240: 35b4 9640 30bd ce40 7670 d840 be6f d540
00000250: 45a5 df40 4f09 cec0 6c1f ab40 88b2 d540
00000260: 886c 8140 a7ac c940 a9a3 8ac0 5a22 dac0
00000270: d11c c2c0 820d a540 77e8 083f 044d c9c0
00000280: e548 d640 ddd6 cfc0 a40f 9a40 96f0 d6c0
00000290: d83d c3c0 e5f7 e1c0 e895 dd40 e91d 7fc0
000002a0: d88d a6c0 6966 dfc0 488a e540 8010 e340
000002b0: 299d ab40 0de9 d9c0 a043 3a40 6b9a 6a40
000002c0: 60d6 93c0 9efd 56c0 9e56 49c0 73c2 74c0
000002d0: b042 59c0 2b7a 4640 1ca3 53c0 79ba 5ac0
000002e0: 5779 4840 aff9 75c0 e4df 6d40 1c4e 55c0
000002f0: 8d92 6d40 3c36 72c0 0c82 41c0 e9a8 6740
00000300: 15f9 5440 b49d 45c0 8e15 87c0 b125 6fc0
00000310: 9ac2 62c0 f667 5f40 202a 5ec0 0ea1 5b40
00000320: 4acf 4940 f06e 5740 7e56 55c0 67f3 8b40
00000330: 3036 68c0 c338 5dc0 fd44 56c0 2900 5840
00000340: 8f83 4dc0 0984 5ac0 e296 4540 0644 80c0
00000350: 01ae 6840 6555 5b40 46eb 5940 6c71 52c0
00000360: 14a7 6240 3b9f 6940 d45f 62c0 d7ef 5440
00000370: 4e71 5ac0 c066 5e40 622e 5140 4ea1 5a40
00000380: 51f4 5fc0 eded 5940 3d46 6240 fe54 4740
00000390: e92a 66c0 09ca 58c0 d915 57c0 d9a8 6340
000003a0: c2f2 16c1 8a01 0141 9620 cf40 b8e0 d740
000003b0: 6447 3941 ea24 0cc1 d4d3 c140 3f1e f5c0
000003c0: 6c49 da40 621e 0241 fbb2 f2c0 b8d6 0441
000003d0: 3a9d cbc0 1387 dd40 d6e3 9340 d24d db40
000003e0: edb3 d340 520a e7c0 a380 9640 93d2 e940
000003f0: 8969 a9c0 6653 e340 1f66 d440 4b45 d8c0
-4.777702 46.07525 9.823209 -14.28961 29.873022 -63.081863 -23.35311 4.8403044
-17.80581 -1.014638 9.454315 0.3827952 18.666056 -7.1152606 4.5155196 -7.4292674
3.7134798 5.3313975 19.526833 -10.193542 -11.529637 -8.777039 -13.506089 -6.7523847
-9.289686 -70.200325 1.2923383 -7.1742682 -4.5586395 15.109697 0.7246596 10.531976
-6.6676655 9.241555 -11.81748 -19.247332 -18.02698 -11.594547 27.744625 5.66506
22.12652 -16.691317 49.57973 14.484691 -18.657011 20.757963 -20.121944 1.0959038
1.7484952 2.82146 7.5186663 -16.214024 -7.322822 -1.8962469 1.3045652 0.6954124
2.38811 1.17009 -9.233271 6.954683 5.060115 6.9703703 6.352386 -13.593196
1.9062117 -4.383935 3.4019647 4.779115 -4.0738993 6.037567 -2.2218568 3.3921812
4.589821 5.6587543 2.567632 -4.07255 4.2696137 3.9788842 -2.798834 4.094696
3.2340188 -3.4376395 3.1941342 0.1713696 -3.4206216 -5.682389 3.1321049 5.9322166
4.372208 5.8843975 2.6862578 -4.391408 2.4789972 3.2841885 4.938948 2.5171082
-3.2029824 -4.5454445 -1.8623127 2.2651396 3.3767216 -3.1804812 3.4882708 -3.3492184
2.2273054 -3.4848795 -3.3747435 -3.9080095 3.5760882 -2.3732424 -2.4038064 -4.075638
4.104142 4.0387187 2.8278048 -3.555906 -7.9427514 8.9585085 5.0713406 5.2242937
11.706148 -9.058499 5.816064 -7.531164 6.685288 7.955821 -7.307457 8.030962
-6.1560793 6.830213 5.8298144 5.4257083 6.695848 -6.9866734 3.3389764 7.0696373
-6.4002914 7.0082884 6.649385 -6.512936 6.437564 -1.0651168 -6.792534 -6.469439
4.709498 6.460594 6.763728 6.6698904 6.9889245 -6.4386363 5.3475857 6.6780434
4.0444984 6.3023257 -4.332478 -6.8166933 -6.0660176 5.157899 0.53479713 -6.2906513
6.6963983 -6.4949784 4.8144093 -6.7168684 -6.1012993 -7.0615106 6.924549 -3.9862006
-5.204815 -6.9812512 7.17313 7.095764 5.3629346 -6.8096986 2.9103775 3.665675
-4.619919 -3.3592296 -3.1459117 -3.8243682 -3.3946953 3.1012065 -3.3068304 -3.4176314
3.132406 -3.8433645 3.7167902 -3.3328924 3.7120697 -3.7845602 -3.0235624 3.6196845
3.3277028 -3.0877504 -4.221381 -3.7366755 -3.5431275 3.4907203 -3.471321 3.431705
3.153277 3.366146 -3.333404 4.373462 -3.6283073 -3.4565895 -3.3479607 3.3750098
-3.2111547 -3.4143088 3.0873342 -4.0083036 3.6356204 3.427087 3.404985 -3.2881727
3.5414476 3.6503437 -3.537099 3.3271387 -3.4131656 3.4750214 3.268456 3.4160953
-3.499287 3.4051468 3.535537 3.1145625 -3.596369 -3.3873312 -3.3607085 3.5571806
-9.434267 8.062876 6.472728 6.7461815 11.579929 -8.759012 6.057108 -7.659942
6.8214626 8.132418 -7.584348 8.302422 -6.3629427 6.9227386 4.621562 6.8532495
6.6157136 -7.22001 4.7032027 7.306955 -5.2941327 7.1039305 6.637466 -6.7584586

_backbone.linear_layers.0.bias f4 [50]
00000000: c913 6cc1 abd8 d140 d2a6 2941 5955 57c0
00000010: 27dc 2841 6fb1 92c1 cf1d df40 518a 63c1
00000020: 1335 2741 2479 6ac0 0abf 2341 63bb 5bc0
00000030: 61da f0bf d20e 2641 1c6a 8dc0 d81c 2a41
00000040: 72df 2641 405f 5ac0 deb5 2c41 3a3c 2340
00000050: 0f33 2b41 94f9 653f 0730 28c0 ce31 ff41
00000060: 0c1c 2541 1d5f 2541 2210 db40 877d 2741
00000070: 7774 2a41 caff 2c41 1bfc 2841 5406 1f41
00000080: dd8b 2741 f5dd 2941 6320 5dc1 4de1 46c0
00000090: e3aa 16c1 e186 2941 27d6 2441 f3de f2c1
000000a0: 393b 2741 74e3 2a41 2623 aac0 bee0 50c1
000000b0: e299 78c1 642f 2941 6c79 0d42 1bfe a140
000000c0: f11b 2641 f90e 54c0
-14.75483 6.5576987 10.603228 -3.3645842 10.553748 -18.336637 6.9723887 -14.221269
10.450458 -3.6636438 10.23414 -3.4333122 -1.8816644 10.378618 -4.419203 10.632042
10.429552 -3.4120636 10.794401 2.550551 10.6999655 0.8983395 -2.6279314 31.899319
10.319347 10.335721 6.8457193 10.468146 10.653434 10.8124485 10.561549 9.939045
10.471646 10.616689 -13.820407 -3.1075013 -9.41672 10.595429 10.302283 -30.358862
10.451959 10.680531 -5.3167906 -13.054869 -15.537569 10.57407 35.368576 5.0622687
10.381822 -3.3134139

_embedding_layer.cat_embedding_layers.0.weight f4 [13, 7]
00000000: 3e8a f9bc ad66 2fbf add1 533f 0134 d13f
00000010: dda3 f4be 151d 66bc e444 7cbf 275b 0e41
00000020: 315a c7c0 bf6c 1541 fbff d640 3981 c5c0
00000030: 8a4c cc40 87c3 ffc0 faf2 0e41 3c41 f6c0
00000040: be41 0f41 d4c6 ad40 bacc 03c1 a542 df40
00000050: fad4 ffc0 69e0 1041 13c5 e8c0 a49a 1541
00000060: b1f3 bb40 cc4b 02c1 6cf2 ad40 ddf1 02c1
00000070: 7448 3541 9e20 b4c0 2397 0241 34b3 a540
00000080: 0d3e d7c0 7374 a140 bbde 1ac1 f4a9 1941
00000090: d7e6 bdc0 3d6c 1b41 8ead cd40 c829 edc0
000000a0: 6242 a040 fdd1 03c1 8baa de40 d858 0cc1
000000b0: 7008 0341 475c cc40 750f 07c1 91a5 c540
000000c0: e0b7 d7c0 1534 ec40 7488 06c1 926b f640
000000d0: b917 f940 f845 01c1 1296 d740 b680 dbc0
000000e0: 0315 d240 ed64 dfc0 4026 f440 ca24 0241
000000f0: c164 f9c0 9d80 0641 a156 f0c0 b682 ab40
00000100: 8ec6 15c1 0968 f440 70aa 0c41 0114 ffc0
00000110: dbcc 0341 b00c d1c0 7e2f 9f40 59f9 06c1
00000120: 6661 d340 ffdb 1841 acf4 05c1 6deb 1841
00000130: c9fe cac0 4d5d 9140 d225 0cc1 e118 ed40
00000140: 7585 0d41 96a7 11c1 c6a3 2941 a450 cbc0
00000150: 07a8 9d40 2b8f 21c1 cc93 ab40 9c32 4541
00000160: f907 06c1 7335 3b41 bc5e 89c0
-0.030461427 -0.68516046 0.82741815 1.6343995 -0.47781268 -0.01404502 -0.9854262 8.897254
-6.2297597 9.339049 6.7187476 -6.1720243 6.384343 -7.992618 8.93432 -7.695463
8.95355 5.430521 -8.237482 6.9768853 -7.994748 9.054788 -7.274057 9.350254
5.8734975 -8.143505 5.4358425 -8.184049 11.330189 -5.6289816 8.161899 5.1781254
-6.7263246 5.045465 -9.679378 9.603992 -5.9344287 9.713925 6.427436 -7.4113503
5.0081034 -8.238767 6.958318 -8.77169 8.18956 6.3862643 -8.441274 6.1764607
-6.7411957 7.3813577 -8.408314 7.700631 7.784146 -8.079582 6.737069 -6.859462
6.565065 -6.98107 7.629669 8.133982 -7.793549 8.4064 -7.510575 5.359706
-9.360975 7.6376996 8.791611 -7.971192 8.237514 -6.532799 4.9745474 -8.435876
6.6056395 9.55371 -8.372234 9.557477 -6.3436017 4.5426393 -8.759233 7.409287
8.845082 -9.103415 10.602484 -6.353594 4.926761 -10.097453 5.3617916 12.324856
-8.376946 11.700549 -4.2928143

_embedding_layer.cat_embedding_layers.1.weight f4 [27, 14]
00000000: a49b 193e 3c94 f33f 9acc 633f f4b1 e3be
00000010: aaa7 a1bd 731a 883f 3757 e63f 2950 f33e
00000020: 129d b5be 05be 90bf 3272 e23f 661e c63e
00000030: 654c 95bf 2b5b 703f 9eb7 e340 61b3 b440
00000040: 556a d5be ecb2 3941 085c 24c1 47b6 2341
00000050: b89d b740 3188 1cc1 15c8 1141 7a10 9d40
00000060: 25e0 42c1 6a67 e540 fc6b 72c1 6d47 27c1
00000070: a385 2041 4c4d da40 5f17 2341 9b11 e340
00000080: 4bab 30c1 ca19 d740 177c 0741 1378 3d40
00000090: 3f17 3f41 01a8 3841 419f 89c0 5970 4741
000000a0: c74f 5641 4a6d c2c0 2837 3d41 7e6a 4441
000000b0: 260d 2141 bf9d 4c41 1872 73c1 542d 2e41
000000c0: e6b2 5941 afa5 39c1 8478 4b41 9725 3a41
000000d0: 2fdb 5fc1 97e1 4c41 f4c8 edc0 3ea3 62c1
000000e0: cf38 0e40 70cb 3040 9d7c 2cc1 5873 d940
000000f0: 99df e6c0 7b01 d940 302a 79be 2171 90bf
00000100: 1888 9840 dde6 383f f866 c3c0 c0de d140
00000110: 8d57 32c0 3b56 34c0 d631 4541 88b1 2341
00000120: 6c68 7141 5b1c 2c41 8f57 68c1 2bc3 1c41
00000130: e52c 5641 0620 24c1 3058 5141 082d 4041
00000140: f7ad 2cc1 2f7a 3041 1dc0 7bc0 c803 39c1
00000150: 384b ab40 a3db 8040 23cc 1141 37fb b340
00000160: 3595 8dc0 2184 0f40 d1a6 eb40 c655 8ec0
00000170: ad5f 8340 c948 c540 3727 4dc0 0e57 ab40
00000180: 97f6 463f e516 d4c0 9c75 5041 d8b3 7a41
00000190: b5e9 3341 2fe4 8941 abd0 4cc1 53e4 a841
000001a0: a479 4641 f7e3 8cc1 acfc 6041 ce8e 3e41
000001b0: 64f5 8cc1 f6c6 4341 9f5a 03c2 7a31 80c1
000001c0: 7304 643f f697 5cc1 c275 91c1 9ca4 0ac0
000001d0: 3343 e0be f51a d4c1 2575 2141 0ac4 66c1
000001e0: 76c5 883f f5dd a540 b882 07c0 60af 9bbf
000001f0: 7b8e 2d42 9799 8ac0 8ed3 94bd 7ef0 e2be
00000200: 2f06 d9c0 db98 ba3f 11ce 7b3e 9bda 063f
00000210: 74fc 32bf 42ef 9ebf e9e0 d23f 9d70 2c3f
00000220: 945c 95c0 6af2 c33f a487 d13f 3227 11c0
00000230: 27a8 3241 a234 5e41 eff8 8d41 a94d 6b41
00000240: ab22 45c1 b936 7f41 cb51 2f41 dfba 35c1
00000250: 9ef8 5541 bc5a 3441 f5e6 33c1 e016 3c41
00000260: bb85 acc1 3ecf 27c1 a040 0941 b23c fc40
00000270: 5d88 46c0 fa53 1b41 5899 1ec1 5eae 1741
00000280: 40d1 a440 d3fa 15c1 3e30 e140 9103 c140
00000290: 5b4e 2cc1 57e3 0941 54c4 eec0 05cb 1ec1
000002a0: 3258 8f40 1ae8 de3e d385 2641 2e5e 3d40
000002b0: 5c7c 2ac0 7b85 be3e 5e9e b840 4e8f e4c0
000002c0: 3521 9b40 1c19 9840 4396 74c0 fea5 7740
000002d0: 9aa7 6b40 d290 8cc0 50e5 9740 8a3f e23f
000002e0: 9427 4b40 2d3e 0341 005a c9c0 c6b3 0d40
000002f0: a0f0 fc40 8973 90c1 0754 7840 a8ac 8d40
00000300: ba3c 1dc1 cb7d 993f d122 39c1 a0de dcc0
00000310: 08c8 d040 22a5 ba40 251a a940 5a76 ad40
00000320: d31c e9c0 2cb5 fc3f 5492 cb40 6226 b1c0
00000330: 71cb f840 c44d a240 5c94 96c0 e880 7440
00000340: b0b3 37c0 ada2 b6c0 e02b 0741 4ac5 c240
00000350: 5b86 12c1 a08a 0e41 d4b9 09c1 7ae6 c940
00000360: c88a 9040 c634 7ac0 9b25 e740 e67d ec40
00000370: c27c ccc0 1326 d540 16bf ae3f 2fc2 13c1
00000380: dfef bc41 173c ca41 5c30 e941 0a3d da41
00000390: 1b6e ccc1 8839 0942 f8bd c441 03a8 cec1
000003a0: 521a d441 9031 ad41 b1f8 c9c1 90a6 b941
000003b0: 5944 4cc2 283c c7c1 fe0a 2f41 fd4e 0941
000003c0: 4bea 5b41 2bb4 1e41 b06a 1ac1 5763 7c40
000003d0: 7d45 4841 3ae7 8cc0 8f70 5e41 6c73 3f41
000003e0: d6ed 24c1 7518 5541 f799 1d41 2f47 38c1
000003f0: c038 b140 5c90 573f 1448 2c40 7bae 8a40
0.15000778 1.9029613 0.8898407 -0.44471705 -0.078933075 1.0633072 1.7995366 0.47522095
-0.35471398 -1.1307989 1.76911 0.38695067 -1.1663939 0.9388911 7.116164 5.646897
-0.41682687 11.606182 -10.272469 10.232001 5.738003 -9.78325 9.111348 4.9082613
-12.179723 7.168874 -15.151363 -10.454938 10.032626 6.8219357 10.193206 7.095899
-11.04182 6.721898 8.467795 2.9604537 11.943175 11.541017 -4.30069 12.464929
13.394477 -6.075841 11.825966 12.275999 10.06571 12.788512 -15.215355 10.886066
13.606176 -11.60295 12.716923 11.634177 -13.991012 12.805076 -7.4307804 -14.164854
2.2222173 2.7624168 -10.780423 6.79533 -7.2147946 6.7814307 -0.243325 -1.1284524
4.766613 0.7222727 -6.1063194 6.558441 -2.7865937 -2.817763 12.324667 10.230843
15.087994 10.756923 -14.521377 9.797648 13.385961 -10.257818 13.08403 12.010994
-10.792472 11.02983 -3.9336007 -11.563423 5.352932 4.026811 9.112338 5.624416
-4.4244637 2.2424395 7.3641133 -4.4479704 4.105429 6.165135 -3.2055185 5.354377
0.77720016 -6.6277947 13.028713 15.668907 11.244557 17.236418 -12.800944 21.111486
12.404697 -17.611311 14.061687 11.909864 -17.61982 12.236074 -32.838497 -16.024158
0.8906929 -13.7871 -18.182499 -2.166297 -0.4380127 -26.513163 10.0911 -14.422861
1.068526 5.1833444 -2.1173534 -1.2162895 43.38914 -4.3312488 -0.07266913 -0.44324106
-6.782005 1.4577898 0.24590327 0.52677315 -0.6991646 -1.2416766 1.6474887 0.67359334
-4.667551 1.5308354 1.6369519 -2.2680173 11.166053 13.88785 17.74655 14.70646
-12.320964 15.95086 10.957469 -11.358123 13.373198 11.272152 -11.243886 11.755585
-21.565298 -10.488096 8.578278 7.882409 -3.102073 9.708002 -9.912437 9.48007
5.150543 -9.373736 7.037139 6.0316854 -10.76913 8.618003 -7.461466 -9.924565
4.479516 0.43536454 10.407672 2.9588733 -2.6638403 0.37211213 5.769332 -7.1424932
4.8478036 4.753065 -3.8216712 3.8695064 3.6821046 -4.3926783 4.7467422 1.767564
3.1742907 8.20268 -6.2922363 2.2140975 7.904373 -18.056414 3.8801286 4.427326
-9.827326 1.1991514 -11.571 -6.902176 6.524418 5.832658 5.2844415 5.420697
-7.2847686 1.9742789 6.3616123 -5.5359354 7.774834 5.071993 -4.7056103 3.8203678
-2.8703423 -5.707358 8.448212 6.086583 -9.157802 8.908844 -8.607868 6.3093843
4.516941 -3.909471 7.2233405 7.3903685 -6.390229 6.6608977 1.3652065 -9.234908
23.617125 25.27934 29.148613 27.279804 -25.553762 34.306183 24.592758 -25.832037
26.512852 21.6492 -25.246431 23.20633 -51.066746 -24.904373 10.940184 8.581784
13.7447 9.918986 -9.651047 3.9435632 12.516965 -4.403226 13.90248 11.965679
-10.308065 13.318471 9.850089 -11.517379 5.5381775 0.8420465 2.6918993 4.333799

_embedding_layer.cat_embedding_layers.2.weight f4 [44, 22]
00000000: 2ec9 9e3f 427f 4c3f 08f7 cf3e 6ab3 e4be
00000010: 9c10 90be 5502 793e ae7b 703e 2851 a93f
00000020: 471b 0dc0 0481 e33f d739 0fbf 9e91 2c3f
00000030: 032a c4be 3b5b 0bbe eb45 4cbe ddd9 7a3f
00000040: fd49 9d3d 5288 373f 8ed5 b43e 7f06 eb3e
00000050: 79cc 3e3d a770 a93f e699 48c1 69e2 0241
00000060: f37a 06c1 e662 dac0 d169 8840 6675 b9be
00000070: 9f4c a740 1476 59c0 8122 9dbf c159 5f41
00000080: aea2 50c0 e4bc b640 7045 5a40 4460 52c1
00000090: 89ce 1dc1 3ffb a4c1 9209 e3c0 4abd ab40
000000a0: ac0c c7bf 6db9 21c1 b852 8b40 250d f840
000000b0: 426d 3ec0 6fc4 01c0 630c e83f f677 8840
000000c0: 2472 fe3f b843 b63f fbda 18c0 baca 0c3f
000000d0: 3716 9f3f 610c 9bc0 1ccd fb3f 0deb 1b41
000000e0: 832a 1ec0 0f67 c33f fad7 3240 06b8 37c0
000000f0: b627 ba3f 9c5d 9fbe c1fe 3740 8046 04be
00000100: 2d8b 88c0 c618 86c0 026f 0ac1 2838 5440
00000110: f547 d440 b907 b140 ad47 0541 63f7 b540
00000120: a32e d8c0 2240 8d40 1e95 4540 6108 a0be
00000130: f89e bf40 f57f 2341 b323 e4c0 66b2 3bc0
00000140: 48f0 a840 b6d9 1cc0 d9e6 5dc0 3ba5 c840
00000150: 1aaa a6c0 99ae 3c3f 935b 9bc0 c3af f0c0
00000160: 6ec4 79c1 fe22 1041 541e 6441 c9b5 4441
00000170: c40c 4841 485b 5741 f4c7 6fc1 9c5a 6441
00000180: 1a4a 8141 72e5 4140 5789 5f41 ae6f 0841
00000190: da4a 71c1 48d6 24c1 798a 5041 a808 85c1
000001a0: c3e5 4ec1 2a50 7241 03a5 3ac1 e5ce 2e41
000001b0: e8d9 6ac1 958c 68c1 d904 b3c0 d979 fd40
000001c0: 60c6 e440 1128 2241 4d7a ab40 b80f 3d41
000001d0: 56ab 2fc1 4b59 3141 e3b1 3441 7626 2c41
000001e0: e3a1 1d41 2d00 86c1 e8c4 2bc1 971f 24c1
000001f0: 0f04 4841 f044 ac40 95c2 2ac1 ce47 2b41
00000200: 54e5 5bc1 f3a3 3641 7965 25c1 3fd4 30c1
00000210: a65b 1ac1 5e85 dc40 c6d4 2841 6413 1f41
00000220: 9d10 2641 46c8 1541 eac8 05c1 88c2 ed40
00000230: baca f540 8085 9140 0cb8 0241 fbcf 58c0
00000240: 4ca2 1cc1 1d66 b4c0 bc53 e240 1b05 d740
00000250: bbd3 dcc0 539f ea40 8f4b 9bc0 6297 c140
00000260: eeab 2ec1 b4e7 04c1 6568 77c1 6e23 7d41
00000270: a7bc 6a41 4e72 8541 a06e 6841 0c81 8441
00000280: babc 82c1 5afd 8341 bdd3 9a41 a1c1 8341
00000290: 937f 8941 19b7 85c1 87e2 8fc1 5267 7bc1
000002a0: c483 8a41 282b ea3f 1c85 92c1 6807 8741
000002b0: 8fb0 7dc1 a878 8b41 25d5 7cc1 8305 84c1
000002c0: c308 60c1 3749 5141 e41f 5741 7470 7141
000002d0: ca06 8041 16f4 4a41 4b79 45c1 5740 3541
000002e0: 63c5 3e41 d891 2c41 1bdf 4d41 3af0 a0c0
000002f0: 1a63 47c1 0f36 42c1 1793 3f41 5754 4b41
00000300: cb90 2fc1 f5dd 4b41 2783 4bc1 fe4a ff40
00000310: 71a7 5fc1 c6fb 54c1 4b5f 5b40 4821 1cbf
00000320: 8817 07c0 98fc 6abe 3b5d f6bf 11d0 20bf
00000330: f0b4 84bf 63a8 a03f 6665 3540 2198 d0bf
00000340: 147a c93f d30f 8c40 75c3 cf3e d7dd a8bd
00000350: aaa7 933f a301 7dc1 ba36 cfbe a99f f43f
00000360: 9cb3 f53f 7ce1 253e d26c 19bf 7cab 28c0
00000370: 4d80 fcbe cf6b 91bf bc19 8b3f 63c0 c03f
00000380: fbbb 17c0 82dc f13f e83a 1cc0 ff17 5f3f
00000390: 1953 aa40 1eea d5bf 7755 913f 0052 c140
000003a0: 68c8 05bf 68ec a1bf 3da4 7440 472e 0cc1
000003b0: 4ab4 a53d c433 d23f 713a 7a3f 583a e03e
000003c0: 9ac0 6fc0 fbdb 76c0 9495 d6be 4ce2 013f
000003d0: 3ce2 8abf a6f8 f93d f66c 82bd ccd1 c73f
000003e0: 92fb 35c0 690a 0c40 5155 a240 c5a9 763f
000003f0: 7a66 1b40 e8f3 85bf 1f62 3cc0 070e 41c0
1.2405145 0.7988168 0.40618157 -0.44668132 -0.28137672 0.24317296 0.2348468 1.3227892
-2.2047899 1.7773747 -0.5594763 0.67409694 -0.38313302 -0.1360902 -0.19948547 0.97988683
0.07680128 0.71692383 0.3531918 0.45903394 0.04658172 1.3237504 -12.537573 8.180276
-8.405017 -6.8245726 4.262917 -0.3622238 5.228103 -3.397832 -1.2276155 13.959413
-3.2599292 5.710558 3.4104881 -13.148502 -9.862924 -20.622679 -7.0949183 5.3668566
-1.5550742 -10.10777 4.3538475 7.7516046 -2.9754186 -2.0276144 1.812878 4.2646437
1.9878583 1.4239416 -2.3883655 0.54996836 1.2428654 -4.845261 1.967197 9.744885
-2.4713447 1.5265826 2.7944322 -2.870607 1.4543369 -0.31126106 2.874924 -0.12917519
-4.266989 -4.190524 -8.6521015 3.3159275 6.633784 5.5321927 8.329999 5.6864486
-6.755693 4.4140787 3.0872264 -0.31256393 5.9881554 10.2187395 -7.129358 -2.9327636
5.279331 -2.450788 -3.4672148 6.2701697 -5.2082644 0.73703915 -4.8549285 -7.5214553
-15.610456 9.008543 14.257404 12.294381 12.503117 13.459785 -14.986317 14.272121
16.161182 3.0296292 13.97103 8.527266 -15.080774 -10.302315 13.033807 -16.629227
-12.931094 15.144571 -11.665286 10.925511 -14.6782 -14.534322 -5.5943418 7.921124
7.1492157 10.134782 5.3586793 11.816338 -10.97933 11.0843 11.293429 10.75939
9.852023 -16.750086 -10.735573 -10.257712 12.500991 5.383415 -10.672505 10.70503
-13.743488 11.415027 -10.337274 -11.051818 -9.647375 6.89128 10.551947 9.942234
10.379056 9.361395 -8.361551 7.4299965 7.680997 4.5475464 8.169933 -3.3876941
-9.789623 -5.637465 7.0727215 6.719373 -6.900846 7.3319488 -4.8529735 6.0497293
-10.916975 -8.306568 -15.462987 15.82115 14.671058 16.680813 14.527008 16.563011
-16.342152 16.498707 19.353388 16.469545 17.187292 -16.714403 -17.98561 -15.712725
17.314339 1.829442 -18.314995 16.878616 -15.855605 17.433914 -15.802037 -16.502691
-14.002139 13.080375 13.445286 15.089954 16.003315 12.684591 -12.342113 11.328208
11.92319 10.785606 12.866969 -5.0293245 -12.461695 -12.138198 11.973411 12.708091
-10.97285 12.741689 -12.71952 7.9779043 -13.978379 -13.311468 3.4276912 -0.60988283
-2.1108112 -0.2294792 -1.9247202 -0.62817484 -1.0367718 1.2551388 2.8343139 -1.6296426
1.574038 4.3769317 0.4057881 -0.082454376 1.1535542 -15.8129 -0.4047144 1.9111224
1.9195437 0.16199297 -0.5993167 -2.6354666 -0.49316636 -1.1361026 1.0867229 1.5058712
-2.3708484 1.8895419 -2.4410954 0.8714599 5.3226438 -1.6712072 1.1354207 6.04126
-0.5225892 -1.265027 3.8225243 -8.761298 0.08091028 1.6422048 0.97745425 0.43794513
-3.7461305 -3.8571765 -0.41910994 0.50735927 -1.0850291 0.12205629 -0.06368439 1.56109
-2.8434796 2.1881354 5.0729146 0.963528 2.4281297 -1.0465059 -2.9434888 -3.0164812

_embedding_layer.cat_embedding_layers.3.weight f4 [18, 9]
00000000: 1eeb ee3f df80 c4be 1ba7 d8bf c51a 66be
00000010: c49e 72bf 740e a7be 6f61 22bf a1a2 a53f
00000020: 23af ddbe 6106 04c1 7d49 fc40 68e9 a7c0
00000030: 9eba f9c0 2f75 e4c0 4f22 0041 b521 0341
00000040: ad0a f240 5116 d7c0 b7d9 76c0 3cd8 213e
00000050: 4671 9040 c5d9 8f3f 9547 40c0 d9c6 8540
00000060: ef27 7040 7f3a f63d 4955 8dc0 42cc bec0
00000070: b8a5 2940 992f 5cbf 6477 40c0 7068 9ec0
00000080: ecd6 8e40 282a d640 453a 6240 a9c6 b9c0
00000090: 100d f4c0 00d3 0641 7d33 80c0 6df1 6ac0
000000a0: 90cb dfc0 d4a5 0841 0aa3 cf40 2e4f 9940
000000b0: 32cc bfc0 7247 e5c0 2d88 fb40 9969 05c1
000000c0: 582d 10c1 70bf e4c0 096c 1241 a2e5 1c41
000000d0: cc56 da40 c5eb 0cc1 cd1c 3cc1 7983 4b41
000000e0: 49c9 27c1 eed9 2fc1 e236 3bc1 252e 2741
000000f0: 70e7 4641 edfa 5141 5d0e 2bc1 8ec7 45c1
00000100: a938 4241 71c2 11c1 c878 1fc1 1155 70c1
00000110: 7d1b 6841 0f96 3941 04fa 1341 d1dc 4cc1
00000120: 1e91 10c1 d7f8 3741 f69c 14c1 4b07 14c1
00000130: b077 26c1 6587 2a41 5468 2941 c4e7 0041
00000140: 1893 12c1 15af 5fc1 2b6c 7f41 9535 9bc1
00000150: 76cf 82c1 ba05 55c1 b1a0 6641 e928 5c41
00000160: 4c85 8041 62fc 6fc1 0d35 6bc1 bf60 6d41
00000170: 6bd8 65c1 4a40 58c1 9207 5fc1 f3e0 6341
00000180: 1ba0 4741 0b50 4941 edba 4dc1 8dfc 81c1
00000190: 31be 8c41 6754 8dc1 ca0e 87c1 0247 82c1
000001a0: b30e 7141 0b3e 6f41 53ce 7d41 aef7 89c1
000001b0: 8ec5 8fc1 cf55 9441 323f 8fc1 856f 8fc1
000001c0: 4f72 7ec1 c55a 8d41 69be 9641 4a0e 9441
000001d0: ceb4 85c1 68e1 51c1 0045 4341 0520 e5c0
000001e0: 1c1d 49c1 0b89 56c1 1eaa 2141 ca72 5941
000001f0: 50ae 2141 0ea1 61c1 2942 9bc1 3f3d 9141
00000200: aa6e 80c1 890f 92c1 3578 82c1 e0cc 9041
00000210: 327f a041 bbfa 9841 47de 9ec1 8985 5cc1
00000220: 8300 5741 452d 82c1 3793 5ac1 cfc7 42c1
00000230: 2037 5441 f66d 5941 2da6 6741 d567 4bc1
00000240: 8093 a3c1 6820 9241 a4d0 cec0 45b8 71c1
00000250: b91f 98c1 1efc 9b41 31cd a441 937e 8b41
00000260: 3e0e a2c1 6934 cbc1 8ec4 a141 f828 c2c0
00000270: a03a 8dc1 bf78 bec1 8646 a841 0df1 c541
00000280: d216 a841 7bff bdc1
1.8665502 -0.3837957 -1.6925997 -0.2247115 -0.9477351 -0.32628214 -0.6342992 1.2940255
-0.4329768 -8.251557 7.8839707 -5.247242 -7.8040304 -7.1393046 8.008376 8.195729
7.563803 -6.721474 -3.8570383 0.15805143 4.5138273 1.1238333 -3.004369 4.1805234
3.7524374 0.12022876 -4.416661 -5.962434 2.6507397 -0.8601013 -3.007287 -4.9502487
4.4637356 6.692646 3.5348065 -5.8055005 -7.6265945 8.426514 -4.006285 -3.6709855
-6.993599 8.540485 6.488652 4.7909155 -5.993676 -7.1649714 7.860373 -8.338281
-9.01107 -7.148369 9.151376 9.806063 6.8230953 -8.807561 -11.757031 12.719598
-10.486642 -10.9907055 -11.700899 10.448766 12.431503 13.123761 -10.691007 -12.361219
12.138833 -9.109971 -9.966988 -15.020768 14.506711 11.599135 9.248539 -12.80391
-9.035429 11.498252 -9.288321 -9.2517805 -10.404221 10.658055 10.587971 8.056583
-9.160912 -13.980245 15.963908 -19.401163 -16.3513 -13.313898 14.414231 13.759988
16.065086 -14.999117 -14.700452 14.83612 -14.365336 -13.515696 -13.939348 14.242419
12.476588 12.582042 -12.858136 -16.248316 17.592867 -17.666212 -16.882221 -16.284672
15.066089 14.952647 15.862872 -17.245937 -17.971462 18.541899 -17.905857 -17.929453
-15.902907 17.669321 18.842974 18.506977 -16.713284 -13.117531 12.204346 -7.1601586
-12.569607 -13.408458 10.1040325 13.590525 10.105057 -14.10182 -19.407305 18.154905
-16.054035 -18.257586 -16.308695 18.100037 20.062107 19.122427 -19.858534 -13.782601
13.437625 -16.272104 -13.660941 -12.173781 13.263458 13.589346 14.47807 -12.71285
-20.447021 18.265823 -6.462969 -15.107488 -19.01549 19.498104 20.600191 17.436804
-20.256954 -25.40059 20.220974 -6.067501 -17.653625 -23.808958 21.034435 24.7427
21.011143 -23.749746

_embedding_layer.normalizing_batch_norm.bn.weight f4 [6]
00000000: 7e1d c541 af09 bbc1 0a39 ef40 d97e 5541
00000010: 736a cf41 f2c7 b0c1
24.6394 -23.379728 7.475713 13.343469 25.926977 -22.09763

_embedding_layer.normalizing_batch_norm.bn.bias f4 [6]
00000000: 0075 c8c0 fc97 9640 deff c540 4463 c340
00000010: f391 dd40 4404 97c0
-6.264282 4.706053 6.187484 6.1058674 6.924066 -4.7192707

_embedding_layer.normalizing_batch_norm.bn.running_mean f4 [6]
00000000: b5b5 183c c1b1 ecba e258 bbbb c7a1 1a3b
00000010: b4b2 d2bb 7444 4fba
0.009320666 -0.0018058346 -0.0057173828 0.0023594962 -0.0064299945 -0.00079066237

_embedding_layer.normalizing_batch_norm.bn.running_var f4 [6]
00000000: 54cb 7c3f 2282 823f 9bb1 813f 4c8b 823f
00000010: f58f 7f3f d9d3 7f3f
0.98747754 1.0195963 1.0132326 1.019876 0.99829036 0.9993263

head.layers.0.weight f4 [1, 50]
00000000: 9365 1642 6d23 9340 75a0 d340 8e77 5a40
00000010: bb25 da40 d19d c9c1 301e a740 51be 0dc1
00000020: 2006 d940 778c 5a3f 1988 d640 2088 3a40
00000030: 9f63 ca40 dd95 d340 4081 0bc1 8507 dc40
00000040: f516 da40 da05 5940 b496 da40 c614 5b40
00000050: 63f8 d740 32c4 8740 dd84 5c40 9bcb ce41
00000060: 115b d640 4acd d540 65bd a440 22c9 d540
00000070: c3cd d740 63cf da40 a328 d640 503f d540
00000080: bee6 d840 ac12 d940 3718 93bf 0129 5c40
00000090: ac2a 3740 282e d540 0e8d d440 351c efc1
000000a0: d500 d540 af0c d740 5009 f8bf 68f8 18c0
000000b0: f74c 8dc0 35d1 d640 9c12 0942 bdeb 8c40
000000c0: e666 d740 faae 5640
37.599194 4.5980744 6.613337 3.413547 6.817106 -25.202059 5.222435 -8.858964
6.7819977 0.8537058 6.7041135 2.9145584 6.324661 6.612044 -8.719055 6.875918
6.8153024 3.3909822 6.8308964 3.423143 6.7490706 4.2426996 3.4456093 25.849417
6.6986165 6.6813097 5.1481194 6.6808023 6.7438674 6.8378158 6.6924605 6.6639786
6.778167 6.7835293 -1.1491765 3.4400027 2.8619795 6.6618843 6.6422186 -29.888773
6.6563516 6.7202983 -1.9377842 -2.3901615 -4.415645 6.713038 34.268173 4.4037766
6.731311 3.3544297

exp_avg f4 [50, 58]
00000000: a5f5 b748 c672 12c9 07ef e7c8 79e9 cec8
00000010: 81d4 cc47 ac2f 6249 9cd5 a1c8 0c4f 9848
00000020: cdc2 a0c8 723b 84c8 cbb6 9548 e818 85c8
00000030: fa55 9148 daf8 bdc8 5852 abc8 fdb2 4ec8
00000040: 5e89 d6c8 03b9 db48 2630 bbc8 430c bbc8
00000050: 452e e248 6976 cac8 2260 b9c8 b7db e348
00000060: 6b65 aac8 69bd e848 60e5 d148 94e6 8f48
00000070: c847 4bc8 b275 72c8 9ec4 9cc8 02fc 8bc8
00000080: d1ac 92c8 374d 9948 62ec 84c8 77dd 97c8
00000090: 4c83 34c8 10f5 99c8 8f5c a047 7b4f 9b48
000000a0: 3c5c 8348 0d51 98c8 6e01 9847 6b90 6c48
000000b0: 3bb4 94c8 f687 6348 c4c8 80c8 113b a748
000000c0: 94ee 9348 c820 b748 8246 c0c8 5762 a648
000000d0: 2cb1 ac48 2598 b648 5a2a b8c8 b1d8 c2c8
000000e0: bf38 abc8 a9ac aa48 59d6 3547 bbe2 cac7
000000f0: 750b 98c7 7dc3 7cc7 29da 3847 1ec4 0248
00000100: 5ecc 23c7 ac33 5947 47fd 2ac7 c755 45c7
00000110: 4b2e 4647 a849 47c7 537e 1347 28b1 82c7
00000120: d893 82c7 e35d 6dc7 64e6 87c7 afc8 9b47
00000130: abc9 76c7 8f51 83c7 d384 5e47 f2cd 98c7
00000140: 3385 81c7 fed5 8647 8cb7 78c7 4a25 4b47
00000150: 8639 8647 d101 2747 ff4b d2c6 91b7 3bc7
00000160: b4d2 46c7 676a 37c7 a136 22c7 9238 4947
00000170: 5dae 17c7 183d 28c7 7976 4cc6 7e7b 43c7
00000180: 8523 8bc6 438a 3f47 8bb1 ce46 0bf3 3ec7
00000190: dc75 6a46 9352 f046 45bf 13c7 3fcb c246
000001a0: ca98 0cc7 75bd 5447 4236 5b47 99dd 3e47
000001b0: b186 34c7 591b de46 55c8 0b47 39cb 4047
000001c0: d912 4ac7 4bf0 47c7 4581 14c7 ef82 3847
000001d0: bfc1 8047 71cc 0fc8 0d31 d8c7 c195 b7c7
000001e0: a317 8847 dbee 3b48 a9ad 73c7 1da2 9d47
000001f0: e7a6 7dc7 b893 8dc7 2f6d 9047 95d0 8ec7
00000200: 36cd 5947 7fcd bdc7 9e87 bdc7 634d aac7
00000210: 36ca c5c7 01cb e147 8ced b4c7 924c bec7
00000220: f168 a147 2856 dec7 de5a bcc7 3465 c547
00000230: 90da b5c7 011c 9447 930e c347 0b53 7a47
00000240: 1de5 1bc7 9783 87c7 cfc1 8ec7 9e75 86c7
00000250: bb21 6cc7 ad06 9147 5ee4 59c7 87c7 74c7
00000260: 76dd 9dc6 4d09 8cc7 2b7a cbc6 bee1 8a47
00000270: 2561 1a47 fb31 89c7 a18d b146 2d4d 3047
00000280: 6cbd 57c7 e3a8 0c47 6d1d 47c7 9c30 9947
00000290: 0542 9d47 f149 8847 de87 7bc7 0bc9 1447
000002a0: 7e98 4047 3098 8847 e75f 8fc7 93a4 8ec7
000002b0: 09fd 4ec7 15ca 8347 c0e1 0980 d4ae 3c80
000002c0: db4a 4c00 dc17 3f00 fc14 4100 442f 3e00
000002d0: 1d0b 2801 b60f 6e80 bb7b 6900 d5b5 4200
000002e0: d381 7480 4cd2 1500 bc59 5180 5cce 1701
000002f0: 7bbb 3480 9b49 2400 5991 3900 2c34 0181
00000300: bcd1 1d80 1ec5 3f00 3df9 1400 0b72 8000
00000310: bf5b 9f00 b6b0 7e80 38be 9a00 94e7 8e80
00000320: 56ba e180 6bc2 8680 83d5 d700 4b03 1580
00000330: 7fff eb00 e8c0 6a00 8dce 2901 88fb 4480
00000340: 5fa7 6a00 f04e 0001 d4ba 4f80 8ef2 3900
00000350: 14f6 5d80 8db5 1c81 45a0 2f81 1bb6 3000
00000360: 8cc5 5580 9161 5b80 ca0e b500 69f7 b080
00000370: 69a3 f000 9ce8 f680 3fa0 5d80 3dd9 9380
00000380: 2470 d900 09e5 8680 e14d 0481 f15c 1080
00000390: 77b2 b600 fa84 fc00 ffa6 0301 2b2d c080
000003a0: 2b18 8547 520d 15c8 59bc dec7 556f bdc7
000003b0: 4b60 8d47 927d 4248 19ca 7ac7 fa45 a247
000003c0: 9a89 82c7 4ebc 91c7 3cab 9447 b204 93c7
000003d0: a721 6047 48a3 c3c7 8571 c3c7 c7a6 afc7
000003e0: 47eb cbc7 2ccd e847 f88b bac7 252d c4c7
000003f0: 9e72 a647 ee32 e5c7 1c2a c2c7 0e7d cb47
376749.16 -599852.4 -475000.22 -423755.78 104873.01 926458.75 -331436.88 311928.38
-329238.4 -270811.56 306614.34 -272583.25 297647.8 -389062.8 -350866.75 -211659.95
-439370.94 449992.1 -383361.2 -383074.1 463218.16 -414643.28 -379649.06 466653.72
-348971.34 476651.28 429867.0 294708.62 -208159.12 -248278.78 -321060.94 -286688.06
-300390.53 313961.72 -272227.06 -311019.72 -184845.19 -315304.5 82105.12 318075.84
269025.88 -311944.4 77826.86 242241.67 -304545.84 232991.84 -263750.12 342488.53
302964.62 375046.25 -393780.06 340754.72 353673.38 373953.16 -377170.8 -399045.53
-350661.97 349541.28 46550.348 -103877.46 -77846.914 -64707.49 47322.16 133904.47
-41932.367 55603.67 -43773.277 -50517.777 50734.293 -51017.656 37758.324 -66914.31
-66855.69 -60765.887 -69580.78 79761.37 -63177.668 -67235.12 56964.824 -78235.89
-66314.4 69035.984 -63671.547 52005.29 68723.05 42753.816 -26917.998 -48055.566
-50898.703 -46954.402 -41526.63 51512.57 -38830.363 -43069.094 -13085.618 -50043.492
-17809.76 49034.26 26456.771 -48883.043 15005.465 30761.287 -37823.27 24933.623
-35992.79 54461.457 56118.258 48861.598 -46214.69 28429.674 35784.332 49355.223
-51730.848 -51184.293 -38017.27 47234.934 65923.49 -147249.77 -110690.1 -93995.51
69679.27 192443.42 -62381.66 80708.23 -64934.902 -72487.44 73946.37 -73121.164
55757.21 -97178.99 -97039.234 -87194.77 -101268.42 115606.01 -92635.09 -97433.14
82641.88 -113836.31 -96437.734 101066.41 -93109.125 75832.01 99869.15 64083.043
-39909.113 -69383.18 -73091.62 -68843.234 -60449.73 74253.35 -55780.367 -62663.527
-20206.73 -71698.6 -26045.084 71107.484 39521.145 -70243.96 22726.814 45133.176
-55229.42 36008.887 -50973.426 78433.22 80516.04 69779.88 -64391.867 38089.043
49304.492 69936.375 -73407.805 -73033.15 -52989.035 67476.164 -9.07503e-40 -5.572846e-39
7.006351e-39 5.794195e-39 5.976835e-39 5.710756e-39 3.08647e-38 -1.010754e-38 9.687113e-39 6.126372e-39
-1.069949e-38 2.003986e-39 -7.470866e-39 2.7882375e-38 -4.842701e-39 3.332483e-39 5.286764e-39 -2.373099e-38
-2.738468e-39 5.856349e-39 1.92612e-39 1.1795854e-38 1.4634756e-38 -1.1634664e-38 1.4210904e-38 -1.3123715e-38
-2.0729831e-38 -1.23757e-38 1.9821225e-38 -1.929727e-39 2.1672996e-38 9.803764e-39 3.118859e-38 -6.335046e-39
9.794604e-39 2.3566522e-38 -7.322025e-39 5.321636e-39 -8.628977e-39 -2.878293e-38 -3.2257411e-38 4.473431e-39
-7.876884e-39 -8.39203e-39 1.662753e-38 -1.6251801e-38 2.209914e-38 -2.2674977e-38 -8.598187e-39 -1.3577748e-38
1.9968531e-38 -1.2388119e-38 -2.4300446e-38 -1.502709e-39 1.6778081e-38 2.3190248e-38 2.4180714e-38 -1.7648618e-38
68144.336 -152629.28 -114040.695 -96990.664 72384.586 199158.28 -64202.098 83083.95
-66835.2 -74616.61 76118.47 -75273.39 57377.652 -100166.56 -100067.04 -89933.555
-104406.555 119194.34 -95511.94 -100442.29 85221.234 -117349.86 -99412.22 104186.11

exp_avg_sq f4 [50, 58]
00000000: 4d3b 2554 5f65 ab54 5c5f 5753 43be 0954
00000010: c8ed 6354 1f6b bf54 fa26 2553 f3c4 5a53
00000020: 4c8d 4e53 7194 5653 a3a1 5953 d31a 5053
00000030: 6c1f 2553 00a2 7953 61d6 2953 d854 1f53
00000040: 7b2b 8653 3ef7 9853 d527 2b53 41d3 8153
00000050: 9a85 5e53 45b8 8753 ff12 6553 e3b7 8253
00000060: 730c 6353 8c5a c952 33bf 8b53 b190 9653
00000070: f666 3953 ceaf a053 13dd a653 e202 a053
00000080: a6bd 9c53 b781 8d53 fec3 7953 5faf 8953
00000090: 0027 f952 c079 8253 d1b6 9a52 40f7 a453
000000a0: ac6c 3c53 ab2e 6e53 c777 1753 1a7e 5b53
000000b0: f9b2 8153 9f48 4d53 f88e 2653 3ef7 a953
000000c0: 70eb 9353 07b8 5d53 c54f 3f53 eff5 b652
000000d0: 9db9 0c53 caee 4453 5abe 6453 4d66 6e53
000000e0: 049b 0c53 f3a0 4853 35e9 8e53 4f29 4f53
000000f0: 44f5 8753 2266 8853 e5f0 a453 7e40 5553
00000100: 8bb3 6753 f2c7 9053 bdbb 8f53 fbf6 8b53
00000110: 5beb 9153 1284 8753 b851 6853 c4f2 8153
00000120: 5ead 1453 e914 1853 5883 8453 7258 8e53
00000130: b585 0d53 ad96 8b53 2419 6e53 3e57 8d53
00000140: 183a 7353 03ae 8053 0fc4 7253 9ad4 7b52
00000150: 79c6 8853 c6b8 8653 8df6 3b53 984f 7353
00000160: 2641 9153 2094 8353 8860 9653 ea8c 8c53
00000170: b785 8953 8a91 9d53 115a 0853 def1 8153
00000180: 51ce d052 0dd2 9d53 3037 6353 2e11 8753
00000190: 6ba1 9252 d8cf 6553 fa8f 9053 d741 7153
000001a0: e62e 4d53 8c58 9853 4eaf 8f53 208d 9053
000001b0: c766 6853 ab00 1353 7686 4153 8ccd 7d53
000001c0: f914 9653 89fc 9a53 58c7 4853 090c 8053
000001d0: 3376 d853 0079 a653 d3af c453 99a0 ce53
000001e0: 0992 0154 a484 b153 71d2 a753 e142 d253
000001f0: a58a d053 6e3c cb53 eae0 d353 cea7 c453
00000200: e626 a853 b109 bd53 27c4 5753 9415 5c53
00000210: e1b0 c053 00dc cf53 2ae6 4b53 7157 cb53
00000220: 1066 ac53 61e8 cd53 fde5 b053 8f09 bb53
00000230: af3e b053 91d9 b152 d757 c753 6cee c653
00000240: 5fe7 8953 4759 b453 1da0 d653 f392 c253
00000250: 054f de53 0c75 cf53 6baf ca53 f43d e853
00000260: 76db 4853 ffd7 bf53 c304 1953 3914 e953
00000270: cf3f a753 dfca c653 8ff4 d452 9eb0 a953
00000280: bf46 d553 1519 b253 0d66 9653 5b05 e153
00000290: 3855 d353 9668 d153 0e1e a853 e9ce 4f53
000002a0: 3b94 8a53 858c b753 296d d953 5ca0 e053
000002b0: 28cd 8f53 2b65 b953 421d 0444 b3a0 2246
000002c0: 46fe 1a46 a3e7 6346 ae03 9046 53ac 2746
000002d0: e5a6 b948 c49c 4e47 0cff 2347 923f 7b46
000002e0: 2bdc 5547 0c9e a344 8780 a046 cebf 9948
000002f0: 9332 f145 f8f6 6045 fefe 7046 98cf 5748
00000300: 1905 5345 1c2a 8e46 62cb 6f44 12dc 3347
00000310: a9e7 ae47 84bf 3f47 0af4 9f47 1650 8247
00000320: fc3c 4648 b26d 7e47 1b1e 2148 d4ce 6044
00000330: 2db0 2a48 d52f 1947 dcc8 be48 f264 8946
00000340: 50d3 2947 7366 6b48 9ddd cb46 35f6 0246
00000350: cd9e d246 24ba a348 6620 cb48 ab8c 0246
00000360: e325 ab46 913f c446 2909 c847 3c79 df47
00000370: cc89 3f48 5f08 4948 cf1c fd46 22e3 8e47
00000380: e4aa 1f48 2692 6647 1a3f 6a48 015c a244
00000390: ce1a d447 117e 5e48 f410 7048 fc1b ec47
000003a0: 23ee e253 a8bc ae53 97a3 cd53 572b d853
000003b0: 171b 0854 599b ba53 bd61 af53 51e3 db53
000003c0: fc10 da53 2186 d453 4794 dd53 7f9e cd53
000003d0: 6bb8 af53 eaa7 c553 ee66 6153 72e1 6553
000003e0: d37d c953 b978 d953 37ec 5453 32af d453
000003f0: 132d b453 b45f d753 caf0 b853 248e c353
2.838658e+12 5.889121e+12 9.2501783e+11 2.3664103e+12 3.9157875e+12 6.5770876e+12 7.093235e+11 9.396071e+11
8.871338e+11 9.2161343e+11 9.347197e+11 8.9380323e+11 7.091968e+11 1.07216477e+12 7.2944615e+11 6.8432324e+11
1.1525102e+12 1.3139661e+12 7.351077e+11 1.1151901e+12 9.557242e+11 1.1658242e+12 9.838662e+11 1.1228617e+12
9.7516644e+11 4.3240378e+11 1.2004165e+12 1.2933452e+12 7.9629635e+11 1.3802886e+12 1.4333472e+12 1.3744863e+12
1.3463933e+12 1.2155333e+12 1.07273506e+12 1.1827055e+12 5.350506e+11 1.1207767e+12 3.3224606e+11 1.4170456e+12
8.0927706e+11 1.0229852e+12 6.505496e+11 9.427135e+11 1.1141069e+12 8.816867e+11 7.153632e+11 1.459995e+12
1.2706204e+12 9.5227524e+11 8.2167706e+11 3.9290506e+11 6.044095e+11 8.458198e+11 9.824461e+11 1.02391854e+12
6.0389615e+11 8.6169374e+11 1.2275958e+12 8.897513e+11 1.1678709e+12 1.1716581e+12 1.4168324e+12 9.1591003e+11
9.951497e+11 1.2436596e+12 1.2346601e+12 1.2022882e+12 1.2534377e+12 1.1640727e+12 9.978034e+11 1.1162474e+12
6.385638e+11 6.5318584e+11 1.1382785e+12 1.2227384e+12 6.078336e+11 1.1990567e+12 1.022624e+12 1.2141081e+12
1.0446517e+12 1.1053505e+12 1.0426714e+12 2.7040091e+11 1.1748907e+12 1.1572512e+12 8.072953e+11 1.0450124e+12
1.2477265e+12 1.1302517e+12 1.2917292e+12 1.2073191e+12 1.1813078e+12 1.3535032e+12 5.856266e+11 1.1162173e+12
4.484073e+11 1.3556679e+12 9.758835e+11 1.1602176e+12 3.148867e+11 9.8703455e+11 1.2417816e+12 1.0361917e+12
8.812551e+11 1.3086412e+12 1.2342429e+12 1.241686e+12 9.981567e+11 6.313714e+11 8.311846e+11 1.0900752e+12
1.2891939e+12 1.3313236e+12 8.623379e+11 1.0999155e+12 1.859392e+12 1.4299892e+12 1.6895269e+12 1.7749153e+12
2.2260034e+12 1.5248691e+12 1.4415803e+12 1.8061303e+12 1.7913585e+12 1.7457844e+12 1.820023e+12 1.6892578e+12
1.4444142e+12 1.6238228e+12 9.2670886e+11 9.452548e+11 1.6552025e+12 1.7854984e+12 8.757399e+11 1.7466908e+12
1.4808934e+12 1.7687339e+12 1.5195456e+12 1.6066385e+12 1.5139318e+12 3.819297e+11 1.7123444e+12 1.7088072e+12
1.1845846e+12 1.5491839e+12 1.8436185e+12 1.6713781e+12 1.909617e+12 1.7820439e+12 1.7410528e+12 1.9949436e+12
8.626754e+11 1.6479251e+12 6.572099e+11 2.0021333e+12 1.4366601e+12 1.7076143e+12 4.5731804e+11 1.4576252e+12
1.8320299e+12 1.52985e+12 1.2919144e+12 1.932915e+12 1.8153357e+12 1.7988057e+12 1.4441175e+12 8.925296e+11
1.1903848e+12 1.5766731e+12 1.8676786e+12 1.9295261e+12 1.2352445e+12 1.5925325e+12 528.45715 10408.175
9919.568 14585.909 18433.84 10731.081 380215.16 52892.766 41983.047 16079.893
54748.168 1308.939 20544.264 314878.44 7718.322 3599.4355 15423.748 220990.38
3376.3186 18197.055 959.17786 46044.07 89551.32 49087.516 81896.08 66720.17
202995.94 65133.695 164984.42 899.2317 174784.7 39215.832 390726.88 17586.473
43475.312 241049.8 26094.807 8381.552 26959.4 335313.12 416003.2 8355.167
21906.943 25119.783 102418.32 114418.47 196135.19 205857.48 32398.404 73158.266
163499.56 59026.15 239868.4 1298.8751 108597.61 227832.27 245827.81 120887.97
1.9493158e+12 1.5009789e+12 1.7664258e+12 1.8568801e+12 2.3382802e+12 1.6029404e+12 1.5065181e+12 1.8888231e+12
1.8731756e+12 1.8255668e+12 1.9033509e+12 1.7662548e+12 1.5094266e+12 1.6978514e+12 9.680945e+11 9.8732986e+11
1.7307988e+12 1.8680666e+12 9.144961e+11 1.8269447e+12 1.5477007e+12 1.8500472e+12 1.5886275e+12 1.6798067e+12

exp_avg f4 [50]
00000000: dd39 1ec7 0092 ccc5 c67b 15c6 ed26 6901
00000010: 42df 19c6 bb06 0043 4404 e1c5 ca09 f640
00000020: 6a7c 18c6 131a 2922 cd01 16c6 f859 a907
00000030: 8e4a 8cc4 3548 14c6 0152 a136 9825 1bc6
00000040: 67cd 19c6 cb60 8a04 a219 1cc6 7ec8 73c5
00000050: 2e64 18c6 aa19 b3c5 82aa 4c00 57f7 8bc5
00000060: c0cb 16c6 19bc 16c6 d949 e0c5 15d3 15c6
00000070: 7621 18c6 b470 1cc6 be06 16c6 5a7a 15c6
00000080: 6216 18c6 28dc 19c6 9bd8 a232 0f13 5400
00000090: 86f4 660c 7576 18c6 1a2f 16c6 0608 8745
000000a0: 5419 16c6 f4fb 17c6 824c 9004 2ffc 4d27
000000b0: 88c7 3627 ec91 19c6 8398 7ac5 e81f aac5
000000c0: 1956 17c6 703c d201
-40505.863 -6546.25 -9566.943 4.282327e-38 -9847.814 128.02629 -7200.533 7.688695
-9759.104 2.2917574e-18 -9600.45 2.5481173e-34 -1122.3298 -9490.052 4.8077204e-06 -9929.398
-9843.351 3.2532534e-36 -9990.408 -3900.5308 -9753.045 -5731.208 7.040664e-39 -4478.9175
-9650.9375 -9647.024 -7177.231 -9588.7705 -9736.365 -10012.176 -9601.686 -9566.588
-9733.596 -9847.039 1.8957783e-08 7.721019e-39 1.7792139e-31 -9757.614 -9611.775 4321.003
-9606.332 -9726.988 3.39245e-36 2.8586174e-15 2.536574e-15 -9828.48 -4009.532 -5443.9883
-9685.524 7.722854e-38

exp_avg_sq f4 [50]
00000000: b558 6b50 eae5 ef50 fb0e 3151 6301 3c49
00000010: 6f98 3a51 eab2 e04a 9c44 0b51 cb69 214a
00000020: 294b 3951 2f5f 5649 9a4e 3851 fd63 344a
00000030: aec1 b64d fbc1 3051 3ff3 524a 57e3 3e51
00000040: 68bb 3c51 3ffa 0549 d536 3c51 1241 9e50
00000050: eade 3651 b602 6e50 1dc3 9546 c8b5 2b4f
00000060: 619a 3451 9ccb 3451 d4fb 0551 ca51 3351
00000070: 415d 3951 7bf2 3c51 8f78 3651 2144 3251
00000080: cff4 3951 b78d 3951 0263 b749 04c6 d145
00000090: caf6 324a 376e 3351 c55d 3251 d187 844c
000000a0: d672 3351 088e 3851 4395 2249 6cba de4b
000000b0: 633b 2b49 7c0e 3551 c4b8 9250 ec1a dc50
000000c0: 3fee 3851 4236 164a
1.5793837e+10 3.2198578e+10 4.7528784e+10 770070.2 5.0088833e+10 7.362933e+06 3.738447e+10 2.6445948e+06
4.973937e+10 878066.94 4.9474544e+10 2.9555192e+06 3.832683e+08 4.7448044e+10 3.4562078e+06 5.124112e+10
5.0662375e+10 548771.94 5.052336e+10 2.1240517e+10 4.9088995e+10 1.597262e+10 19169.557 2.8808172e+09
4.848026e+10 4.853188e+10 3.5965977e+10 4.813571e+10 4.9758343e+10 5.0720125e+10 4.8981668e+10 4.785295e+10
4.991726e+10 4.980916e+10 1.5023042e+06 6712.752 2.9321465e+06 4.8165515e+10 4.7879836e+10 6.948417e+07
4.817036e+10 4.9541054e+10 665940.2 2.9193432e+07 701366.2 4.8602006e+10 1.9692659e+10 2.9542015e+10
4.9641943e+10 2.4610725e+06

exp_avg f4 [13, 7]
00000000: 0000 0000 0000 0000 0000 0000 0000 0000
00000010: 0000 0000 0000 0000 0000 0000 35f1 3348
00000020: b1b5 00c8 74ec 2b48 cc5e f347 affa 17c8
00000030: 487c fd47 fb49 31c8 dc9d 14c9 c349 6449
00000040: 5314 38c9 f4a8 6dc9 02f9 5749 d79b 75c9
00000050: f13f 2349 5c12 bfc8 b470 1349 cc06 edc8
00000060: 43d2 17c9 0f06 0949 7c2f 17c9 0560 c948
00000070: 6e3a a448 64b1 3ac8 05d1 9248 30be 0f48
00000080: 72b2 5ec8 1275 0548 c959 8ec8 62ea 0e49
00000090: d0f4 17c9 bf21 1949 2612 1449 489e 19c9
000000a0: 1405 1549 dec5 0cc9 789a 76c8 d9c5 a948
000000b0: c2e8 92c8 1264 aec8 52d8 a548 dc42 b7c8
000000c0: 7200 8748 9b6b e2c8 4dd1 d248 27bf eac8
000000d0: 1dc0 cfc8 907d e348 3685 d1c8 344e e448
000000e0: 3d01 17c8 7e12 3848 a9da 2ec8 3cc3 37c8
000000f0: 4907 3848 078b 35c8 c423 1f48 5192 8e45
00000100: f938 4248 bfd8 81c7 eb82 61c8 d288 1448
00000110: 5a91 6fc8 2481 0347 aa5e 1648 a97a 57c8
00000120: 694d 3148 5b77 5648 56e6 49c8 0d6c 6948
00000130: afeb 1bc8 2052 cb48 404f e0c8 8511 de48
00000140: 0546 d748 14d4 dfc8 d2f2 d648 b50f c8c8
00000150: b05a 1dc9 bcd6 5949 f241 3bc9 a698 60c9
00000160: bb22 5249 9b1f 63c9 028c 2749
0.0 0.0 0.0 0.0 0.0 0.0 0.0 184260.83
-131798.77 176049.81 124605.59 -155626.73 129784.56 -181543.92 -608733.75 935068.2
-753989.2 -973455.25 884624.1 -1.00601344e+06 668671.06 -391314.88 603915.25 -485430.38
-621860.2 561248.94 -619255.75 412416.16 336339.44 -191173.56 300680.16 147192.75
-228041.78 136660.28 -291534.28 585382.1 -622413.0 627227.94 606498.4 -629220.5
610385.25 -576605.9 -252521.88 347694.78 -300870.06 -357152.56 339650.56 -375318.88
276483.56 -463708.84 431754.4 -480761.22 -425472.9 465900.5 -429097.7 467569.62
-154628.95 188489.97 -179050.64 -188172.94 188445.14 -185900.11 162959.06 4562.2896
198883.89 -66481.49 -230923.67 152099.28 -245317.4 33665.14 153978.66 -220650.64
181557.64 219613.42 -206745.34 239024.2 -159662.73 416401.0 -459386.0 454796.16
440880.16 -458400.62 440214.56 -409725.66 -644523.0 892267.75 -767007.1 -919946.4
860715.7 -930297.7 686272.1

exp_avg_sq f4 [13, 7]
00000000: 0000 0000 0000 0000 0000 0000 0000 0000
00000010: 0000 0000 0000 0000 0000 0000 d894 af54
00000020: 0e03 d454 08f8 c754 a5d8 d054 016d d254
00000030: 0717 d154 a366 af54 d701 8954 25ac a954
00000040: 56b0 9d54 ffb6 a754 079e a754 d035 a854
00000050: f165 8954 a2bb 0e55 a1cc 2d55 f614 2355
00000060: 3e40 2b55 8a3a 2c55 7b51 2b55 9ac9 0e55
00000070: 1556 b954 4597 e254 c84a d454 cf6e df54
00000080: 2d7f e054 f3d8 df54 9888 b954 00f5 be54
00000090: 09d8 ea54 2c62 db54 4497 e754 127a e854
000000a0: fcf5 e754 f62b bf54 6bc9 1c55 6614 4155
000000b0: 55fc 3355 ddbc 3e55 9aec 3e55 e035 3f55
000000c0: 5327 1d55 dca4 3955 fa39 6455 6ce7 5455
000000d0: 6770 6155 88c4 6155 6de5 6155 b022 3a55
000000e0: 5e49 2255 1d9a 4655 7ddf 3955 33f0 4355
000000f0: 4fa5 4455 ce36 4455 da73 2255 ac91 2355
00000100: 352a 4a55 a417 3c55 80c5 4755 a3d8 4755
00000110: 5c4a 4855 a438 2455 45fa 3455 3bf8 5e55
00000120: fac3 4f55 4838 5c55 2483 5c55 56c4 5c55
00000130: c495 3555 9c17 3155 3a83 5855 c65d 4a55
00000140: 6fd0 5555 f73d 5655 224e 5655 4577 3155
00000150: d11f 0255 c737 2255 1efc 1555 ceba 2055
00000160: 3ffb 1f55 598f 2155 d3aa 0255
0.0 0.0 0.0 0.0 0.0 0.0 0.0 6.0329317e+12
7.2846745e+12 6.870878e+12 7.175903e+12 7.2301753e+12 7.184276e+12 6.02673e+12 4.707531e+12 5.8299006e+12
5.4181463e+12 5.7626376e+12 5.7592864e+12 5.7796586e+12 4.7209665e+12 9.808533e+12 1.1943399e+13 1.1206901e+13
1.1768275e+13 1.1835464e+13 1.1772903e+13 9.812283e+12 6.3681053e+12 7.785604e+12 7.2943015e+12 7.677094e+12
7.7136506e+12 7.69134e+12 6.374885e+12 6.5612336e+12 8.0691745e+12 7.537959e+12 7.957402e+12 7.9878433e+12
7.970115e+12 6.5686104e+12 1.0774306e+13 1.3268335e+13 1.2368521e+13 1.3107398e+13 1.3120213e+13 1.3139882e+13
1.0799514e+13 1.2757357e+13 1.5683604e+13 1.4630651e+13 1.5492055e+13 1.5514638e+13 1.5523468e+13 1.2791134e+13
1.115225e+13 1.3647826e+13 1.2773095e+13 1.3464776e+13 1.3513392e+13 1.3483729e+13 1.1163654e+13 1.1240378e+13
1.3892664e+13 1.2925608e+13 1.3728192e+13 1.3733329e+13 1.3763856e+13 1.1285199e+13 1.2436687e+13 1.5322358e+13
1.4277539e+13 1.5133393e+13 1.5153488e+13 1.5170988e+13 1.2478428e+13 1.2169685e+13 1.4878633e+13 1.3906506e+13
1.46932e+13 1.4722602e+13 1.4726942e+13 1.2195364e+13 8.942073e+12 1.1147528e+13 1.0306879e+13 1.1045261e+13
1.099384e+13 1.1102315e+13 8.979387e+12
