saved_models/regression-3_epoch=49-valid_loss=39872221184.00.ckpt (torch, 90767 bytes, 29 tensors)

_backbone.linear_layers.0.weight f4 [50, 58]
0	0xbce13d2b	-0.027494987
1	0x3e5aba1d	0.21360059
2	0xbde2c74a	-0.110731676
3	0x3d8fe3e9	0.07025892
4	0x3e328300	0.17432785
5	0xbeb743c9	-0.35793903
6	0x3e3f559c	0.18685001
7	0xbe8cdcc4	-0.2751218
8	0x3dbfebad	0.093711235
9	0xbf1e82e1	-0.61918455
10	0xbe54f51f	-0.20796631
11	0x3c8769dc	0.01652997
12	0xbdf37cb0	-0.11889017
13	0x3ed41f56	0.41430157
14	0xbe94003b	-0.28906426
15	0xbe42162b	-0.18953769
16	0x3e577cdd	0.21043725
17	0x3e96f522	0.29483896
18	0xbe80a0df	-0.25122735
19	0xbda25c10	-0.07927716
20	0xbddde122	-0.10833956
21	0xbb9f923f	-0.004869729
22	0xbd10809b	-0.035278898
23	0x3ce649d7	0.028111381
24	0x3f014f1f	0.50511354
25	0xbebf0b4f	-0.37313315
26	0xbe8e3378	-0.27773643
27	0x3d9fd407	0.07804113
28	0x3e5cc8fa	0.21561041
29	0x3e26c32f	0.16285394
30	0xbe09386e	-0.13400432
31	0xbe4e45b1	-0.20143773
32	0x3a5ede0b	0.0008501715
33	0x3a4d3ea4	0.00078294636
34	0xbda23c08	-0.07921606
35	0x3e0dde87	0.13854419
36	0x3e0eb2d2	0.13935402
37	0x3e4890b1	0.19586445
38	0xbed5bca8	-0.41745496
39	0x3d83e234	0.06439629
40	0x3e4a471e	0.19753692
41	0xbea6c964	-0.32575524
42	0xbe5bea39	-0.21476068
43	0x3e2e3ad8	0.17014635
44	0xbea2cc71	-0.317966
45	0x3e38d208	0.1804887
46	0xbea5fa02	-0.32417303
47	0xbe820312	-0.25392967
48	0xbd9ef463	-0.07761457
49	0xbe4925ba	-0.19643298
50	0xbc9fc304	-0.01950217
51	0x3d29175d	0.041282047
52	0xbdec9a50	-0.1155287
53	0x3e15bd74	0.14623052
54	0xbe36557e	-0.1780605
55	0xbe96016b	-0.29297957
56	0x3de903ae	0.11377655
57	0xbe5b9076	-0.21441826
58	0x3ccb9a5b	0.024853876
59	0x3e84fcb2	0.2597404
60	0xbe0fe429	-0.1405188
61	0x3e0cd4e3	0.13753085
62	0x3ebe3c5d	0.3715543
63	0xbcb16d6d	-0.021658624
64	0x3dd13e25	0.10216931
65	0x3da82dd1	0.08211864
66	0xbdd913e7	-0.10599499
67	0xbef1f423	-0.47256574
68	0xbe0156ef	-0.12630819
69	0x3aee0897	0.0018160519
70	0x3dc0b2a2	0.094090715
71	0x3e782c02	0.24235538
72	0xbc8f5208	-0.01749517
73	0xbe0f9a67	-0.14023744
74	0x3e1cb1c0	0.15302181
75	0xbd99f7f6	-0.07517998
76	0xbe87cd36	-0.2652375
77	0xbd80b121	-0.06283785
78	0x3d8ed0e6	0.06973438
79	0x3d947abf	0.072499745
80	0x3e00f37e	0.12592885
81	0xbd7dfc59	-0.062008236
82	0x3d8c7235	0.06857721
83	0xbe29853c	-0.16554731
84	0xbe8d2e01	-0.2757416
85	0xbccdb0b5	-0.025108675
86	0x3dd37d39	0.10326619
87	0x3ee2c4dc	0.44290817
88	0xbdc041a1	-0.09387518
89	0xbb899503	-0.004198672
90	0x3d289216	0.041154943
91	0x3bd4e1ea	0.0064966576
92	0xbcdf7dbc	-0.027281635
93	0xbb57b72e	-0.003291558
94	0x3e42e1c4	0.19031435
95	0x3d3a6506	0.0455065
96	0xbe6b8cc2	-0.23002914
97	0x3d22ea1a	0.039774038
98	0xbdbb1c0a	-0.091362074
99	0x3dac63a8	0.084174454
100	0x3e0916e1	0.13387634
101	0x3e494ebf	0.19658946
102	0x3e276377	0.16346537
103	0xbe13f95a	-0.14450589
104	0xbded1d27	-0.11577826
105	0xbdd1d0fc	-0.10244939
106	0x3e9ad464	0.30240166
107	0xbde0ad10	-0.10970509
108	0x3db5a549	0.08869416
109	0x3e6d737f	0.2318859
110	0xbd47853d	-0.04871105
111	0x3e6763f7	0.22596727
112	0xbed056a9	-0.40691116
113	0x3d43d6aa	0.04781214
114	0x3dab2f75	0.08358661
115	0xbcfa80da	-0.03057902
116	0xc0b01099	-5.502026
117	0xc09c5897	-4.885814
118	0x40a8fa84	5.2805805
119	0x40a1ceb9	5.0564847
120	0x40ab7419	5.357922
121	0x40aaff22	5.343644
122	0xc0b100b6	-5.531337
123	0x40a673ac	5.20162
124	0xc0aabe4b	-5.335729
125	0x40a7e34d	5.2464967
126	0x40aaf5fe	5.3425283
127	0x40ad2faa	5.4120684
128	0xc09f6338	-4.9808617
129	0xc0a1bfaa	-5.0546465
130	0x40a3b5b3	5.11593
131	0xc0a78598	-5.235058
132	0xc0a5f4e6	-5.186145
133	0x40a2eedf	5.091659
134	0xc0a72e4e	-5.2244024
135	0xc0a92931	-5.2862782
136	0x40a0eb21	5.0287023
137	0x40a285c2	5.078828
138	0xc0a15445	-5.041537
139	0x40a59069	5.173878
140	0x40a59ce3	5.175401
141	0x40a46f09	5.138554
142	0x40a7921e	5.2365866
143	0xc0b101bb	-5.5314612
144	0x40a8fb10	5.2806473
145	0xc09e0eaf	-4.9392924
146	0x40991953	4.7843413
147	0x40acf217	5.404552
148	0x409bb8fb	4.8663306
149	0xc0a05f21	-5.0116124
150	0x40a0d99d	5.026564
151	0xc09a9152	-4.8302393
152	0xc09b2b7f	-4.8490596
153	0xc0a60ba9	-5.1889234
154	0x40a6bb8b	5.2103934
155	0xc09cb92c	-4.897604
156	0x40a0a6e8	5.0203743
157	0x40a6bada	5.210309
158	0xc0a58ae4	-5.1732044
159	0x40a0f0c0	5.0293884
160	0x40a0b828	5.02248
161	0xc09d0c75	-4.9077706
162	0x409ec74f	4.9618297
163	0x40a31b81	5.0971074
164	0xc0a6c5ba	-5.2116365
165	0x40a3d94b	5.120275
166	0x40a9d0f7	5.3067584
167	0xc0aafca1	-5.3433385
168	0xc0a3ccf6	-5.1187696
169	0xc0a60035	-5.1875253
170	0x40a03da0	5.0075226
171	0x40a492c3	5.1429152
172	0xc0abe0a0	-5.37117
173	0x409e6545	4.949862
174	0xc09d591b	-4.917127
175	0xc0a91c7e	-5.284728
176	0x40a5c5e8	5.1804085
177	0x40a58f0a	5.173711
178	0x40ac434c	5.383215
179	0x40a84df7	5.259517
180	0xc0a27d7e	-5.077819
181	0x40adf75b	5.4364448
182	0xc09eb50f	-4.959602
183	0x40a8b1a5	5.271685
184	0x409d854e	4.9225225
185	0x40a25e40	5.074005
186	0xc0addfd7	-5.433574
187	0xc0a11217	-5.033458
188	0x40a5bc87	5.1792636
189	0xc0ac4849	-5.383824
190	0xc0abe57b	-5.3717628
191	0x409ac125	4.836077
192	0xc09567a3	-4.668901
193	0xc0b1a428	-5.5512886
194	0x40ad79ad	5.421103
195	0x40a2dd18	5.089489
196	0xc0a60a17	-5.1887317
197	0x40a67f20	5.203018
198	0x40a03f21	5.007706
199	0x40ab5fcf	5.3554454
200	0x40a3dad9	5.120465
201	0xc0aaa0ff	-5.332153
202	0x40b3f561	5.6237035
203	0xc0967b76	-4.702571
204	0x40a4e110	5.1524734
205	0x40a6c416	5.2114363
206	0x409cec3b	4.9038367
207	0xc09b9b53	-4.8627105
208	0x4093aaf9	4.6146207
209	0xc0a45cd3	-5.136331
210	0xc09ce0db	-4.902448
211	0xc0a7f355	-5.2484536
212	0x40a53e67	5.1638675
213	0xc0a1d913	-5.0577483
214	0x40adc286	5.4299955
215	0x40a0ac7b	5.0210547
216	0xc0a3ebdd	-5.122542
217	0x40aee77c	5.4657574
218	0x40a8b253	5.271768
219	0xc0a484fa	-5.1412325
220	0x40ab8383	5.3598037
221	0x40a83626	5.25661
222	0xc0abf086	-5.373111
223	0x409f801e	4.9843893
224	0x40a57abf	5.1712337
225	0xc0a22ada	-5.067731
226	0xc0a87e22	-5.265397
227	0xc0a9b2b2	-5.3030634
228	0x409db771	4.9286427
229	0x409f58c8	4.9795876
230	0xc0aa20c9	-5.316502
231	0x408f29fe	4.473876
232	0xc0ab7adf	-5.358749
233	0xc0a6ea36	-5.21609
234	0x40a5be95	5.1795144
235	0x40ac0f87	5.3768954
236	0x409b92b4	4.861658
237	0x40ad2f22	5.4120035
238	0xc0af181f	-5.4716945
239	0x40a973e0	5.295395
240	0xc0a64ec0	-5.197113
241	0x40ad994b	5.4249625
242	0x40a3304b	5.099645
243	0x40ac794f	5.389808
244	0xc0b15729	-5.5418897
245	0xc0ad09f1	-5.4074636
246	0x40a54c98	5.1656
247	0xc0a00b6f	-5.0013957
248	0xc0adc762	-5.4305887
249	0x40a75f10	5.2303543
250	0xc0a42f77	-5.130794
251	0xc0aa8ac7	-5.3294406
252	0x409d7696	4.920726
253	0x40a21501	5.065064
254	0xc0a04ced	-5.0093904
255	0x40a9000c	5.2812557

_backbone.linear_layers.0.bias f4 [50]
0	0xbe3543e0	-0.17701674
1	0xbdd6da69	-0.10490877
2	0x408859f5	4.260981
3	0x408ba5cc	4.363989
4	0x40860742	4.188386
5	0x40896ef7	4.2947955
6	0x4085c75c	4.180586
7	0x408fa757	4.489177
8	0x408ef094	4.4668674
9	0x408fdc95	4.4956765
10	0x4085e661	4.1843724
11	0x408ce131	4.402489
12	0xbdcaaf17	-0.09896677
13	0x40848de0	4.1423187
14	0x408be95b	4.372236
15	0x40888afc	4.266966
16	0x408b68a6	4.3565245
17	0x3b5b2dda	0.0033444078
18	0xbd6c688c	-0.05771689
19	0xbd73ccb4	-0.059521392
20	0x409123c4	4.535616
21	0x408ed18a	4.4630785
22	0x4088ced0	4.2752457
23	0xbba21a39	-0.0049469736
24	0x40859c31	4.1753163
25	0x408d18a7	4.4092593
26	0xbdfaa7e0	-0.12239051
27	0xbb89ffe8	-0.0042114146
28	0xbcd80904	-0.026371486
29	0x409179c9	4.5461164
30	0x408d3e33	4.4138427
31	0xbdeacfdd	-0.11465428
32	0xbe28eeae	-0.16497299
33	0xbb9ffb8a	-0.0048822807
34	0x40884b1b	4.259168
35	0x408d237f	4.410583
36	0x3c634d8c	0.013873469
37	0x40897b5c	4.2963085
38	0x408b949c	4.361891
39	0x40891849	4.2842145
40	0x408573fe	4.170409
41	0x408dd85a	4.43266
42	0x4084271e	4.129775
43	0x40902ab4	4.505213
44	0x3c08f415	0.008358975
45	0x408c5935	4.3858895
46	0xbdd1cdf9	-0.10244364
47	0xbc7399ee	-0.014868243
48	0x408f1597	4.4713855
49	0x40908fe6	4.5175657

_embedding_layer.cat_embedding_layers.0.weight f4 [13, 7]
0	0xbf8902d5	-1.0703989
1	0xbe8b27f4	-0.2717892
2	0x3f37d6db	0.7181222
3	0xbf74e249	-0.95657784
4	0x3dbf9343	0.0935426
5	0x3f4c4548	0.79793215
6	0xbf1b4c6a	-0.60663474
7	0xc061a168	-3.5254765
8	0x4090eed7	4.5291553
9	0xc08d3a7d	-4.4133897
10	0x409f820e	4.984626
11	0x40936470	4.6060104
12	0x40697a07	3.648073
13	0xc0cac819	-6.336926
14	0xc0a683de	-5.203597
15	0x4088b5f5	4.2722116
16	0xc0ba2068	-5.816456
17	0x40d8ebbe	6.778777
18	0x4099e5f8	4.8093224
19	0x40c46f7e	6.13861
20	0xc094bb79	-4.647885
21	0xc0c29044	-6.0801105
22	0x40ee657e	7.449889
23	0xc085cc67	-4.1812015
24	0x4087a8fb	4.2393775
25	0x40dca493	6.8950896
26	0x40d3acd5	6.6148477
27	0xc0d66fa5	-6.7011285
28	0xc0660bb6	-3.5944648
29	0x409dfb48	4.936924
30	0xc0c6d148	-6.213047
31	0x40b00cd9	5.5015683
32	0x40cb3ff3	6.3515563
33	0x407519fa	3.8297105
34	0xc0d206ce	-6.5633307
35	0xc09c8644	-4.89139
36	0x40a7750c	5.233038
37	0xc0a83c61	-5.2573705
38	0x40c2d303	6.0882583
39	0x40b88e88	5.767399
40	0x40bb95e2	5.8620462
41	0xc0a6d50b	-5.213506
42	0xc0dae9c9	-6.841038
43	0x40c2e34b	6.0902457
44	0xc0a6e392	-5.2152796
45	0x4095a013	4.6757903
46	0x40d179e7	6.5461307
47	0x40b6dd6d	5.7145295
48	0xc0b80664	-5.75078
49	0xc048ab4e	-3.1354556
50	0x40b27bdc	5.5776196
51	0xc0ba7a9f	-5.8274684
52	0x40ba7f81	5.8280644
53	0x40abde32	5.3708735
54	0x40561a68	3.3453617
55	0xc0a5df34	-5.1834965
56	0xc08e2dfe	-4.4431143
57	0x40c56da9	6.1696362
58	0xc08ffcaa	-4.499593
59	0x409f3e10	4.976326
60	0x40a23b23	5.069719
61	0x4088e2e0	4.2776947
62	0xc091a8d9	-4.5518613
63	0xc0dfc98f	-6.9933543
64	0x40bbbd38	5.866848
65	0xc084c28d	-4.148749
66	0x40c4afc3	6.1464553
67	0x40c5656e	6.1686316
68	0x40c61929	6.1905713
69	0xc09c627b	-4.8870215
70	0xc0dc4aea	-6.884145
71	0x408aa41c	4.332533
72	0xc0cfbc01	-6.4916997
73	0x40b7ad01	5.7398686
74	0x407b261b	3.9242008
75	0x40c7a2df	6.2386317
76	0xc0bc25fb	-5.8796363
77	0xc0aeddea	-5.464589
78	0x409d036b	4.906667
79	0xc0bda506	-5.9263945
80	0x40b12510	5.535774
81	0x403f24ca	2.9866204
82	0x40d8bdef	6.7731853
83	0xc0780760	-3.8754501
84	0xc0bfa996	-5.9894514
85	0x40a87556	5.264323
86	0xc0acc759	-5.3993344
87	0x40b5f160	5.6857147
88	0x40d635f9	6.6940885
89	0x40ba9f81	5.8319707
90	0xc0d3e674	-6.6218815

_embedding_layer.cat_embedding_layers.1.weight f4 [27, 14]
0	0xbf6f6e20	-0.9352741
1	0x3f56e273	0.83939284
2	0x3efd6ca7	0.49496958
3	0xbf598f72	-0.84984505
4	0xbe176a58	-0.1478666
5	0x3f9dadef	1.2318705
6	0xbe23652e	-0.15956566
7	0x3f4152c9	0.75516945
8	0x3df3a744	0.11897138
9	0x3f21fe70	0.63278866
10	0xbfc922eb	-1.5713781
11	0xbdfb3fb4	-0.1226801
12	0x3f47185c	0.77771544
13	0x3efa2da2	0.4886294
14	0xc050b7e2	-3.2612233
15	0x40ca131b	6.314832
16	0xc08b3a1f	-4.350845
17	0xc087ce7d	-4.243956
18	0x40c8b9ef	6.272697
19	0xc0e0063c	-7.000761
20	0xc0ba6834	-5.82522
21	0x40942130	4.629051
22	0x40b26bce	5.5756598
23	0xc0986be0	-4.7631683
24	0x4086c148	4.211094
25	0x4065bc1f	3.589607
26	0x40a7b7fc	5.241209
27	0x40bb9a3b	5.862577
28	0xc0c2d0b8	-6.0879784
29	0x40b1cefa	5.5565157
30	0xc0a9c614	-5.3054295
31	0xc09cdc84	-4.9019184
32	0x40b71e49	5.722447
33	0xc0abe4c8	-5.3716774
34	0xc0ce59cb	-6.448461
35	0x40b78c33	5.735864
36	0x40b228d7	5.5674853
37	0xc0c41c9f	-6.128494
38	0x4104cbcb	8.299754
39	0x40edd9c0	7.432831
40	0x409036a9	4.5066724
41	0x40acf72e	5.4051733
42	0xc0a6fd9d	-5.2184587
43	0x40b122e3	5.5355086
44	0xc0bc808d	-5.890692
45	0xc0cd697d	-6.419127
46	0x406f7b5f	3.741905
47	0xc0a594e2	-5.174424
48	0xc0b07bd1	-5.5151143
49	0x40bfa736	5.9891615
50	0x409cb566	4.8971434
51	0xc0b412f5	-5.627314
52	0x40d08f02	6.517457
53	0x40d0022c	6.500265
54	0x40869c82	4.206605
55	0x40c2c0b0	6.0860214
56	0xc0c2db7d	-6.089293
57	0x40a51bb0	5.15963
58	0xc0a9d7c1	-5.307587
59	0xc09254cc	-4.572851
60	0x40c17b7e	6.0463247
61	0xc0d51f27	-6.660053
62	0xc0849409	-4.1430707
63	0x40b9f471	5.811089
64	0x40d60fd6	6.689433
65	0xc09facf3	-4.989862
66	0x40b860ae	5.7618017
67	0x40a39bb0	5.112755
68	0x408db479	4.4282804
69	0x40c3c059	6.11723
70	0xc0cc1a69	-6.378224
71	0x40b32b74	5.5990543
72	0xc0cabf45	-6.3358483
73	0xc0d72236	-6.722926
74	0x409af8e3	4.8428817
75	0xc0aecefc	-5.4627666
76	0xc0ccc3a8	-6.398884
77	0x40a8b190	5.271675
78	0x40ac95af	5.393272
79	0xc0c735f4	-6.225336
80	0x40d71bbc	6.7221355
81	0x40a83b9d	5.257277
82	0x40e9f6fb	7.311399
83	0x40c1aba8	6.052204
84	0xc0b62096	-5.691478
85	0x40dca479	6.895077
86	0xc0b35225	-5.6037774
87	0xc0aa3eeb	-5.3201804
88	0x40c1e448	6.0591164
89	0xc0a38ca1	-5.1109166
90	0xc09b132a	-4.8460894
91	0x408e1a93	4.440744
92	0x409c4bc6	4.8842497
93	0xc0cabd17	-6.3355823
94	0x409c5480	4.885315
95	0x40de110d	6.9395814
96	0x40b24b90	5.571724
97	0x40dca3ff	6.895019
98	0xc09382c0	-4.6097107
99	0x40a65d23	5.198869
100	0xc0b4fae1	-5.655625
101	0xc09b9732	-4.8622065
102	0x4072d783	3.7944038
103	0xc0e25476	-7.07281
104	0xc0bdd871	-5.932671
105	0x40b9d2cb	5.8069816
106	0x40a6742a	5.20168
107	0xc0a17496	-5.0454817
108	0x409c343f	4.8813777
109	0x40aa2bb9	5.317837
110	0x408481bc	4.1408367
111	0x40bf9424	5.9868336
112	0xc0cf6bd6	-6.4819136
113	0x40bf1ddf	5.9723964
114	0xc06d12c9	-3.7042716
115	0xc05f5cb4	-3.4900331
116	0x40802380	4.0043335
117	0xc0812c0d	-4.0366273
118	0xc0bf0056	-5.968791
119	0x409f7e56	4.984172
120	0x40b11cf0	5.5347824
121	0xc087792d	-4.233542
122	0x40c2f7a1	6.092728
123	0x40b72fc5	5.7245812
124	0x40c534f7	6.1627154
125	0x40c5a3d7	6.17625
126	0xc0b4f58e	-5.654975
127	0x409ebdbf	4.9606624
128	0xc06d2885	-3.705598
129	0xc0a4464e	-5.133582
130	0x40dd1469	6.9087415
131	0xc075dde8	-3.841669
132	0xc0e1aca0	-7.0523224
133	0x409ceb95	4.9037576
134	0x40ca20d3	6.316507
135	0xc0c4f5e2	-6.155015
136	0x4087f24d	4.2483277
137	0x40a9c695	5.305491
138	0x4074ad42	3.8230748
139	0x40953ae0	4.663437
140	0xc0ca2176	-6.3165846
141	0x40dd50b7	6.916103
142	0xc091b892	-4.5537806
143	0xc0a41710	-5.1278152
144	0x40d37a3d	6.6086717
145	0xc0ab47f3	-5.352533
146	0xc0c8a6a5	-6.2703424
147	0x40c3c27f	6.117492
148	0x40cbcf79	6.3690763
149	0xc0906059	-4.511761
150	0x4076a0b9	3.8535597
151	0x408815fc	4.2526836
152	0x40e60edd	7.1893144
153	0x4082a336	4.082423
154	0xc0af44d7	-5.4771533
155	0x40a8555f	5.2604213
156	0xc0bbf955	-5.874186
157	0xc0d9273a	-6.7860384
158	0x40a51e3e	5.1599417
159	0xc08e3a3f	-4.44461
160	0xc0856977	-4.169124
161	0x4091f7b9	4.5614896
162	0x40c14187	6.039249
163	0xc0858776	-4.1727858
164	0x40809df1	4.01928
165	0x40c65509	6.1978803
166	0x40893f38	4.288967
167	0x40b338c4	5.6006794
168	0xc0ee5714	-7.4481297
169	0x41095e39	8.585504
170	0xc088c224	-4.273699
171	0xc0f56698	-7.6687737
172	0x40cb91d3	6.361551
173	0xc0d24173	-6.5704894
174	0xc0989047	-4.767612
175	0x40ccb0f2	6.3966
176	0x40aa2ef7	5.318233
177	0xc0c8c55b	-6.2740912
178	0x40c6ca5f	6.2122035
179	0x40b4ac25	5.6460137
180	0x40a0ede9	5.029042
181	0x408307aa	4.0946856
182	0xc050e246	-3.2638106
183	0x40bc36ad	5.8816743
184	0xc0830bdd	-4.095198
185	0xc0b19b1e	-5.550185
186	0x40866886	4.200259
187	0xc0b1990d	-5.549933
188	0xc09fe7ff	-4.99707
189	0x40afb1cc	5.4904537
190	0x40d8ae2c	6.771261
191	0xc0a6f56b	-5.2174582
192	0x40a29b62	5.0814676
193	0x40bec77a	5.96185
194	0x40aba964	5.3644276
195	0x4064cb23	3.5748985
196	0xc09e4d50	-4.9469376
197	0x40aab007	5.3339877
198	0xc07018f7	-3.7515237
199	0xc0a44d0e	-5.134406
200	0x40e0354a	7.006505
201	0xc0cda398	-6.42622
202	0xc0a96fcc	-5.294897
203	0x4099df53	4.8085113
204	0x40bd0ea9	5.9080396
205	0xc07ffa23	-3.9996421
206	0x40b61c7e	5.690978
207	0x40cb859f	6.360061
208	0x40a64320	5.195694
209	0x40bef7f9	5.96777
210	0xc0967daf	-4.702842
211	0x4080ed48	4.028965
212	0xc0b5879b	-5.6728034
213	0xc0bbb8cd	-5.8663087
214	0x40ab4496	5.3521223
215	0xc0abd176	-5.369319
216	0xc0b39538	-5.611965
217	0x408ea284	4.4573383
218	0x40a951e0	5.2912445
219	0xc08236df	-4.069198
220	0x409edd5e	4.9645224
221	0x40a51991	5.159371
222	0x40969f0f	4.7069163
223	0x408b7f13	4.359262
224	0xc0c2872d	-6.079001
225	0x404c31de	3.1905437
226	0xc03911bb	-2.8917072
227	0xc099ecba	-4.8101473
228	0x404a152c	3.1575422
229	0xc0b296d4	-5.5809116
230	0xc08f7b79	-4.4838223
231	0x40b4797d	5.63983
232	0x40d07b0e	6.5150213
233	0xc0ab5176	-5.353694
234	0x40ad71ab	5.4201255
235	0x40c91ef3	6.285028
236	0x40b59fa1	5.675736
237	0x409567ed	4.6689363
238	0xc0c425a9	-6.129597
239	0x40c58328	6.1722603
240	0xc0bb69ff	-5.856689
241	0xc078da8f	-3.8883398
242	0x4099e94a	4.8097277
243	0xc07caf64	-3.948205
244	0xc0c1d448	-6.0571632
245	0x40b36230	5.605736
246	0x40a76275	5.2307687
247	0xc0a2df82	-5.0897837
248	0x40d6224a	6.6916857
249	0x4096a080	4.7070923
250	0x409d72e0	4.920273
251	0x40af1613	5.4714446
252	0xc0b373ca	-5.6078844
253	0x4087773d	4.2333055
254	0xc0965098	-4.697338
255	0xc08ef774	-4.4677067

_embedding_layer.cat_embedding_layers.2.weight f4 [44, 22]
0	0x3f968e2c	1.1762137
1	0xbfdded29	-1.7338
2	0xbf985793	-1.1901726
3	0xbfa8b786	-1.3181007
4	0x3fa3f768	1.2809877
5	0xbf94a3a7	-1.1612443
6	0xbe8a2d35	-0.26987615
7	0x3eac6891	0.33673528
8	0xbdfecee6	-0.124418065
9	0x3cfe605e	0.03105181
10	0xbf423fe1	-0.7587872
11	0xbf5dde99	-0.8666778
12	0xbd2b06c4	-0.0417545
13	0x3be417db	0.0069608516
14	0x3e1d0f4c	0.15337867
15	0x4019453a	2.3948503
16	0xbfa49a11	-1.2859517
17	0x3f745f4f	0.9545793
18	0x3e01e456	0.1268476
19	0x3fa7a78a	1.3098004
20	0x3fa61816	1.29761
21	0x3f8ce874	1.1008439
22	0xc05ea476	-3.478788
23	0x40337bce	2.8044314
24	0xc08a5836	-4.323268
25	0x40a24388	5.0707436
26	0x4053f5b9	3.3118727
27	0x408e394c	4.4444942
28	0xc0502df2	-3.2528043
29	0x409ce00c	4.9023495
30	0xc00801e2	-2.125115
31	0xc0773a92	-3.8629498
32	0xc03099bb	-2.759383
33	0x40999f75	4.800715
34	0xbfe64b8e	-1.7991807
35	0x408ba75a	4.3641787
36	0x408eabcb	4.458471
37	0xc0a1a063	-5.0508285
38	0x4050fdbe	3.2654872
39	0x4022a0a7	2.5410554
40	0xc00801d2	-2.125111
41	0x406a589d	3.6616585
42	0x408052e8	4.0101204
43	0xc036f422	-2.8586507
44	0xc0369868	-2.8530521
45	0x40cdd33a	6.4320345
46	0xc0d85850	-6.7607803
47	0x4082c057	4.085979
48	0x40a8a487	5.270084
49	0x40eeb7c0	7.4599304
50	0xc0d1ae27	-6.552509
51	0x40ca23fd	6.316893
52	0xc097cb2a	-4.7435503
53	0xc0b0edc8	-5.529026
54	0xc0b9ff55	-5.8124185
55	0x40af52a5	5.4788384
56	0xc09ab48b	-4.834539
57	0x406992a1	3.6495745
58	0x40e20cbb	7.064054
59	0xc0802a7b	-4.0051856
60	0x4098f331	4.7796865
61	0x40474d2b	3.114085
62	0xc0c207ad	-6.063437
63	0x407ecb7e	3.9811702
64	0x405e7619	3.475958
65	0xc087fc72	-4.249566
66	0xc09f8406	-4.984866
67	0x40747258	3.819479
68	0xc0bad8d0	-5.8389664
69	0x40a4d64b	5.151159
70	0x40b979d8	5.7961235
71	0x40a1f3ed	5.061026
72	0xc0b634c6	-5.693942
73	0x4090d505	4.5260034
74	0xc0c48c84	-6.142153
75	0xc0dc19c5	-6.8781457
76	0xc0c81805	-6.252932
77	0x40b4644b	5.637243
78	0xc0ab0f68	-5.3456306
79	0x40979316	4.736705
80	0x40b39410	5.611824
81	0xc0b442c0	-5.633148
82	0x40ac2d7a	5.3805513
83	0x40a180d7	5.0469775
84	0xc0cc615c	-6.3868847
85	0x409595c9	4.6745343
86	0x40a07489	5.0142255
87	0xc0997f7e	-4.796813
88	0xc097267d	-4.7234483
89	0x4097df9f	4.7460475
90	0xc0af31b4	-5.4748173
91	0x4088d4e9	4.27599
92	0x40d98ae1	6.798203
93	0x40c844d5	6.2584023
94	0xc0bfe031	-5.996117
95	0x4075d827	3.841318
96	0xc08d9ce7	-4.425403
97	0xc0984163	-4.757982
98	0xc0c4b1d7	-6.146709
99	0x40a3864a	5.1101427
100	0xc0b25b7f	-5.573669
101	0x409a9cab	4.8316245
102	0x40bb9935	5.862452
103	0xc08dd2e8	-4.4319954
104	0x408cd340	4.4007874
105	0x408110f0	4.0333176
106	0xc09661b4	-4.6994267
107	0x40c8658a	6.262395
108	0x40a41263	5.1272445
109	0xc09ecb9f	-4.962356
110	0xc047c154	-3.1211748
111	0x40a9db64	5.308031
112	0xc0cdc519	-6.43031
113	0x40ae3198	5.443554
114	0x4096ba7e	4.710265
115	0x4085a09e	4.1758566
116	0xc0b90356	-5.781657
117	0x40998d19	4.798474
118	0xc09f65ef	-4.981193
119	0xc070a4f0	-3.760067
120	0xc0b006c3	-5.5008254
121	0x4085a2bf	4.1761165
122	0xc0a94aee	-5.2903967
123	0x40beb30c	5.9593563
124	0x4082cd5e	4.087569
125	0xc005331e	-2.081245
126	0x408c0767	4.3759036
127	0x40c6b429	6.209492
128	0xc0b8aa98	-5.7708244
129	0x40a6c5b7	5.211635
130	0x40b78c08	5.7358437
131	0xc0aa78d0	-5.3272476
132	0xc0a33bb1	-5.1010365
133	0x4094ff18	4.6561394
134	0xc0a451ed	-5.1350007
135	0x409ef073	4.9668517
136	0x40b51cf1	5.659783
137	0x41028dca	8.159616
138	0xc096d4e7	-4.713489
139	0x40bd8d3c	5.9234905
140	0xc0b6973d	-5.7059617
141	0xc1033adf	-8.201873
142	0xc0cec237	-6.461208
143	0x40a93f5e	5.2889853
144	0xc0c774df	-6.2330165
145	0x40957ed6	4.671733
146	0x409bd2bd	4.869475
147	0xc0b44811	-5.633797
148	0x40a15d02	5.0426035
149	0x4094b082	4.6465464
150	0xc0d12ed7	-6.5369678
151	0x40f3e183	7.6212783
152	0x40af3df6	5.4763136
153	0xc0a235cd	-5.0690675
154	0xc0a72260	-5.222946
155	0x409baa7e	4.864562
156	0xc0a54734	-5.164942
157	0x40d25f52	6.574136
158	0x40d37980	6.6085815
159	0x40aeb91c	5.4600964
160	0xc0a9418f	-5.2892528
161	0x40acb984	5.397646
162	0xc0b8f519	-5.779919
163	0xc096db41	-4.7142644
164	0xc0767fe3	-3.8515556
165	0x40c002ad	6.0003266
166	0xc1040e56	-8.2535
167	0x40b57b35	5.67129
168	0x409af73d	4.8426805
169	0xc0909eed	-4.5194
170	0x40ccb7ab	6.3974204
171	0x40b116b3	5.534021
172	0xc09e60fb	-4.9493384
173	0x40ae6525	5.4498467
174	0x40af6b6c	5.481863
175	0xc0abd6dd	-5.3699784
176	0xc0cf54a6	-6.479083
177	0x40bceeed	5.9041657
178	0xc0cf1153	-6.470865
179	0x408e9469	4.4556165
180	0x40b25946	5.5733976
181	0x40bbf9ff	5.874267
182	0xc0a88edb	-5.2674384
183	0x409e643b	4.949735
184	0xc0829c8a	-4.081609
185	0xc06a0e76	-3.6571326
186	0xc0cebeed	-6.4608064
187	0x40ac8cd9	5.3921933
188	0xc0ca1898	-6.315502
189	0x40c98e83	6.2986465
190	0x40aeb597	5.4596667
191	0xc0709f14	-3.7597094
192	0x40c8f4e9	6.2798963
193	0x40ecb099	7.3965573
194	0xc08ad768	-4.3387947
195	0x40a48b16	5.1419783
196	0x40ab463d	5.352324
197	0xc1031faa	-8.1952305
198	0xc0a5f97b	-5.186704
199	0x40a3c520	5.117813
200	0xc0c63a75	-6.194636
201	0x40ce3e4a	6.4451036
202	0x409460dd	4.636824
203	0x40985e82	4.7615366
204	0xc0a3324b	-5.0998893
205	0x405cb8be	3.4487758
206	0xc09ba9b6	-4.8644667
207	0xc0b8130e	-5.752326
208	0xc09bebd4	-4.8725376
209	0x407e8edd	3.9774697
210	0xc0961004	-4.689455
211	0x40882f16	4.255748
212	0x409b1613	4.8464446
213	0xc0821d58	-4.066082
214	0x40771c77	3.8611124
215	0x40922a12	4.5676355
216	0xc0a870b2	-5.2637568
217	0x40be25ef	5.9421306
218	0x40b42c85	5.6304345
219	0xc0ee5d06	-7.4488554
220	0xc0e0453c	-7.0084515
221	0x4090c0ae	4.5235205
222	0xc0c61ff1	-6.191399
223	0x40b9d29f	5.8069606
224	0x40c150e2	6.0411234
225	0x40bc3fd9	5.882794
226	0xc0c44174	-6.13299
227	0x40b65e49	5.6990094
228	0xc046f553	-3.1087234
229	0xc0a1956a	-5.049489
230	0xc08a382c	-4.319357
231	0x408c30d4	4.3809605
232	0xc0a5a6d0	-5.176613
233	0x408ae2e3	4.340196
234	0x4034262c	2.8148298
235	0xc05a4499	-3.4104369
236	0x403db561	2.9641955
237	0x405a4129	3.410227
238	0xc08d95be	-4.424529
239	0x4086b37f	4.209411
240	0x40ec1eb5	7.3787484
241	0xc0a8dd6d	-5.2770295
242	0xc083d627	-4.1198916
243	0x40cf11c2	6.4709177
244	0xc0b7fa4a	-5.749303
245	0x40c34c12	6.103036
246	0x40d99968	6.7999763
247	0x400f23d5	2.236562
248	0xc087fb0f	-4.249397
249	0x40a07ca8	5.015217
250	0xc0b67eac	-5.702963
251	0xc0b88112	-5.7657557
252	0xc08ff148	-4.4982033
253	0x406122d5	3.517751
254	0xc0dd978b	-6.924749
255	0x40b6b68d	5.709784

_embedding_layer.cat_embedding_layers.3.weight f4 [18, 9]
0	0xbe87df72	-0.26537663
1	0x3f8f19ba	1.1179726
2	0x3f458167	0.7715058
3	0xbdc5f7b0	-0.09666383
4	0x3efee0a5	0.49780765
5	0xbf3806a4	-0.7188513
6	0xc004cc3a	-2.074965
7	0xbe67be35	-0.22631152
8	0xbf560de7	-0.83614963
9	0x408861f2	4.261956
10	0x4093f91c	4.624159
11	0xc0cec3f4	-6.46142
12	0xc0c39e92	-6.1131067
13	0xc092e4a9	-4.5904126
14	0x409a9b91	4.83149
15	0x40cd43b5	6.414515
16	0xc0b14325	-5.5394464
17	0x40ed21ed	7.4103913
18	0x40ad3e77	5.413875
19	0x40ad3ac3	5.413423
20	0xc0928dbd	-4.579802
21	0xc0b098bf	-5.518646
22	0xc0b94776	-5.7899733
23	0x4097359a	4.725293
24	0x40a98425	5.297381
25	0xc08ed847	-4.463901
26	0x40ae92b6	5.455409
27	0x40bd2e58	5.911907
28	0x40bca0e8	5.894642
29	0xc0ad629f	-5.4182887
30	0xc0abbe63	-5.3669906
31	0xc0b98ce7	-5.79845
32	0x40f84a79	7.759091
33	0x40b9575d	5.7919145
34	0xc0b17ec3	-5.546724
35	0x40d74572	6.727227
36	0x40e0863f	7.0163875
37	0x40ccb927	6.3976016
38	0xc0bd9033	-5.9238524
39	0xc0c6118f	-6.1896434
40	0xc0a75fe3	-5.230455
41	0x40c0337f	6.006286
42	0x40c61784	6.1903706
43	0xc09d962c	-4.9245815
44	0x40df2504	6.9732685
45	0x40cb021f	6.344009
46	0x408db4dd	4.428328
47	0xc0d0195f	-6.503097
48	0xc096a285	-4.707339
49	0xc0cb9256	-6.3616133
50	0x40a73775	5.2255197
51	0x40e531e9	7.1623425
52	0xc0b69a0d	-5.706305
53	0x40d88f43	6.767488
54	0x40894f08	4.2908974
55	0x40c2a463	6.0825667
56	0xc0c6c060	-6.2109833
57	0xc0ab6c21	-5.3569493
58	0xc0851b97	-4.159618
59	0x4099cdac	4.8063564
60	0x409f32fc	4.9749737
61	0xc0d70b58	-6.7201347
62	0x40d230a2	6.5684366
63	0x40b54d23	5.665666
64	0x407373e3	3.8039482
65	0xc08402a4	-4.1253223
66	0xc0be9f21	-5.956925
67	0xc0aa920f	-5.3303294
68	0x40dd9d7c	6.925474
69	0x409e7eca	4.952977
70	0xc0c6da80	-6.2141724
71	0x40c4410f	6.1329417
72	0x40df2bcf	6.9740977
73	0x40977a36	4.7336683
74	0xc0da66ff	-6.825073
75	0xc0cb112d	-6.3458467
76	0xc0ad82b2	-5.422204
77	0x40b69452	5.7056055
78	0x40c7f07b	6.2481055
79	0xc0e96462	-7.2935038
80	0x409ac72c	4.836813
81	0x409844fc	4.758421
82	0x40abbf66	5.367114
83	0xc08c1584	-4.3776264
84	0xc0a8c3a4	-5.273882
85	0xc0a4b0cb	-5.146581
86	0x40ba8577	5.828792
87	0x40819ef0	4.0506516
88	0xc07aefaa	-3.920878
89	0x40823b5e	4.069747
90	0x40d6c5d6	6.71165
91	0x40947b9d	4.6400895
92	0xc0972a92	-4.7239466
93	0xc072d7aa	-3.794413
94	0xc09b46bf	-4.852386
95	0x40b11796	5.534129
96	0x40e63748	7.194248
97	0xc09bc4ce	-4.867774
98	0x40aac11d	5.3360734
99	0x40b55ffc	5.667967
100	0x403d4703	2.9574592
101	0xc082fe75	-4.0935616
102	0xc09d2cdc	-4.911726
103	0xc0e9c941	-7.305817
104	0x40805d6a	4.011403
105	0x40a829dd	5.2551103
106	0xc0863cff	-4.194946
107	0x409a07e4	4.813463
108	0x402c557d	2.6927178
109	0x401af7ff	2.4213865
110	0xc091fc05	-4.562014
111	0xc016e25e	-2.3575664
112	0xc03e2460	-2.9709702
113	0x3fa8fb90	1.3201771
114	0x3fb4acf6	1.4115283
115	0xbfe28063	-1.769543
116	0x3f854bae	1.0413721
117	0x40e70a2b	7.219991
118	0x4083fa78	4.124325
119	0xc0c6dcb6	-6.2144423
120	0xc065a9f9	-3.5884993
121	0xc0a20a75	-5.0637765
122	0x40b20fe0	5.564438
123	0x40c605dc	6.1882153
124	0xc0781f36	-3.876905
125	0x40c3146e	6.096244
126	0x408e68c4	4.450289
127	0x40c16025	6.0429864
128	0xc06493c5	-3.5715191
129	0xc0912c9c	-4.5366955
130	0xc07600c6	-3.8437972
131	0x4078b2cd	3.8859131
132	0x407d3e5b	3.9569309
133	0xbfbebe61	-1.4901849
134	0x40763bf2	3.8474088
135	0x404edd3f	3.2322538
136	0x409f9e4b	4.988073
137	0xc0948e0b	-4.642339
138	0xc0905239	-4.510037
139	0xc0b0e354	-5.52775
140	0x4083544c	4.10404
141	0x4098599e	4.7609396
142	0xc0acb66e	-5.3972692
143	0x40802dd6	4.005595
144	0x400897d5	2.134267
145	0x3feb485e	1.838146
146	0xc03eabaf	-2.9792287
147	0xbf72c71d	-0.9483507
148	0xbff702b8	-1.9297705
149	0x40353ba2	2.8317647
150	0x403a364c	2.909564
151	0xc02d6532	-2.7093015
152	0x3f87b93a	1.0603402
153	0x404bab07	3.1823137
154	0x3fc810a5	1.563008
155	0xc019ba4f	-2.4019964
156	0xc00a6d13	-2.1629074
157	0xc0782cc3	-3.877732
158	0x400dfd8c	2.2186003
159	0x400daf9e	2.2138438
160	0xc023c5a9	-2.5589392
161	0x400b6c89	2.1784995

_embedding_layer.normalizing_batch_norm.bn.weight f4 [6]
0	0x40d2d0f8	6.588009
1	0x40d37e5d	6.609175
2	0x40cccbca	6.3998766
3	0x40cdf4a3	6.436113
4	0x40d6faf9	6.7181363
5	0x40dcd20f	6.900642

_embedding_layer.normalizing_batch_norm.bn.bias f4 [6]
0	0xc0ad23a5	-5.410601
1	0xc0adc15c	-5.4298534
2	0x40ac4c3a	5.384305
3	0x40ac5686	5.385562
4	0x40a8a1ac	5.2697353
5	0x40a4d71e	5.1512594

_embedding_layer.normalizing_batch_norm.bn.running_mean f4 [6]
0	0x3a01abdd	0.0004946569
1	0x3c3f31a0	0.011669546
2	0x3b0d667f	0.0021575985
3	0xbbc40202	-0.0059816847
4	0x3ba14293	0.0049212663
5	0x3bc38947	0.0059672925

_embedding_layer.normalizing_batch_norm.bn.running_var f4 [6]
0	0x3f7ee8e9	0.9957414
1	0x3f7f6188	0.99758196
2	0x3f82286a	1.0168583
3	0x3f5d669e	0.86484706
4	0x3f7e8c74	0.99433064
5	0x3f814c6a	1.0101445

head.layers.0.weight f4 [1, 50]
0	0xbed033de	-0.40664572
1	0xbd65c5e6	-0.056096934
2	0x40a6eed8	5.2166557
3	0x40b194a8	5.5493965
4	0x40b4d192	5.6505823
5	0x40ade7bc	5.434538
6	0x40b36470	5.6060104
7	0x40aa29e2	5.3176126
8	0x40abf259	5.3733335
9	0x40abf3c6	5.3735075
10	0x40b1ff2d	5.5623994
11	0x40af1edd	5.4725175
12	0xbdae2cbf	-0.085046284
13	0x40b2c7fc	5.586912
14	0x40aa312c	5.3185024
15	0x40b58f08	5.67371
16	0x40ab3f02	5.3514414
17	0xbe08e184	-0.13367277
18	0xbe44eec6	-0.1923171
19	0xbe7306ff	-0.23733138
20	0x40ac9b95	5.393992
21	0x40ac9e15	5.394297
22	0x40b4b990	5.6476517
23	0xbe40a112	-0.18811443
24	0x40b246e1	5.571152
25	0x40aab9d2	5.335183
26	0xbd5b8e56	-0.05360254
27	0xbd753401	-0.059864048
28	0xbe841e33	-0.2580429
29	0x40a9f08c	5.3106136
30	0x40a9ca14	5.3059177
31	0xbdfaef6e	-0.12252699
32	0xbe5446e2	-0.20730165
33	0xbe2b5215	-0.1673053
34	0x40aee1ea	5.4650774
35	0x40aa10ea	5.3145647
36	0xbe2133cd	-0.15742417
37	0x40b2b10b	5.5841117
38	0x40ab2fef	5.3496013
39	0x40ac6bf2	5.388177
40	0x40b2d125	5.5880303
41	0x40ac8b62	5.3920145
42	0x40b47cc3	5.6402297
43	0x40af8fdc	5.486311
44	0xbe100606	-0.14064798
45	0x40ac6b40	5.388092
46	0xbd33ab4c	-0.043864533
47	0xbdb7774b	-0.089583
48	0x40a95b94	5.292429
49	0x40a89fb4	5.269495

exp_avg f4 [50, 58]
0	0x80000004	-6e-45
1	0x00000004	6e-45
2	0x00000004	6e-45
3	0x00000004	6e-45
4	0x00000004	6e-45
5	0x80000004	-6e-45
6	0x00000004	6e-45
7	0x00000004	6e-45
8	0x80000004	-6e-45
9	0x00000004	6e-45
10	0x80000004	-6e-45
11	0x00000004	6e-45
12	0x80000004	-6e-45
13	0x80000004	-6e-45
14	0x00000004	6e-45
15	0x00000004	6e-45
16	0x80000004	-6e-45
17	0x00000004	6e-45
18	0x80000004	-6e-45
19	0x80000004	-6e-45
20	0x00000004	6e-45
21	0x00000004	6e-45
22	0x00000004	6e-45
23	0x00000004	6e-45
24	0x00000004	6e-45
25	0x00000004	6e-45
26	0x00000004	6e-45
27	0x80000004	-6e-45
28	0x00000004	6e-45
29	0x00000004	6e-45
30	0x00000004	6e-45
31	0x00000004	6e-45
32	0x00000004	6e-45
33	0x80000004	-6e-45
34	0x00000004	6e-45
35	0x00000004	6e-45
36	0x80000004	-6e-45
37	0x80000004	-6e-45
38	0x00000004	6e-45
39	0x00000004	6e-45
40	0x00000004	6e-45
41	0x00000004	6e-45
42	0x80000004	-6e-45
43	0x00000004	6e-45
44	0x80000004	-6e-45
45	0x80000004	-6e-45
46	0x80000004	-6e-45
47	0x00000004	6e-45
48	0x80000004	-6e-45
49	0x00000004	6e-45
50	0x00000004	6e-45
51	0x80000004	-6e-45
52	0x80000004	-6e-45
53	0x80000004	-6e-45
54	0x00000004	6e-45
55	0x00000004	6e-45
56	0x80000004	-6e-45
57	0x00000004	6e-45
58	0x80000004	-6e-45
59	0x00000004	6e-45
60	0x00000004	6e-45
61	0x00000004	6e-45
62	0x00000004	6e-45
63	0x00000004	6e-45
64	0x80000004	-6e-45
65	0x00000004	6e-45
66	0x80000004	-6e-45
67	0x00000004	6e-45
68	0x80000004	-6e-45
69	0x00000004	6e-45
70	0x00000004	6e-45
71	0x80000004	-6e-45
72	0x00000004	6e-45
73	0x00000004	6e-45
74	0x80000004	-6e-45
75	0x00000004	6e-45
76	0x80000004	-6e-45
77	0x80000004	-6e-45
78	0x00000004	6e-45
79	0x00000004	6e-45
80	0x80000004	-6e-45
81	0x00000004	6e-45
82	0x00000004	6e-45
83	0x00000004	6e-45
84	0x00000004	6e-45
85	0x80000004	-6e-45
86	0x00000004	6e-45
87	0x80000004	-6e-45
88	0x80000004	-6e-45
89	0x00000004	6e-45
90	0x00000004	6e-45
91	0x00000004	6e-45
92	0x00000004	6e-45
93	0x80000004	-6e-45
94	0x80000004	-6e-45
95	0x80000004	-6e-45
96	0x00000004	6e-45
97	0x80000004	-6e-45
98	0x00000004	6e-45
99	0x00000004	6e-45
100	0x80000004	-6e-45
101	0x00000004	6e-45
102	0x00000004	6e-45
103	0x80000004	-6e-45
104	0x00000004	6e-45
105	0x00000004	6e-45
106	0x80000004	-6e-45
107	0x00000004	6e-45
108	0x00000004	6e-45
109	0x80000004	-6e-45
110	0x80000004	-6e-45
111	0x80000004	-6e-45
112	0x00000004	6e-45
113	0x00000004	6e-45
114	0x80000004	-6e-45
115	0x00000004	6e-45
116	0x4b0ee13e	9.363774e+06
117	0x4b2060eb	1.0510571e+07
118	0xcb0991a4	-9.015716e+06
119	0xcb0e9908	-9.345288e+06
120	0xcb287bd7	-1.1041751e+07
121	0xcb55ffc1	-1.4024641e+07
122	0x4af3ef7a	7.993277e+06
123	0xcaf8ab4f	-8.1483915e+06
124	0x4af12395	7.9016425e+06
125	0xcafb36c2	-8.231777e+06
126	0xcaf6dfe6	-8.089587e+06
127	0xcaf72e45	-8.0996185e+06
128	0x4af96ff8	8.173564e+06
129	0x4b00f39a	8.45097e+06
130	0xcb031b2d	-8.592173e+06
131	0x4af356f9	7.9737565e+06
132	0x4af3581c	7.973902e+06
133	0xcaf322b6	-7.967067e+06
134	0x4af688a9	8.0784205e+06
135	0x4af375ec	7.977718e+06
136	0xcb0125a5	-8.463781e+06
137	0xcb01038e	-8.455054e+06
138	0x4afae5be	8.221407e+06
139	0xcafb6da6	-8.238803e+06
140	0xcaf6637a	-8.073661e+06
141	0xcafd82f8	-8.307068e+06
142	0xcaf66834	-8.074266e+06
143	0x4af4d3e9	8.0225165e+06
144	0xcaedccf7	-7.7922515e+06
145	0x4afbc0ad	8.2494305e+06
146	0xcaf16242	-7.909665e+06
147	0xcafb2762	-8.229809e+06
148	0xcb118489	-9.536649e+06
149	0x4af5eed7	8.0587315e+06
150	0xcaf63915	-8.0682345e+06
151	0x4afd74d5	8.3052585e+06
152	0x4b07bb5e	8.895326e+06
153	0x4b02ec15	8.580117e+06
154	0xcaf7e515	-8.1230185e+06
155	0x4b07e556	8.90607e+06
156	0xcb030b52	-8.588114e+06
157	0xcaf2bc7e	-7.953983e+06
158	0x4afff55f	8.3872475e+06
159	0xcb097e73	-9.010803e+06
160	0xcafa5f14	-8.20417e+06
161	0x4af9d854	8.186922e+06
162	0xcb08501c	-8.933404e+06
163	0xcafc2fff	-8.2636795e+06
164	0x4b000815	8.390677e+06
165	0xcb03f8ff	-8.648959e+06
166	0xcaf2cf89	-7.9564205e+06
167	0x4b0416af	8.656559e+06
168	0x4b0054c0	8.410304e+06
169	0x4af63ffc	8.069118e+06
170	0xcb036687	-8.611463e+06
171	0xcb09e25f	-9.036383e+06
172	0x4af608f2	8.062073e+06
173	0xcb14895a	-9.73449e+06
174	0x4b1802ad	9.962157e+06
175	0x4b2aa0a3	1.1182243e+07
176	0xcb125c2f	-9.591855e+06
177	0xcb17b5e2	-9.942498e+06
178	0xcb334014	-1.1747348e+07
179	0xcb63ac9b	-1.4920859e+07
180	0x4b01c309	8.504073e+06
181	0xcb0447ad	-8.669101e+06
182	0x4b004638	8.406584e+06
183	0xcb05a235	-8.757813e+06
184	0xcb035349	-8.606537e+06
185	0xcb037cfa	-8.61721e+06
186	0x4b04b04b	8.695883e+06
187	0x4b093128	8.991016e+06
188	0xcb0b7bfc	-9.141244e+06
189	0x4b0171ea	8.483306e+06
190	0x4b017285	8.483461e+06
191	0xcb01561c	-8.476188e+06
192	0x4b0324e5	8.594661e+06
193	0x4b01825d	8.487517e+06
194	0xcb096663	-9.004643e+06
195	0xcb094222	-8.995362e+06
196	0x4b05771d	8.746781e+06
197	0xcb05bf68	-8.765288e+06
198	0xcb03111b	-8.589595e+06
199	0xcb06db1f	-8.837919e+06
200	0xcb03139f	-8.590239e+06
201	0x4b023c8c	8.53518e+06
202	0xcafcff31	-8.2902005e+06
203	0x4b05eb94	8.776596e+06
204	0xcb006791	-8.415121e+06
205	0xcb059a07	-8.755719e+06
206	0xcb1ad116	-1.014607e+07
207	0x4b02d30b	8.573707e+06
208	0xcb02fa91	-8.583825e+06
209	0x4b06d396	8.83599e+06
210	0x4b1067d7	9.463767e+06
211	0x4b0b49dc	9.128412e+06
212	0xcb03de39	-8.642105e+06
213	0x4b10947b	9.475195e+06
214	0xcb0b6b18	-9.13692e+06
215	0xcb011fbd	-8.462269e+06
216	0x4b082853	8.923219e+06
217	0xcb1247bb	-9.586619e+06
218	0xcb052f79	-8.728441e+06
219	0x4b04e7cf	8.710095e+06
220	0xcb110615	-9.504277e+06
221	0xcb0626ca	-8.791754e+06
222	0x4b083692	8.926866e+06
223	0xcb0c67f9	-9.201657e+06
224	0xcb0129dc	-8.46486e+06
225	0x4b0c878b	9.209739e+06
226	0x4b088825	8.947749e+06
227	0x4b02fe39	8.584761e+06
228	0xcb0bcc25	-9.161765e+06
229	0xcb12b20e	-9.613838e+06
230	0x4b02e0f2	8.577266e+06
231	0xcb1e074a	-1.0356554e+07
232	0x4b1ac979	1.0144121e+07
233	0x4b2dbe7e	1.1386494e+07
234	0xcb150891	-9.767057e+06
235	0xcb1a7b47	-1.0124103e+07
236	0xcb368639	-1.1961913e+07
237	0xcb67d531	-1.5193393e+07
238	0x4b0421ca	8.659402e+06
239	0xcb06b235	-8.827445e+06
240	0x4b029e07	8.560135e+06
241	0xcb081312	-8.917778e+06
242	0xcb05b95b	-8.763739e+06
243	0xcb05e3ce	-8.774606e+06
244	0x4b071cbc	8.854716e+06
245	0x4b0bb2a9	9.155241e+06
246	0xcb0e0834	-9.308212e+06
247	0x4b03cf2f	8.638255e+06
248	0x4b03cfcf	8.638415e+06
249	0xcb03b2e1	-8.631009e+06
250	0x4b058a1e	8.751646e+06
251	0x4b03dff1	8.642545e+06
252	0xcb0be8dc	-9.169116e+06
253	0xcb0bc3f1	-9.159665e+06
254	0x4b07e72f	8.906543e+06
255	0xcb0830cc	-8.925388e+06

exp_avg_sq f4 [50, 58]
0	0x4a1618a7	2.4591778e+06
1	0x484d090c	209956.19
2	0x493a006c	761862.75
3	0x4870c254	246537.31
4	0x48ae8702	357432.06
5	0x49d71a72	1.7621262e+06
6	0x4adf1775	7.3102665e+06
7	0x48b9bd9c	380396.88
8	0x483e8c60	195121.5
9	0x493ac41b	764993.7
10	0x4887bdd5	277998.66
11	0x4a55a08b	3.5000668e+06
12	0x4a78cd16	4.0763575e+06
13	0x4a85b51f	4.3813275e+06
14	0x4ac7cde5	6.5471865e+06
15	0x49f9045b	2.0399474e+06
16	0x489ba503	318760.1
17	0x4b726e2a	1.5887914e+07
18	0x4a6f5e84	3.921825e+06
19	0x4a786d54	4.070229e+06
20	0x482f1957	179301.36
21	0x4b33c605	1.1781637e+07
22	0x4a31b317	2.9114298e+06
23	0x4b4a1621	1.3243937e+07
24	0x4bd61f2f	2.8065374e+07
25	0x4a7db991	4.1570282e+06
26	0x4982b1bd	1.0706476e+06
27	0x4a651fdc	3.753975e+06
28	0x4ad16af6	6.862203e+06
29	0x4ae5b655	7.5272105e+06
30	0x498616d9	1.0984591e+06
31	0x4a08a53b	2.2387988e+06
32	0x4bb2f088	2.3453968e+07
33	0x4aa820e7	5.5092355e+06
34	0x48d5d209	437904.28
35	0x4ada5a70	7.155e+06
36	0x4a315994	2.905701e+06
37	0x49e7c873	1.8987664e+06
38	0x4907bf9f	556025.94
39	0x4aa0b8c3	5.2665295e+06
40	0x4ba0228a	2.0989204e+07
41	0x49ed314d	1.9430816e+06
42	0x4b0a7aae	9.075374e+06
43	0x4c13386f	3.8592956e+07
44	0x499c7de5	1.2819806e+06
45	0x4957e27a	884263.6
46	0x49ff516a	2.0915652e+06
47	0x4aad4109	5.6771885e+06
48	0x4abdd7d1	6.2207765e+06
49	0x4b037ea7	8.617639e+06
50	0x499509a8	1.220917e+06
51	0x4af50966	8.029363e+06
52	0x4b1155be	9.52467e+06
53	0x4920b1a7	658202.44
54	0x4b0ac7d7	9.095127e+06
55	0x4b8be0cd	1.8334106e+07
56	0x4824ffb5	168958.83
57	0x4c868062	7.051752e+07
58	0x46fe0ec1	32519.377
59	0x480e9572	146005.78
60	0x4710ef5d	37103.363
61	0x473347e5	45895.895
62	0x4a047fe9	2.1708742e+06
63	0x493a97cb	764284.7
64	0x48bfa49c	392484.88
65	0x492aa3ce	698940.9
66	0x47bb249c	95817.22
67	0x477f4c0f	65356.06
68	0x4864877b	234013.92
69	0x47d76e62	110300.766
70	0x48def2f9	456599.78
71	0x48bd707f	387971.97
72	0x498efac0	1.171288e+06
73	0x47632a0a	58154.04
74	0x46ad94ef	22218.467
75	0x47982f36	77918.42
76	0x48a5d1ab	339597.34
77	0x48d5f61b	438192.84
78	0x4a298a64	2.777753e+06
79	0x4a03eef0	2.161596e+06
80	0x48e25fef	463615.47
81	0x4973db03	998832.2
82	0x471e5cb4	40540.703
83	0x4922aa30	666275.0
84	0x471f74f7	40820.965
85	0x478f2400	73288.0
86	0x47e28181	115971.01
87	0x491938dd	627597.8
88	0x47c28b18	99606.19
89	0x4865914a	235077.16
90	0x4b319a7d	1.1639421e+07
91	0x48b666a2	373557.06
92	0x4980389b	1.0503874e+06
93	0x49696b6b	956086.7
94	0x4a8ed753	4.6806175e+06
95	0x49dbfe7c	1.8021915e+06
96	0x480d3a87	144618.11
97	0x4a5dee80	3.636128e+06
98	0x4a173cfd	2.4778872e+06
99	0x491919b5	627099.3
100	0x49e03bed	1.8369256e+06
101	0x4ad9037c	7.111102e+06
102	0x4920a093	657929.2
103	0x4929c214	695329.25
104	0x4a16a914	2.468421e+06
105	0x48f370aa	498565.3
106	0x48f1958b	494764.34
107	0x49b9a254	1.5207145e+06
108	0x47226a7f	41578.496
109	0x4a41cfd7	3.1754138e+06
110	0x49d7e7b8	1.768695e+06
111	0x46d7305b	27544.178
112	0x48c7b392	408988.56
113	0x4aa27eab	5.3246295e+06
114	0x46dca381	28241.752
115	0x4b69021e	1.527043e+07
116	0x56b0d237	9.720846e+13
117	0x56d0afd1	1.1472677e+14
118	0x56a63bb1	9.138765e+13
119	0x56b091fa	9.7070506e+13
120	0x56d4cf77	1.1699376e+14
121	0x5717c8cc	1.6688867e+14
122	0x5687e802	7.471527e+13
123	0x568f732f	7.886244e+13
124	0x5685fea0	7.366433e+13
125	0x5692b74f	8.0658e+13
126	0x568d836a	7.779778e+13
127	0x568c59fe	7.715907e+13
128	0x5691cb58	8.015127e+13
129	0x569ba3bf	8.556379e+13
130	0x56a5082d	9.072727e+13
131	0x568658a0	7.38576e+13
132	0x56890384	7.53241e+13
133	0x568c8d18	7.726881e+13
134	0x568d19fd	7.757138e+13
135	0x5688adc9	7.513999e+13
136	0x569d53c3	8.649154e+13
137	0x569daafa	8.667883e+13
138	0x5692e9f2	8.076674e+13
139	0x5693465a	8.096518e+13
140	0x568be318	7.690374e+13
141	0x569669e2	8.269075e+13
142	0x568ce1b2	7.745049e+13
143	0x56875bce	7.441418e+13
144	0x56829122	7.177993e+13
145	0x5698f12e	8.408081e+13
146	0x5689acbb	7.568748e+13
147	0x5691e489	8.020537e+13
148	0x56c99e65	1.1084107e+14
149	0x568f4da7	7.878184e+13
150	0x568c3d8a	7.709797e+13
151	0x56952f09	8.201462e+13
152	0x56b2827e	9.8136765e+13
153	0x569fd720	8.787315e+13
154	0x568a3a22	7.599114e+13
155	0x56abefc4	9.452314e+13
156	0x569d4464	8.645853e+13
157	0x568da32d	7.786599e+13
158	0x56972507	8.309264e+13
159	0x56aeb00a	9.603555e+13
160	0x568b94d1	7.673564e+13
161	0x5692fe1f	8.081007e+13
162	0x56acfbe2	9.5098914e+13
163	0x5692f388	8.078733e+13
164	0x5697a90a	8.337614e+13
165	0x56a6b6e8	9.165225e+13
166	0x568a26a8	7.594932e+13
167	0x56a3fcec	9.015334e+13
168	0x569be1a1	8.5696686e+13
169	0x568dfc40	7.805727e+13
170	0x56a6fda5	9.180416e+13
171	0x56b7860e	1.0089319e+14
172	0x568ac77f	7.629472e+13
173	0x56dbaf95	1.2077358e+14
174	0x56cd7bb2	1.12965576e+14
175	0x56f2502f	1.332131e+14
176	0x56c13dda	1.062357e+14
177	0x56cd3229	1.1280766e+14
178	0x56f6e6d3	1.3573562e+14
179	0x572fc533	1.932615e+14
180	0x569e0e74	8.689246e+13
181	0x56a6e79e	9.175686e+13
182	0x569bd42e	8.56678e+13
183	0x56aaba8f	9.385912e+13
184	0x56a4a532	9.051471e+13
185	0x56a343e5	8.9756e+13
186	0x56a9a806	9.326956e+13
187	0x56b52d41	9.9602984e+13
188	0x56c03934	1.0567596e+14
189	0x569c3ab0	8.588794e+13
190	0x569f627b	8.762266e+13
191	0x56a39855	8.993733e+13
192	0x56a428c5	9.0247505e+13
193	0x569effec	8.741101e+13
194	0x56b72ca6	1.00701196e+14
195	0x56b79326	1.0092131e+14
196	0x56aafd1b	9.400203e+13
197	0x56ab663a	9.422777e+13
198	0x56a2be4b	8.946909e+13
199	0x56af0ff2	9.624151e+13
200	0x56a3eb0c	9.011496e+13
201	0x569d6be5	8.6543365e+13
202	0x5697e400	8.350275e+13
203	0x56b2251e	9.793624e+13
204	0x56a03b28	8.808797e+13
205	0x56a9c9db	9.334221e+13
206	0x56eb0878	1.292108e+14
207	0x56a6d4b8	9.1716275e+13
208	0x56a32a0f	8.970052e+13
209	0x56ada1d0	9.5455246e+13
210	0x56d0089a	1.1436768e+14
211	0x56ba1a24	1.0231072e+14
212	0x56a0c3b2	8.838118e+13
213	0x56c83af5	1.1007777e+14
214	0x56b70d5b	1.00633995e+14
215	0x56a4e995	9.066157e+13
216	0x56afea58	9.671052e+13
217	0x56cb7182	1.1184419e+14
218	0x56a25025	8.923255e+13
219	0x56ab1c54	9.406908e+13
220	0x56c97257	1.1074646e+14
221	0x56ab05a8	9.402039e+13
222	0x56b08852	9.704977e+13
223	0x56c22e07	1.0675147e+14
224	0x56a0c188	8.8376535e+13
225	0x56bef304	1.0497548e+14
226	0x56b57f49	9.9779145e+13
227	0x56a5378c	9.0828995e+13
228	0x56c2897d	1.0694788e+14
229	0x56d5dd5d	1.1757336e+14
230	0x56a16c16	8.87428e+13
231	0x57002ad0	1.4092137e+14
232	0x56d6977a	1.1797304e+14
233	0x56fcff96	1.3908733e+14
234	0x56c9d346	1.10954625e+14
235	0x56d64b2a	1.1780916e+14
236	0x5700ddc9	1.4169005e+14
237	0x57376372	2.0163774e+14
238	0x56a518b0	9.0762725e+13
239	0x56ae5c2e	9.585547e+13
240	0x56a2c4be	8.948294e+13
241	0x56b25c9b	9.80554e+13
242	0x56abff7e	9.455691e+13
243	0x56aa8c5f	9.375993e+13
244	0x56b13dcf	9.743951e+13
245	0x56bd4b9e	1.04066235e+14
246	0x56c8de73	1.1042887e+14
247	0x56a32f35	8.971157e+13
248	0x56a67ed4	9.153183e+13
249	0x56aaeb9e	9.396447e+13
250	0x56ab7d0f	9.4276805e+13
251	0x56a61831	9.1311416e+13
252	0x56bf6433	1.0521854e+14
253	0x56bfcf97	1.0544916e+14
254	0x56b2a452	9.820941e+13
255	0x56b3117a	9.844382e+13

exp_avg f4 [50]
0	0x00000004	6e-45
1	0x00000004	6e-45
2	0xc9b71a2a	-1.4999732e+06
3	0xc9c2cd96	-1.5958268e+06
4	0xc9c65c79	-1.6249751e+06
5	0xc9bec3eb	-1.5627494e+06
6	0xc9c4cb17	-1.6121309e+06
7	0xc9baa752	-1.5290662e+06
8	0xc9bc9d1b	-1.5451234e+06
9	0xc9bc9e9e	-1.5451718e+06
10	0xc9c342c5	-1.5995766e+06
11	0xc9c019c9	-1.5736891e+06
12	0x00000004	6e-45
13	0xc9c41f52	-1.6066342e+06
14	0xc9baaf9d	-1.5293316e+06
15	0xc9c72c88	-1.631633e+06
16	0xc9bbd7fe	-1.5388158e+06
17	0x00000004	6e-45
18	0x00000004	6e-45
19	0x00000004	6e-45
20	0xc9bd56f1	-1.5510701e+06
21	0xc9bd59b5	-1.5511586e+06
22	0xc9c64206	-1.6241288e+06
23	0x00000004	6e-45
24	0xc9c3918b	-1.6020974e+06
25	0xc9bb45bc	-1.5341355e+06
26	0x00000004	6e-45
27	0x00000004	6e-45
28	0x00000004	6e-45
29	0xc9ba687f	-1.5270559e+06
30	0xc9ba3e26	-1.5257008e+06
31	0x00000004	6e-45
32	0x00000004	6e-45
33	0x00000004	6e-45
34	0xc9bfd6b1	-1.5715421e+06
35	0xc9ba8c33	-1.5281984e+06
36	0x00000004	6e-45
37	0xc9c4061d	-1.6058276e+06
38	0xc9bbc789	-1.5382891e+06
39	0xc9bd22bb	-1.5493994e+06
40	0xc9c42960	-1.606956e+06
41	0xc9bd4548	-1.550505e+06
42	0xc9c5ff2b	-1.6219894e+06
43	0xc9c095c0	-1.577656e+06
44	0x00000004	6e-45
45	0xc9bd21e3	-1.5493724e+06
46	0x00000004	6e-45
47	0x00000004	6e-45
48	0xc9b9c4a0	-1.521812e+06
49	0xc9b8f633	-1.5152064e+06

exp_avg_sq f4 [50]
0	0x4c3ccb03	4.9490956e+07
1	0x4b1950e8	1.004772e+07
2	0x5465c88c	3.9476485e+12
3	0x5488137f	4.675541e+12
4	0x548ed9b1	4.908301e+12
5	0x5480fd7f	4.43207e+12
6	0x548ba4a8	4.7981034e+12
7	0x54730c62	4.1755392e+12
8	0x547a8635	4.3039738e+12
9	0x547a869f	4.3040016e+12
10	0x548920c0	4.71168e+12
11	0x54836662	4.5148673e+12
12	0x4ae48b8a	7.488965e+06
13	0x548a9893	4.762122e+12
14	0x5473ebed	4.190541e+12
15	0x54903b7b	4.9557857e+12
16	0x5477c9c1	4.2569672e+12
17	0x4ac093aa	6.310357e+06
18	0x4b3faac9	1.2561097e+07
19	0x4bdb0818	2.8708912e+07
20	0x547ce543	4.3447125e+12
21	0x547cfab9	4.3461527e+12
22	0x548e8ccd	4.897981e+12
23	0x4a3fdf0c	3.143619e+06
24	0x5489a8ab	4.7299224e+12
25	0x5475f1ca	4.2252941e+12
26	0x4adb1848	7.1793e+06
27	0x49e810a1	1.9010761e+06
28	0x4ccf4ae8	1.0868102e+08
29	0x5472addd	4.169196e+12
30	0x5471faf7	4.1571904e+12
31	0x4ac106d3	6.3250975e+06
32	0x4ab3b3f7	5.8885075e+06
33	0x4b5727be	1.4100414e+07
34	0x5482c682	4.493409e+12
35	0x54738eb0	4.1842838e+12
36	0x4b8d82ab	1.8548054e+07
37	0x548a5fd9	4.7545083e+12
38	0x5477d145	4.2574715e+12
39	0x547c7bd6	4.3376375e+12
40	0x548aa4b0	4.763748e+12
41	0x547d058f	4.34688e+12
42	0x548dffd7	4.8790614e+12
43	0x5483fe38	4.5352464e+12
44	0x4ad0aef1	6.8381365e+06
45	0x547c4088	4.3336577e+12
46	0x4a6cf481	3.8822722e+06
47	0x4bf653c5	3.2286602e+07
48	0x54700327	4.1233802e+12
49	0x546d3581	4.0752196e+12

exp_avg f4 [13, 7]
0	0x00000000	0.0
1	0x00000000	0.0
2	0x00000000	0.0
3	0x00000000	0.0
4	0x00000000	0.0
5	0x00000000	0.0
6	0x00000000	0.0
7	0x4b7c6559	1.6541017e+07
8	0xcb7f0842	-1.6713794e+07
9	0x4b80b60a	1.687042e+07
10	0xcb7fa735	-1.6754485e+07
11	0xcb80458d	-1.6812826e+07
12	0xcb7d39bf	-1.6595391e+07
13	0x4b7f4263	1.6728675e+07
14	0x4b7a2a99	1.6394905e+07
15	0xcb7cc779	-1.6566137e+07
16	0x4b7f25dd	1.6721373e+07
17	0xcb7d64ff	-1.6606463e+07
18	0xcb7e46df	-1.6664287e+07
19	0xcb7afd16	-1.644879e+07
20	0x4b7d0113	1.6580883e+07
21	0x4ba4d643	2.160551e+07
22	0xcba68f10	-2.18312e+07
23	0x4ba81ea6	2.2035788e+07
24	0xcba6f6e2	-2.1884356e+07
25	0xcba78bba	-2.1960564e+07
26	0xcba560fd	-2.1676538e+07
27	0x4ba6b50a	2.1850644e+07
28	0x4b82ee0f	1.7161246e+07
29	0xcb844c31	-1.7340514e+07
30	0x4b858995	1.7503018e+07
31	0xcb849ea8	-1.7382736e+07
32	0xcb8514e1	-1.7443266e+07
33	0xcb835c3f	-1.7217662e+07
34	0x4b846a5b	1.7355958e+07
35	0x4b8fd1fe	1.8850812e+07
36	0xcb915287	-1.9047694e+07
37	0x4b92af23	1.9226182e+07
38	0xcb91ad16	-1.909406e+07
39	0xcb922ef2	-1.9160548e+07
40	0xcb904b01	-1.891277e+07
41	0x4b9173a3	1.9064646e+07
42	0x4bb57c55	2.378769e+07
43	0xcbb7619b	-2.403615e+07
44	0x4bb91987	2.426139e+07
45	0xcbb7d3e4	-2.4094664e+07
46	0xcbb877c4	-2.4178568e+07
47	0xcbb6150d	-2.3865882e+07
48	0x4bb78b66	2.4057548e+07
49	0x4bc729d1	2.6104738e+07
50	0xcbc93e68	-2.6377424e+07
51	0x4bcb212f	2.6624606e+07
52	0xcbc9bbd5	-2.6441642e+07
53	0xcbca6fac	-2.653372e+07
54	0xcbc7d16c	-2.6190552e+07
55	0x4bc96c48	2.6400912e+07
56	0x4bcdcdd6	2.6975148e+07
57	0xcbcff416	-2.7256876e+07
58	0x4bd1e6f2	2.7512292e+07
59	0xcbd075ad	-2.7323226e+07
60	0xcbd12f7e	-2.7418364e+07
61	0xcbce7aff	-2.7063806e+07
62	0x4bd02379	2.7281138e+07
63	0x4bc46aa1	2.5744706e+07
64	0xcbc677cb	-2.601359e+07
65	0x4bc853e5	2.6257354e+07
66	0xcbc6f379	-2.6076914e+07
67	0xcbc7a4d0	-2.6167712e+07
68	0xcbc50fe5	-2.5829322e+07
69	0x4bc6a504	2.6036744e+07
70	0x4bc03e86	2.5197836e+07
71	0xcbc2409b	-2.5461046e+07
72	0x4bc4129c	2.569964e+07
73	0xcbc2b9ad	-2.5523034e+07
74	0xcbc36743	-2.561191e+07
75	0xcbc0e04e	-2.5280668e+07
76	0x4bc26ce1	2.5483714e+07
77	0x4bc791b3	2.6157926e+07
78	0xcbc9a758	-2.6431152e+07
79	0x4bcb8b19	2.6678834e+07
80	0xcbca2505	-2.6495498e+07
81	0xcbcad937	-2.6587758e+07
82	0xcbc839a4	-2.6243912e+07
83	0x4bc9d54d	2.6454682e+07
84	0x4bb574dd	2.3783866e+07
85	0xcbb75a0e	-2.4032284e+07
86	0x4bb911e8	2.4257488e+07
87	0xcbb7cc54	-2.4090792e+07
88	0xcbb8702b	-2.4174678e+07
89	0xcbb60d8d	-2.3862042e+07
90	0x4bb783d7	2.4053678e+07

exp_avg_sq f4 [13, 7]
0	0x00000000	0.0
1	0x00000000	0.0
2	0x00000000	0.0
3	0x00000000	0.0
4	0x00000000	0.0
5	0x00000000	0.0
6	0x00000000	0.0
7	0x579ced16	3.4508418e+14
8	0x57a16191	3.5488083e+14
9	0x57a49746	3.6193924e+14
10	0x57a273dd	3.5723703e+14
11	0x57a3abf3	3.5991782e+14
12	0x579e6c3b	3.4837537e+14
13	0x57a1de37	3.5595156e+14
14	0x578bb079	3.0718012e+14
15	0x578fa879	3.159075e+14
16	0x57928419	3.221921e+14
17	0x57909cdc	3.1800676e+14
18	0x5791b2cc	3.2039423e+14
19	0x578d05df	3.101127e+14
20	0x579017a1	3.1686232e+14
21	0x5807eec8	5.978385e+14
22	0x580bccfe	6.148502e+14
23	0x580e9508	6.2708294e+14
24	0x580cbb1b	6.1894096e+14
25	0x580dc995	6.235877e+14
26	0x58093b9b	6.035564e+14
27	0x580c3949	6.1671066e+14
28	0x57b85438	4.053437e+14
29	0x57bd917f	4.168652e+14
30	0x57c156ec	4.2515814e+14
31	0x57bed403	4.196356e+14
32	0x57c042b3	4.227854e+14
33	0x57ba16dd	4.0921472e+14
34	0x57be2427	4.1812496e+14
35	0x57c24123	4.2717003e+14
36	0x57c7c3f5	4.392889e+14
37	0x57cbbcfe	4.4802515e+14
38	0x57c91727	4.4220255e+14
39	0x57ca9981	4.455213e+14
40	0x57c41aff	4.3124045e+14
41	0x57c85e0a	4.4061244e+14
42	0x581dfbbc	6.9481807e+14
43	0x58227cdc	7.146286e+14
44	0x5825b8c7	7.288521e+14
45	0x58239232	7.193932e+14
46	0x5824ccc5	7.2479754e+14
47	0x581f7f78	7.014793e+14
48	0x5822fb2c	7.1679863e+14
49	0x5849bc85	8.872461e+14
50	0x584f74aa	9.123999e+14
51	0x585394cf	9.305443e+14
52	0x5850d4ca	9.1844936e+14
53	0x585265e7	9.2534044e+14
54	0x584ba83c	8.956937e+14
55	0x585014a3	9.151482e+14
56	0x583684de	8.027271e+14
57	0x583bae1d	8.2542594e+14
58	0x583f690c	8.418316e+14
59	0x583cebc4	8.308832e+14
60	0x583e5685	8.371152e+14
61	0x58384063	8.103467e+14
62	0x583c3e20	8.2790004e+14
63	0x58265819	7.315892e+14
64	0x582b0f96	7.523337e+14
65	0x582e767d	7.672957e+14
66	0x582c320d	7.5732387e+14
67	0x582d7cd3	7.630065e+14
68	0x5827edb4	7.385575e+14
69	0x582b938c	7.546008e+14
70	0x5838775a	8.11291e+14
71	0x583db223	8.3429116e+14
72	0x584177c2	8.508804e+14
73	0x583ef40b	8.3982146e+14
74	0x584062dc	8.461233e+14
75	0x583a38e4	8.19014e+14
76	0x583e4447	8.368018e+14
77	0x5831a981	7.813663e+14
78	0x5836aee4	8.0344906e+14
79	0x583a504a	8.19416e+14
80	0x5837e3d3	8.087565e+14
81	0x583944f5	8.148233e+14
82	0x583358d1	7.887762e+14
83	0x58373af9	8.0585565e+14
84	0x581260b1	6.4377594e+14
85	0x581684c7	6.619881e+14
86	0x581982b8	6.7514685e+14
87	0x5817839e	6.663662e+14
88	0x5818a68f	6.713645e+14
89	0x5813c48e	6.498896e+14
90	0x5816f855	6.639733e+14
