prev/optimized_model.pth (torch, 590240 bytes, 7 tensors)

model.0.weight f4 [256, 57]
000000 39 52 7f bd 39 79 17 be 02 84 a8 bd 83 97 0b 3d
       -0.062334273 -0.14792337 -0.082283035 0.03408004
000010 05 2b 14 3d c6 5c 47 3d 4d 37 53 3d de 27 13 bd
       0.03617384 0.04867246 0.05156641 -0.035926692
000020 bc 8e 9b 3d ba 5d b6 3d b7 d4 aa 3c 01 4f 37 3d
       0.07595584 0.08904596 0.020853383 0.04475308
000030 45 bd c4 3c 03 a4 80 bc b5 08 0a be 57 25 2b be
       0.024016032 -0.015703207 -0.13479884 -0.16713463
000040 02 a1 c7 3c d6 14 c7 bc 67 11 92 bd f3 96 c5 bc
       0.024368767 -0.024301928 -0.071322255 -0.02411983
000050 c7 50 f4 3d 18 cd 83 3e 02 f7 34 bd 22 06 96 3d
       0.119294696 0.25742412 -0.044180878 0.073253885
000060 6e ae fb bd c4 10 90 bd f4 bd d0 3d 68 7f 95 bc
       -0.12289129 -0.07034448 0.10192481 -0.018249229
000070 a1 c1 a9 bd c5 67 ab 3d 5f 77 0c bd 38 c0 06 be
       -0.08288885 0.08369402 -0.03429353 -0.13159263
000080 b2 31 55 bc 2d f7 b9 bd eb b9 a0 3d be 8a 0d 3e
       -0.013012337 -0.09080348 0.07847961 0.13822457
000090 d8 60 65 3d fe e9 b3 bd c8 08 f5 3d 96 b1 b9 3c
       0.05600056 -0.08784865 0.119645655 0.022667687
0000a0 5f fb 69 bd b8 34 f6 3c fd c0 b1 3c 46 33 05 be
       -0.05712449 0.030054435 0.02169847 -0.1300784
0000b0 cd 4f b6 3d 1c ec 35 be c4 a8 08 bd 8b 18 b7 3d
       0.089019395 -0.1776585 -0.033364072 0.08940228
0000c0 3c 1e b1 3d 0c 2f 5e 3d db 6a 71 bd 8c b0 0c 3d
       0.08648345 0.054244086 -0.058939796 0.034348056
0000d0 61 68 0d be ba d9 5b bd 8d 41 e0 3d a0 ec 8a 3d
       -0.13809349 -0.053674437 0.10950003 0.06783414
0000e0 80 d3 b0 3b 9c 4b 14 be cd 07 2e 3a de 25 9a bd
       0.0053963065 -0.14481968 0.00066387356 -0.07526754
0000f0 04 5b 60 bd 42 e8 7b bc 09 8e d5 bd 38 1e c4 3d
       -0.0547743 -0.015375199 -0.10427482 0.09576076
000100 0e a0 88 3c 94 72 65 bd 21 cc e3 bd 60 64 9f 3d
       0.016677883 -0.056017473 -0.11122919 0.07782817
000110 fb 75 ed 3d 32 0a 12 3e 56 e9 8d bc 5d ea 06 3e
       0.115947686 0.14261702 -0.017323177 0.1317534
000120 c8 56 e1 3c e4 aa 8b 3c 3a 1d 9e bd 48 93 56 3e
       0.0275072 0.01704926 -0.07720418 0.20954621
000130 94 fe 6c bd 61 89 06 bc f0 cc fc 3d 17 1e b3 3c
       -0.057859972 -0.008211465 0.12343776 0.021864934
000140 e0 e1 99 3c 76 98 97 bd c9 8a dc bd 45 cb ed bd
       0.018784463 -0.074021265 -0.10768659 -0.11611036
000150 3d 26 2e bc 91 8b c1 3d f3 1e e0 bd e6 3c 29 3e
       -0.010629234 0.09450448 -0.10943403 0.16527137
000160 81 1f b4 bd 42 80 a5 3b d8 1f 88 3d 48 ef 71 bd
       -0.087950714 0.00505069 0.06646699 -0.059066087
000170 f9 4d 20 bd 4a d2 dd bd a3 17 a6 3b f7 f8 d1 3d
       -0.03913686 -0.10831125 0.0050687357 0.102525644
000180 3e c4 1c be 76 f2 79 3c 11 30 08 bb a6 b3 c6 3d
       -0.15309235 0.015255561 -0.0020780603 0.09702234
000190 7b 7a a1 3d 95 26 fc bd db 57 a5 bd 2f 07 98 3c
       0.078846894 -0.123120464 -0.08073398 0.018558113
0001a0 a5 77 12 3e 7c a5 06 be 9f 98 d3 3c 37 32 fc bc
       0.14303453 -0.13149065 0.025829611 -0.030785663
0001b0 ef 59 3b 3d ac 5b 84 3c b9 9b cf 3d 8c 3f 1e bd
       0.045740064 0.016156994 0.101371236 -0.03863482
0001c0 27 e1 0b bd 79 20 78 3d a8 47 a9 3d d4 23 fd bc
       -0.03415027 0.060577843 0.082656205 -0.030900873
0001d0 95 b0 80 3d 7b d8 2b 3d 96 78 90 3d e1 76 20 be
       0.0628368 0.0419545 0.0705425 -0.15670349
0001e0 ae 52 6c 3d 93 1e f7 bd ff 61 13 bd a8 75 6f 3d
       0.057696037 -0.120663784 -0.03598213 0.058461815
0001f0 20 8d ba 3c 32 ad 12 be ea 90 5e bc 5c 69 e7 bb
       0.022772372 -0.14323881 -0.013584355 -0.0070621204
000200 3b 0b 68 bd e4 b2 bc bd 41 98 b8 bd db 41 f1 3c
       -0.056651335 -0.09213808 -0.09013415 0.029450348
000210 ef b8 88 bd 05 02 78 3d 68 67 9a 3d 7f af f4 bd
       -0.06675898 0.0605488 0.075392544 -0.11947536
000220 62 8d 08 be 3b 41 3f bd 16 cd 05 3e 09 e9 ec bd
       -0.13335183 -0.046693068 0.13066515 -0.115678854
000230 a9 75 b5 bc 8b dd 7a 3d da 64 0a 3e 03 66 3c 3d
       -0.022150831 0.061246436 0.13515034 0.045995723
000240 f0 c3 0e bd 73 9e 2a bc 4f 0b b2 3d db 40 83 bd
       -0.03485483 -0.010413754 0.08693563 -0.064088546
000250 8c 8d 75 bd c4 44 bd bd 1b d8 43 3d 27 ac 17 be
       -0.059949443 -0.092416316 0.047813516 -0.14811765
000260 59 85 2d bd 9a 50 0f 3e d1 63 63 bc ad 39 00 3d
       -0.0423635 0.13995591 -0.013878779 0.031305004
000270 b1 5f 9c bd 8e 96 3a bd 6a 62 18 be 87 38 1d be
       -0.07635439 -0.045553736 -0.14881292 -0.15353595
000280 b8 c6 ba bc 30 54 59 3d d0 54 17 3d 50 08 10 bd
       -0.022799835 0.053058803 0.036946118 -0.035164177
000290 bb 63 d6 3d f6 08 9d bd 7b ad ef bd 8c 82 00 be
       0.10468241 -0.07667725 -0.11703011 -0.125498
0002a0 db d8 f1 bd 99 5e 2c 3c 84 2c e1 3d 85 92 a1 3d
       -0.1180894 0.010520601 0.10994819 0.078892745
0002b0 3e 34 df 3d e5 f5 cd bd aa 6f 9a 3b 4f 92 8f bd
       0.10898636 -0.10056666 0.0047130184 -0.07010328
0002c0 cf 1b 24 bd 7c 8e 6c 3d 35 9c bc bd 84 29 ae 3d
       -0.040065583 0.05775307 -0.092094816 0.08504012
0002d0 83 98 b8 bd de 6d 53 be 03 c9 97 3d 3f 00 42 bd
       -0.09013464 -0.2064738 0.07411387 -0.047363516
0002e0 03 06 ce bd 3e d9 20 be 6c d1 0e 3d a5 5d 29 3d
       -0.100597404 -0.15707871 0.03486769 0.041349072
0002f0 cc 6e d2 3d 27 d8 f0 3d 9f 25 95 3d fa 93 2b bc
       0.10275039 0.11759978 0.07282566 -0.010472292
000300 c4 b2 10 be f4 2b ef bd a5 59 3d bd c4 73 11 be
       -0.14130694 -0.11678305 -0.04622807 -0.14204317
000310 93 7a 47 bd 07 02 93 bd 24 35 97 bd 83 d2 f6 3d
       -0.04870088 -0.07178121 -0.07383183 0.12051871
000320 0a 63 b9 bd ec a0 7e 3c 5c cb 27 be e1 44 b2 3d
       -0.09052093 0.015541296 -0.16386169 0.08704544
000330 41 e6 94 bd 2b 31 d3 3d 5f f4 c3 bd 2f be d3 3d
       -0.0727048 0.103121124 -0.095680945 0.10339009
000340 ba c3 11 be af fa 90 3d d8 bf ae b9 4e 36 a4 3c
       -0.1423482 0.07079064 -0.000333308 0.020045426
000350 df 2d d5 bb 23 e8 93 3c 2b 93 99 3d b5 a1 29 bd
       -0.0065057124 0.018055027 0.07498773 -0.04141398
000360 a3 0e e1 bd 3c de 8d 3d 66 d1 18 be 0d 61 a5 bc
       -0.1098912 0.069271535 -0.14923629 -0.020187879
000370 78 94 aa bd 37 3e a0 3c aa b2 df bd 91 74 52 3d
       -0.083290994 0.019560916 -0.10922749 0.051380698
000380 01 49 be 3c 3c 99 e0 bd 23 cc 0a bd d1 ac e0 3d
       0.02322817 -0.10966727 -0.033886086 0.10970462
000390 ce 9c b7 bd 13 0c 88 bc c6 62 f3 3d 9f a8 78 bd
       -0.08965455 -0.01660732 0.11884074 -0.060707685
0003a0 61 6d 9e bc 70 25 00 3e e7 3e b0 3d f8 b7 a3 bd
       -0.019339265 0.12514281 0.08605748 -0.07994074
0003b0 36 00 36 bd cc 47 af bd 92 22 a9 bd 68 98 28 3d
       -0.044433795 -0.08558616 -0.08258547 0.04116097
0003c0 1b 5f 83 3d 6f 07 9a 3d 47 9d b3 3d 7f c3 99 3c
       0.06414624 0.07520949 0.08770233 0.018769978
0003d0 60 ab f4 3d 8a e5 38 bd ce 03 0e be e4 0e ab bd
       0.1194675 -0.04514078 -0.13868639 -0.083524495
0003e0 52 f7 bd bc f9 3b 7f 3d 7e 03 70 bd aa 69 98 3d
       -0.02318922 0.062313054 -0.05859708 0.07442029
0003f0 46 85 e8 3d 64 42 16 3e 77 b2 e3 bd b7 52 8a 3d
       0.11353545 0.14673764 -0.11118024 0.06754058

model.0.bias f4 [256]
000000 b1 99 c1 bc 44 71 30 bd 09 4f ad bd 4a 3a 8b 3d
       -0.023632856 -0.04307677 -0.084623404 0.06798227
000010 63 8c 1d 3d 39 d5 8b 3c d2 47 e4 3a 34 aa 10 be
       0.03846396 0.017069446 0.0017416424 -0.14127427
000020 6c ac fc bd 47 15 36 be 71 5c 17 be 14 57 de 3c
       -0.12337574 -0.17781554 -0.14781357 0.027141131
000030 89 cc 33 3d 18 23 44 bd 9f 4b 95 3d aa 48 dd 3c
       0.04389623 -0.04788503 0.07289814 0.027012188
000040 58 ab c6 3c ab 5c f6 bd 14 d3 fe 3d be f7 fe 3d
       0.024251625 -0.12029394 0.12442604 0.12449597
000050 b8 d6 0a be c0 bb 67 3c d0 94 ec bc 12 fe 86 3d
       -0.13558471 0.014143884 -0.028879553 0.06591429
000060 c3 2e b3 bd bc f1 06 be da da cc 3d 27 e0 9a bd
       -0.087491535 -0.13178152 0.1000268 -0.07562285
000070 77 78 ba bd 3b 63 52 bd 89 61 6a bd b7 ad bc 3d
       -0.09105008 -0.051364165 -0.057221923 0.09212821
000080 ae 1a af bd ff 34 9b 3d bb 14 55 3c e3 1f 12 3c
       -0.085500106 0.075784676 0.013005431 0.008918735
000090 e4 0b b0 bc 33 e3 54 3c 12 90 bc 3d f8 6e c8 3d
       -0.021490045 0.012993622 0.09207167 0.097867906
0000a0 e0 c1 4f bd e1 b5 1c be 10 4e 72 bd db d4 d2 bd
       -0.050722003 -0.15303756 -0.059156477 -0.10294505
0000b0 88 d0 a2 bd 21 77 d7 bd 61 5d 8f 3d fe d1 07 3c
       -0.079499304 -0.10520769 0.070002325 0.008289812
0000c0 ec 33 77 3d 1e f7 a6 bd 48 25 94 3c 09 71 fa bd
       0.06035225 -0.081526026 0.018084183 -0.12228591
0000d0 ce b6 f5 bc f3 4d e4 bd 9f 12 46 bd b1 c6 ff bb
       -0.029994395 -0.1114768 -0.048357602 -0.0078056683
0000e0 56 89 aa bc 1b 25 e8 3b f7 6d 31 be 18 b7 98 bc
       -0.02081744 0.0070845014 -0.17327105 -0.018641993
0000f0 43 f8 e9 bd 17 ef 00 3e d5 be ff bd 91 e5 a0 bd
       -0.11424305 0.12591206 -0.1248757 -0.07856286
000100 7e 50 f2 3d f7 61 0d bd cb b2 59 3d ff 7a 45 3d
       0.11831759 -0.034517255 0.053149026 0.048213
000110 b3 49 d8 3c 64 8a fd 3d 80 0d ad bd 41 16 ef 3d
       0.02640233 0.123799115 -0.084498405 0.116741665
000120 17 53 54 3d c6 97 59 3d 4a 63 ff bd 49 34 2e bc
       0.051837053 0.053123258 -0.1247011 -0.010632583
000130 b5 12 f8 3d 80 7c 4c 3d 0c 42 2c 3c f8 4a c3 3b
       0.12112943 0.04992342 0.010513794 0.0059598647
000140 d1 54 2d be 8e 7b 9f 3d e1 c0 dc bd 03 f3 74 3d
       -0.16926886 0.07787238 -0.10778976 0.059802067
000150 0e 3b 9e bd a7 7d e8 bd 75 d8 9e bc 32 f2 b4 3d
       -0.077261075 -0.11352091 -0.019390324 0.088352576
000160 f9 31 23 bd 72 b0 fe 3d 0b f5 98 3c d3 97 c2 bd
       -0.03984258 0.12435998 0.018671533 -0.095016144
000170 a9 cc 54 be 1c ff 76 3d fa 00 05 be de bd 53 3d
       -0.20781197 0.060301885 -0.12988654 0.051694743
000180 21 0c c2 bd 4d 34 48 bd b4 e2 17 bd 38 ce d3 bd
       -0.0947497 -0.048878003 -0.037081435 -0.103420675
000190 aa 14 6e bd e2 ba 02 be b6 31 3a bd b0 82 2a bd
       -0.058125176 -0.12766603 -0.045457564 -0.04162854
0001a0 07 cc 58 bb 97 2d 84 bd 76 b2 1d be 22 a7 d2 3d
       -0.0033080594 -0.06454008 -0.15400109 0.10285784
0001b0 e0 6d 08 be cd 0f 93 bd 47 a7 b7 bd da d2 01 3d
       -0.13323164 -0.07180748 -0.089674525 0.031695224
0001c0 fa c1 7b bd c8 00 1d be ab d6 4d 3d f5 39 bc bd
       -0.061464287 -0.1533233 0.05025355 -0.09190742
0001d0 5f d9 00 be 37 34 71 3d 89 a5 06 be 85 db b9 bd
       -0.1258292 0.058887687 -0.13149084 -0.09075073
0001e0 2c 68 0b bd d7 d7 27 be 5f 8b 81 3d ba 67 e4 bd
       -0.034034893 -0.1639093 0.06325411 -0.11152597
0001f0 d5 a5 a8 bd b3 d2 e0 3b 56 9d 6a bd d8 cc b7 3b
       -0.08234755 0.006861055 -0.057278953 0.005609136
000200 19 d5 28 3d 23 a6 26 be d7 e4 34 bc 6c ff bb bd
       0.04121885 -0.16274314 -0.011040888 -0.09179577
000210 ae 59 07 be 39 67 f4 bd 76 78 54 bc 02 91 a4 bc
       -0.13217804 -0.11933751 -0.012968173 -0.020088676
000220 01 a2 0e be a1 3f 93 bc ec 22 23 be 73 64 ea 3d
       -0.13928987 -0.017974677 -0.1593129 0.114449404
000230 59 4f 12 be 9d 06 0a 3e 52 16 78 bc 92 2c f8 bd
       -0.14288081 0.13479085 -0.01514204 -0.12117876
000240 33 13 9b 3d a4 de 28 bd 24 b1 99 3d 60 0b db 3d
       0.07572021 -0.04122795 0.0750449 0.10695529
000250 23 8b 9f bd d6 94 ee bd 8a a2 0c be 95 34 c5 bd
       -0.0779021 -0.11649482 -0.13733879 -0.0962917
000260 9c d6 f8 bd 3f f2 a1 bd 74 3c 69 3d 53 a0 bf bc
       -0.121503085 -0.07907533 0.05694242 -0.023391878
000270 3f 2a 60 3a 26 e8 10 be b1 ee 56 3d 04 b1 98 bd
       0.0008551217 -0.14151058 0.052473728 -0.07455638
000280 b5 59 8e bd cb eb d2 3d c5 c4 f1 bd 6d 2f cc bd
       -0.06950704 0.1029888 -0.11805109 -0.09969983
000290 15 44 0a 3c 32 17 07 3d 46 c6 17 be 72 2b 14 be
       0.008439084 0.032981105 -0.14821729 -0.14469698
0002a0 f4 c7 c1 3c 91 25 87 3d 02 cd 00 3d 14 60 6c 3c
       0.023654915 0.06598962 0.03144551 0.014427204
0002b0 5c fc 28 bd e3 83 c8 bd b3 b9 aa bd fe fa 7f 3d
       -0.041256294 -0.097907804 -0.083362006 0.062495224
0002c0 0e e5 ab 3c c4 0d fa bd 6b 60 c1 bd 01 31 32 3d
       0.020983245 -0.12209657 -0.094422184 0.043503765
0002d0 47 35 bd bd 42 08 ae bb 17 11 c0 bd d0 f1 b9 3c
       -0.092386775 -0.005311043 -0.0937826 0.022698313
0002e0 f7 4b e8 bc 7c 63 16 3d 05 e3 ec 3c d7 ab 14 be
       -0.028356535 0.03671597 0.028916845 -0.14518677
0002f0 cd c6 5c bd eb 69 45 bd 81 21 b4 3d 86 b6 ae bc
       -0.05390053 -0.048196714 0.08795453 -0.021327268
000300 b6 35 98 bc ba 79 04 be 2e df 09 be 47 b8 a4 bc
       -0.018580299 -0.1293706 -0.13464043 -0.020107402
000310 7d a6 db bd f2 82 a8 bd 5a ac 2c 3d 52 fe a9 bd
       -0.107251145 -0.08228101 0.042156555 -0.08300461
000320 d2 c4 10 bd da 44 9b bc f1 7c f3 bd 44 c7 2d 3d
       -0.035343952 -0.01895373 -0.11889065 0.042426363
000330 cf 46 39 bd b5 99 09 bd 13 37 e4 bd 76 d6 97 3d
       -0.045233544 -0.033593852 -0.11143317 0.07413952
000340 9e f4 6c 3d 21 6e 35 be e4 12 db bb bf 16 97 3c
       0.057850473 -0.17717792 -0.0066856015 0.018443463
000350 12 34 c9 bd 42 06 44 bd 94 2e 12 bd 1d 45 a4 3d
       -0.09824385 -0.04785753 -0.03568895 0.08020995
000360 89 a2 ac bd 0d 63 fc 3c 80 83 71 3d 6e 03 04 be
       -0.084294386 0.03080895 0.0589633 -0.12891933
000370 31 62 6d bc fc bc 30 3d 42 fa bb bc 7e 6f 0b be
       -0.014488743 0.04314898 -0.02294648 -0.1361675
000380 45 23 f3 bb e9 c5 05 3d fe a2 3c bd 6d ed 47 bd
       -0.007419976 0.032659445 -0.04605388 -0.04881041
000390 e3 d9 b1 3d 4c b2 e5 bd 3f b8 87 bd d0 9b b0 bd
       0.08684137 -0.11215648 -0.06626939 -0.08623469
0003a0 39 da 95 bd 93 75 55 bd 34 da 12 be 84 72 2f bd
       -0.07317013 -0.05211408 -0.1434105 -0.04283382
0003b0 4a 15 11 be c9 1a 70 3d 15 4d 72 3d 91 7a aa 3d
       -0.14168277 0.058619294 0.059155542 0.08324159
0003c0 aa 99 12 be e6 86 93 3d b3 54 dc bd 29 37 a5 3c
       -0.1431643 0.07203464 -0.107583426 0.020167904
0003d0 bf a8 3d bc 98 a5 91 bd c7 a7 60 bd 91 5d c4 bd
       -0.011575877 -0.071116626 -0.054847505 -0.09588159
0003e0 3d 6e 8b bb 82 da 8e bd 1d f8 f7 bc e1 7c f6 bd
       -0.004255085 -0.06975271 -0.030269677 -0.120355375
0003f0 d7 a2 32 bd df 9e e7 bc 02 a6 08 3d 08 e2 07 be
       -0.043612327 -0.028273998 0.033361442 -0.13269818

model.3.weight f4 [256, 256]
000000 20 bd 22 3d d3 fa 78 3d 45 19 81 bd 89 c2 bf bd
       0.039731145 0.06078608 -0.06303648 -0.093632765
000010 f1 05 26 bd 30 85 da bd 89 10 5e 3b 0d 8c a2 3c
       -0.04053301 -0.10669935 0.0033884367 0.019842172
000020 77 58 6d 3d 46 72 6c bc 0a 71 05 3b 22 81 a1 3d
       0.057945695 -0.014431542 0.0020361566 0.07885958
000030 fd bb 7a bb 3a 49 64 3b d0 5f 83 3d 65 d2 8e bd
       -0.0038259022 0.0034833685 0.06414759 -0.06973723
000040 a3 a2 4e bd 51 72 17 bd 1d b5 0a bd 27 1e 8d 3d
       -0.05044807 -0.036974255 -0.03386413 0.06890517
000050 7e 4e 91 3d 31 ed 2d bd 89 20 4d 3d b4 6a 97 3d
       0.07095049 -0.04246253 0.050079856 0.07393399
000060 e0 ba 5c bd 94 81 f6 bc 32 3a 69 3c 9e e5 21 bd
       -0.053889155 -0.030091085 0.014235066 -0.03952562
000070 39 d2 9b bd 3e 11 97 3d f8 fd 72 bd 36 4c 3f 3d
       -0.07608456 0.073763356 -0.059324235 0.04670354
000080 c5 a7 20 3d 40 9b 86 bc 83 49 12 bd 90 93 38 bd
       0.039222497 -0.01643145 -0.035714637 -0.0450626
000090 d7 58 a9 bd 2e 03 ac 3d 42 84 20 3d 1e 09 0e bd
       -0.08268898 0.08399044 0.03918863 -0.034676664
0000a0 f6 eb 45 3d ff 09 90 3d 07 eb a4 bc 36 98 04 3c
       0.048320733 0.070331566 -0.020131601 0.008092931
0000b0 d5 fe 55 3c 09 e3 dd 3d 60 69 3f 3d 55 0c e4 3c
       0.013061245 0.10834319 0.046731353 0.027837912
0000c0 39 ff 29 3c 0a f0 be 3c f6 0e b1 3d 64 e0 f5 3b
       0.010375791 0.023307819 0.08645432 0.007503556
0000d0 72 23 7b ba 32 7b 29 3d 03 ef 56 bc 64 71 e6 3c
       -0.0009580172 0.041377254 -0.013118508 0.02813024
0000e0 33 ed ab 3d 84 9d 08 3e fa 6a cd 3d 66 6d 0e 3d
       0.083948515 0.13341337 0.1003017 0.0347723
0000f0 e0 87 42 3b 75 d9 21 3c 26 a1 d3 3c f1 ae 8f bc
       0.0029683039 0.009878506 0.025833678 -0.017539473
000100 bb e9 44 bd 66 7d 25 3d 71 d9 10 bc 4e b4 13 3d
       -0.048074465 0.040402792 -0.008840905 0.036060624
000110 88 25 20 3c 5b 6f 19 3d 15 42 4f bd ad c3 c1 3c
       0.009774573 0.037459712 -0.05060013 0.023652876
000120 4f 97 c9 bc 59 a6 25 bd d8 78 12 bd 99 7a ce 3d
       -0.024608282 -0.040441845 -0.035759777 0.100819774
000130 bd 5c 96 3d 6d 8f d2 3c 6e 29 6d bd d0 51 13 3e
       0.07341907 0.025703156 -0.05790084 0.14386678
000140 c7 49 81 bd 6a 28 c5 3c ea 61 26 bc 8f fa 41 3d
       -0.063129 0.024067122 -0.0101551805 0.047358092
000150 e6 28 17 3d ca da 6b 3c 9c 91 2a bd 44 1c 0a 3d
       0.03690424 0.014395425 -0.04164277 0.033718362
000160 25 ff 06 3d 2a a8 e3 3c 72 d8 ee bb 5e 9c 2e bc
       0.03295817 0.027790148 -0.007288986 -0.010657398
000170 22 7d 66 3d 21 5d c7 3d 6e 59 1f bd 3e 1a 7a bd
       0.05627168 0.0973456 -0.038903646 -0.061060183
000180 0b 6a 01 3d 86 5c 03 3d 56 08 97 3d 61 85 4d 3d
       0.03159527 0.03207066 0.07374637 0.05017603
000190 c4 e9 f4 bc 6d 85 cc 3d ca 8d 10 3d de 9d 01 3e
       -0.029896624 0.099863864 0.03529147 0.12657878
0001a0 69 04 75 bd 91 6f ec bc ba 2d 17 3d 26 c0 2b 3d
       -0.05981866 -0.028861793 0.036908843 0.041931294
0001b0 e6 67 26 3c 90 48 b4 bd fa aa f7 3b 63 ea 45 bd
       0.010156607 -0.08802903 0.007558224 -0.04831923
0001c0 b4 6a 80 3d 3a d0 9b ba 6c 1b e7 3a 77 50 d8 3c
       0.06270352 -0.0011887618 0.0017632074 0.026405556
0001d0 67 be c5 3d 2a c3 00 bd 5a 77 47 bd 29 b9 04 3d
       0.09655457 -0.031436123 -0.048697807 0.032403145
0001e0 bf e0 28 bc be 40 37 bd 15 ea 3b bd 8d 5c 02 3d
       -0.01030749 -0.044739477 -0.045877535 0.031826545
0001f0 b8 6e d7 3c 0a 88 e8 bc a8 b1 1c bd fc 4f 1b bd
       0.026297912 -0.028385181 -0.038255364 -0.037918076
000200 33 8a 92 3c dc 7d 74 3d ce 22 38 3d 97 83 09 bd
       0.017888164 0.05969034 0.044955067 -0.03357276
000210 fc 9d 85 bd a9 de cd 3c 6c a4 9d 3d 51 5c d1 bd
       -0.06524274 0.025130587 0.076973766 -0.10222686
000220 ca 99 1c bd c5 91 cf bc 64 2b 1c 3d 04 3c d3 3d
       -0.038232602 -0.025338063 0.038127318 0.103141814
000230 0e 0c 87 3d 02 77 7a 3a bb 10 b6 3d 89 b8 af bd
       0.06594096 0.0009554477 0.0888991 -0.08580119
000240 e7 4f 16 bd 3e b6 72 bd 78 da 52 3d 71 f0 10 bc
       -0.036697295 -0.05925583 0.05147788 -0.008846388
000250 e4 e6 5b 3d b8 38 a0 bc 7e b0 d9 bc 7e 3a e4 3c
       0.05368699 -0.019558296 -0.026573416 0.027859922
000260 c6 6f 86 bd 9a 32 1c 3d 06 6d e8 3b 62 5d e9 3c
       -0.06564288 0.038134195 0.0070930747 0.028486911
000270 48 56 8d 3d 6d 05 7f bd 3d 27 88 3c 7d e0 8c 3d
       0.069012225 -0.062261034 0.016620273 0.06878755
000280 26 8d 95 3d a2 12 8c bc 88 5f 0b 3c e5 22 d0 3d
       0.073023126 -0.017098729 0.008506663 0.101629056
000290 5a aa db 3d c1 65 49 3d 29 27 91 bd af fa e1 3c
       0.10725851 0.049169306 -0.07087547 0.027585356
0002a0 f2 76 d4 3a 44 ea fd 3d 0d 47 99 bd d2 59 b3 3b
       0.0016209765 0.12398198 -0.07484255 0.005473354
0002b0 fd 01 43 bd a8 fc 62 3d 77 7b 17 bd 2f c3 33 3d
       -0.047609318 0.055416733 -0.03698298 0.043887313
0002c0 cc 40 1e 3d 5c c8 d0 3d 3e eb bd bc e7 d2 a6 3d
       0.038636014 0.101944655 -0.023183461 0.08145695
0002d0 d1 9a 9c 3d 0a e5 b9 3c 90 bd 34 3c a6 9f 5e 3d
       0.076467164 0.022692222 0.011031523 0.05435147
0002e0 15 18 87 bd 24 d1 5c 3d 27 f4 70 3d 10 37 d5 3d
       -0.0659639 0.05391039 0.05882659 0.10410893
0002f0 10 37 60 bd 47 83 e9 3c c7 3e 00 3d 07 1d 83 3d
       -0.05474001 0.02850498 0.03130987 0.06402021
000300 61 17 40 3c 84 4c b4 3d cf 5b aa 3c 03 ab 4b 3d
       0.011724324 0.08803657 0.02079573 0.049723636
000310 0e f2 ab 3c 88 4a 55 bc 69 26 a5 bb 1b be 84 bd
       0.020989444 -0.013018258 -0.0050399792 -0.06481572
000320 7d 9f 46 bd 69 74 3b 3d 2b 7b a1 bd 25 a7 4f 3c
       -0.048491944 0.045765314 -0.078848206 0.012674128
000330 f2 0a ae bb eb 50 b0 bc 36 41 99 3d 29 70 08 3d
       -0.0053113634 -0.02152296 0.07483141 0.03331009
000340 37 f2 79 3a 89 db 78 3d d5 85 b9 bc 52 2f a8 bd
       0.0009534689 0.06075624 -0.022646824 -0.08212151
000350 c0 b5 21 bd c6 19 77 3c 18 a4 c3 3d 41 38 d8 bc
       -0.03947997 0.015081828 0.09552783 -0.026394011
000360 e6 a5 ad bd 70 22 bb 3c 60 3e c3 3d e0 78 7b bd
       -0.08478908 0.02284357 0.095333815 -0.061394572
000370 f9 fd 59 3d bc 55 40 3d 8b eb 71 3d 8b 9e 4c 3d
       0.053220723 0.046956763 0.059062522 0.049955886
000380 91 2a ce bb 04 4f a2 b9 ed 12 1c bd 06 81 02 3d
       -0.0062916954 -0.0003095792 -0.038103987 0.031861328
000390 5d 04 2f 3d 6b a0 d1 3c b8 a2 97 3d 83 2c 08 3d
       0.04272877 0.025589189 0.07404083 0.033245575
0003a0 59 93 ba bb 8a 8a e0 bb 11 56 8b 3b f3 c0 4e 3d
       -0.0056938347 -0.0068524526 0.0042522033 0.05047698
0003b0 ed bb c4 bd 87 48 c9 bc 77 3d a4 bc a9 36 85 bd
       -0.096061565 -0.024570717 -0.02004884 -0.06504566
0003c0 05 02 b1 bc 62 d3 95 3d 97 a7 15 3d 2b 74 12 bd
       -0.021607408 0.07315709 0.03653678 -0.035755318
0003d0 61 1c ca 39 5d de e9 bd 88 83 4d 3c 5a 4d cb bc
       0.00038549586 -0.114193656 0.0125435665 -0.024817158
0003e0 cb ee 0d bd cc de e8 bc 34 20 89 3d 89 ba ed bc
       -0.03465156 -0.02842655 0.066955954 -0.029019611
0003f0 27 df b6 bc 18 cd cc bc 0d 98 da bc bd 6b 39 3b
       -0.022323204 -0.02500014 -0.026683832 0.0028292977

model.3.bias f4 [256]
000000 b3 fd ac bc 71 42 a3 bc ff b2 80 bb f1 40 2e 3d
       -0.021117067 -0.019929143 -0.003927588 0.0425424
000010 38 45 49 bc 31 85 cc bc f5 c0 95 bc d1 c0 13 bd
       -0.012284569 -0.024965854 -0.018280486 -0.036072556
000020 5c d5 18 3d 97 20 ab bc 23 84 36 bd ee db 86 3c
       0.03731285 -0.020889563 -0.04455961 0.016462293
000030 83 b9 e5 bc af 72 b6 bc c7 b9 4b bc 06 97 a4 3d
       -0.02804256 -0.022271482 -0.0124344295 0.08036618
000040 43 dc 29 bd a7 7a bc bc 19 ad 76 bd a1 0b 4b bd
       -0.041469824 -0.023007704 -0.060223673 -0.049571637
000050 90 71 21 bd 5b 10 00 bd 3d 3b 2a 3d aa 0b 73 bc
       -0.039414942 -0.031265598 0.0415604 -0.014834324
000060 23 85 aa bc 44 ad 03 bd 2c 96 29 3d 09 6a 3f 3b
       -0.020815438 -0.03214766 0.04140298 0.002920749
000070 b5 ff bd 3c f0 e1 40 bd 4a 48 49 3d 3e 96 88 bc
       0.02319322 -0.04709047 0.049141206 -0.016673204
000080 ae 42 40 3d be 47 24 3d 2e 05 34 3d 27 ad 4a bd
       0.04693859 0.04010748 0.043950252 -0.049481537
000090 b2 2a 8d 3d 42 69 73 bd fd bb 13 3b b2 e1 dc bc
       0.06892909 -0.059426554 0.002254247 -0.026963089
0000a0 e0 5b 24 bd 2f 25 5e 3d a1 74 0d bd fc 61 03 3c
       -0.04012668 0.05423468 -0.034535054 0.008018967
0000b0 12 7a 89 bd ff a3 e9 3c 26 c9 a1 bd b1 0a 1e bb
       -0.06712736 0.028520582 -0.07899694 -0.002411526
0000c0 5f e5 88 3a 79 a4 71 bd 86 50 03 bd 92 14 66 bc
       0.0010444334 -0.058994744 -0.032059215 -0.01404299
0000d0 33 e5 96 3d ce 9e 2e 3d 10 33 35 bd 5d b9 36 3d
       0.07367935 0.042631917 -0.04423815 0.04461037
0000e0 0c da 0a 3d 6a ed 31 bd 18 04 85 3c b9 b3 a3 bc
       0.033899352 -0.043439306 0.016237304 -0.01998316
0000f0 03 f4 1a 3d bf 1c 3b 3d d4 37 49 3c e0 7c 1c 3d
       0.037830364 0.04568171 0.012281377 0.038205028
000100 68 fd 69 bc 2f a1 0b bd c1 cf 97 3d 3d 2d 54 3d
       -0.014281608 -0.034089264 0.07412673 0.051800955
000110 83 05 8a bd 02 44 5b 3d e8 04 d7 3b 81 31 20 3c
       -0.067393325 0.053531654 0.006561864 0.009777428
000120 cb 1b 3b 3d b4 fd 60 3d ff b4 86 3c 44 d0 44 3d
       0.045680802 0.05492945 0.016443728 0.04805018
000130 36 97 42 3d 0c 4c 72 bb 83 4a 26 bd 43 34 bf 3d
       0.047507487 -0.0036971597 -0.040598404 0.0933614
000140 39 f9 11 3d 7d ed 27 bc 00 e9 8b bb 71 a7 35 bd
       0.035638068 -0.010249493 -0.004269719 -0.044349138
000150 c0 91 ba 3c f6 69 2b bc 2f 45 80 bd f0 88 0c 3d
       0.022774577 -0.010462275 -0.06263196 0.03431028
000160 cd 2a 87 bb 5f 9a ce 3c 90 7d 16 3d e4 c0 33 3d
       -0.0041249753 0.025220094 0.03674084 0.043885127
000170 f3 7b 98 bd b9 2c f1 3c 2c 68 8c bc 73 e7 6f bc
       -0.074455164 0.02944027 -0.017139517 -0.014642584
000180 13 11 de ba f7 b7 fb 3c d5 47 9d 3c cd d4 43 bd
       -0.0016942344 0.03072737 0.019199291 -0.047810365
000190 10 37 d9 3c 04 8e 82 bd 28 82 d5 3a 7f b0 8c bd
       0.026515514 -0.063747436 0.00162894 -0.068696015
0001a0 54 c6 30 3b b6 5e 8b bb 0d 1d 93 bc 40 ac ea bc
       0.0026973682 -0.004253234 -0.017958188 -0.028646588
0001b0 03 d4 de bc e4 47 ad bc a8 be 4f 3d e8 ef c3 bc
       -0.027200704 -0.021152444 0.050718933 -0.023918107
0001c0 4b 0e 0c 3d 83 77 8a bc fe 13 1c 3d 1b 14 f0 bc
       0.03419332 -0.01690269 0.038105004 -0.029306462
0001d0 bb c5 c2 3a c9 aa 8b bb 24 f9 81 3d 61 54 41 bd
       0.0014859954 -0.0042623025 0.06346348 -0.04719961
0001e0 30 e2 c2 bc 54 61 71 3d eb 3e 63 3d 52 bd 00 bd
       -0.023789495 0.05893071 0.055479925 -0.03143055
0001f0 02 a2 2f bd c1 dd 68 3d bc 07 15 bc 76 f3 b5 bc
       -0.042879112 0.056852106 -0.009096082 -0.022210818
000200 8a 78 71 bd 9f 62 3f bd 52 d6 29 3d d3 1d fa 3b
       -0.058952846 -0.04672491 0.041464157 0.00763295
000210 b2 bd 48 bd b7 4a 56 bd 23 e7 e2 bc f6 71 e2 3c
       -0.049009033 -0.052317347 -0.027698105 0.027642231
000220 08 87 8d ba a1 30 61 bd d5 50 62 3d 22 18 9c bc
       -0.0010797689 -0.054978017 0.05525287 -0.019054476
000230 27 eb 1d 3c 02 3c a3 3c 14 e0 ff ba d3 6c bd 3c
       0.009638584 0.019926075 -0.0019521737 0.02312318
000240 bd 85 5e 3d cd 1f 01 3d 23 d7 8b 3c 4f 4b c4 3c
       0.05432676 0.03152447 0.017070359 0.023961691
000250 e5 49 05 3d 68 ef 82 bd 28 23 68 3b 3c e6 23 3c
       0.032541174 -0.06393319 0.0035421345 0.010003623
000260 fc c0 8f bd cf 3c 4c bc c8 55 2c 3d e0 52 db bc
       -0.07019231 -0.01246567 0.042073995 -0.026772916
000270 3e 51 9b bd f6 38 91 3c 35 84 cb bc f0 f5 79 3d
       -0.07583855 0.017727356 -0.024843315 0.06102556
000280 16 a6 40 3d 05 b2 86 bd c2 36 47 bc 99 c6 31 bd
       0.047033392 -0.06576923 -0.012159051 -0.043402288
000290 7d e2 8d bc 64 40 21 3d 5b 04 17 bd 7b 07 7e 3c
       -0.017319912 0.03936805 -0.036869388 0.015504713
0002a0 dc 60 4d 3d af a3 3c bd bd d8 d0 bc 55 a1 9f 3d
       0.0501412 -0.04605454 -0.025493974 0.077944435
0002b0 ab bc 48 bc 6f 03 69 3d cf dc 4b bd a0 41 13 3d
       -0.012252013 0.05688804 -0.049771126 0.035951257
0002c0 bf 2d 75 3d 88 9b 81 3d 16 bc 40 bd 3b 90 09 bd
       0.05985808 0.06328493 -0.047054373 -0.033584815
0002d0 cf 9d 46 3d 79 86 0e 3c 9b 80 47 3d 19 0b 4d 3d
       0.04849034 0.008699053 0.048706632 0.05005941
0002e0 9b 59 81 bd d6 4e 53 bd 82 02 57 3d 5b 15 41 3b
       -0.06315919 -0.051588856 0.052492626 0.0029462192
0002f0 c6 da f0 3a 1e c9 1c 3b c3 95 33 bd fe d4 52 3d
       0.0018375746 0.0023923586 -0.043843996 0.051472656
000300 12 7b db 3c dd 1a f8 3c 29 26 77 3d 76 c2 cb 3c
       0.026792083 0.030286247 0.060339127 0.024873
000310 f4 38 15 bd 38 47 28 3d cd 4d 4f 3d 68 ed 1d 3d
       -0.036431268 0.041083544 0.050611306 0.038556486
000320 81 7d 5b bc 27 24 00 bb 19 bf 34 3d 00 52 0f bd
       -0.013396622 -0.0019552798 0.044127557 -0.03499031
000330 92 93 19 3d 31 3e 9b 3d 8e 21 b5 3b c3 db 44 3c
       0.03749425 0.075802214 0.0055276817 0.012015286
000340 7f 6c 14 bd 63 cc 1e 3c 38 b1 d8 3c 2d f1 14 3d
       -0.036236282 0.009692284 0.026451692 0.036362816
000350 2f 70 13 bd 5e cd b7 bc cb a7 0f 3d b9 11 db bc
       -0.03599566 -0.022436794 0.03507213 -0.02674185
000360 0c b9 32 3b 1d 94 bd bc 9f e6 1f bd f6 2b da bc
       0.002727094 -0.023141915 -0.039038297 -0.02663229
000370 0f f2 b6 bd 44 ef 90 3d c3 e9 c8 3b d1 61 4a 3d
       -0.08932888 0.07076886 0.006131382 0.04940969
000380 18 d7 4c 3d 0f 89 79 bc 6c fb 04 bd e1 c2 15 bb
       0.050009817 -0.015230431 -0.032466337 -0.0022851753
000390 33 98 00 3c 82 bd 8c 3d d5 07 ca 3c b4 63 c5 3c
       0.007848787 0.06872083 0.024661938 0.024095394
0003a0 69 d2 69 bd 93 54 53 3c f4 51 23 bd bc e2 46 bd
       -0.05708543 0.012898582 -0.03987308 -0.048556075
0003b0 3b 7d 4c ba 8f f0 28 bd 09 b3 37 3d 79 65 14 bd
       -0.0007800643 -0.04124504 0.044848476 -0.036229584
0003c0 ed a0 04 3d d3 81 9d bc d8 68 a4 bc 17 f2 85 bd
       0.032380033 -0.019226944 -0.020069525 -0.065403156
0003d0 6f aa 62 3b f7 11 09 bc cf b6 11 3d cb 3e 81 3d
       0.003458645 -0.0083661 0.03557473 0.06310805
0003e0 73 59 f0 3c 77 cb 67 3d a1 29 52 bd fb db 54 bd
       0.029339528 0.056590524 -0.05130923 -0.051967602
0003f0 44 b0 11 bd 37 73 54 bd 42 09 88 3d 58 f5 3c 3c
       -0.03556849 -0.05186769 0.06642391 0.011533104

model.6.weight f4 [256, 256]
000000 a2 5b 1f 3c 89 40 df 3d 2c 37 a4 3c 98 82 0f 3d
       0.009726437 0.10900981 0.02004584 0.035036653
000010 0d 64 38 3d 87 3e 7c bc 10 ba 3c 3d b5 80 8b bb
       0.04501729 -0.015395767 0.04607588 -0.0042572864
000020 f2 fd 5e bd ea ad 94 3c c2 d6 54 3d 76 33 a1 bc
       -0.0544414 0.018149335 0.05196262 -0.019677859
000030 eb ed f0 3c 4b d0 85 bb 0f d1 5e 3b 12 5e e3 3c
       0.029410323 -0.0040836683 0.003399912 0.027754817
000040 66 7e 24 bd 81 1b 92 3c f1 a7 84 3d f3 1e 12 3d
       -0.040159605 0.01783538 0.06477345 0.035674047
000050 87 6e 17 bd 77 b8 93 3c 3f 12 74 bd 36 bd 43 3c
       -0.03697064 0.018032296 -0.059587713 0.011946967
000060 ce 75 86 bd 62 d4 9c bd 78 a4 06 3a 65 d3 16 3d
       -0.06565438 -0.07657696 0.0005136202 0.036822695
000070 13 ab ee 3c fc 2e 29 bd c2 f5 be 3c 37 e9 45 bd
       0.029134309 -0.041304573 0.023310546 -0.048318114
000080 a4 14 03 bd 4c 81 24 bc c6 6b ff 3c c0 50 2c 3d
       -0.032002106 -0.010040592 0.03117932 0.042069197
000090 c0 56 87 bc 47 55 91 3c e5 f1 84 3d de f7 f0 3c
       -0.016520858 0.017740859 0.0649145 0.029415067
0000a0 8b 98 65 3c 18 68 4b bd 8a 5d e9 3c 7c fc e0 bd
       0.01401342 -0.04965982 0.028486986 -0.109856576
0000b0 1f 11 4a 3c 5c fb a0 bc 79 5a 16 3d 27 e1 a3 3d
       0.012333184 -0.019651107 0.036707375 0.08001929
0000c0 80 a7 69 bd d8 76 6c bd 8a 28 4b bc 1f 48 1a 3d
       -0.057044506 -0.057730526 -0.012399802 0.037666436
0000d0 ef b9 45 3c cd 12 89 3d 3e 78 3b 3d 66 80 b5 bd
       0.012068256 0.06693039 0.04576897 -0.08862381
0000e0 27 b5 1e bd 90 28 e4 3b 61 b3 b9 bd 7e 1b 6f bd
       -0.03874698 0.0069628432 -0.09067417 -0.058375828
0000f0 0e 99 37 bb b2 98 dd bc c0 1a ad bd c0 19 c7 bb
       -0.0028014812 -0.02705035 -0.08452368 -0.0060760677
000100 2d 1c 02 bd ab 9d 52 3d 2d ce 92 bc 33 6d 4f 3d
       -0.03176515 0.051419895 -0.017920578 0.05064125
000110 24 db 5d 3c a4 42 68 bd 0b 98 8b bd 6b d0 bf 3c
       0.013541017 -0.05670418 -0.06816109 0.023414811
000120 ef 7f 82 3c 6c c7 42 3d 46 4c 1f bd fd 43 60 3d
       0.015930144 0.047553465 -0.0388911 0.05475234
000130 22 cd 30 bb b5 85 4b 3d a1 f1 93 3d 68 84 40 3d
       -0.0026977737 0.04968806 0.072238214 0.047001272
000140 ee 81 95 3c 4d 8f 0f 3d 05 90 8b bc bb 35 78 bd
       0.018250432 0.03504877 -0.017036447 -0.060598116
000150 75 f0 3c 3d 9f 40 6c 3a 23 ce 85 bd 25 9c b8 3c
       0.046127755 0.0009012315 -0.06533458 0.022535393
000160 f7 b0 d9 3c 67 cc 64 3c 95 e5 3a bc 88 20 80 3d
       0.026573641 0.013964749 -0.011407276 0.06256205
000170 30 67 de 3d c2 d7 81 bd f9 12 46 bd 4b 7d 77 3c
       0.10859525 -0.06339981 -0.048357937 0.015105556
000180 93 4e 95 bd c8 9a 51 bc ba 2c 8e bd 71 87 97 bc
       -0.072903775 -0.01279325 -0.06942125 -0.0184972
000190 b1 28 d4 bb 80 cf 8c 3d d3 4c a7 bc 45 d1 65 bd
       -0.0064745774 0.06875515 -0.020422375 -0.056107778
0001a0 1f 91 9e bd 13 6a 37 bd a2 ff 23 bd 76 d6 8b ba
       -0.077425234 -0.044778895 -0.040038712 -0.0010668773
0001b0 aa 87 5f bd e6 f1 c1 3d 79 c2 2e bd d4 0a b9 3c
       -0.05457274 0.094699666 -0.042665932 0.022588171
0001c0 5e eb a9 bd 24 44 e5 bc c0 32 e7 bc 49 8a 8e bd
       -0.08296846 -0.027986594 -0.028222442 -0.069599696
0001d0 4a fb ee bb 44 8b ad 3b be e8 81 3d 13 db 1a 3d
       -0.0072931396 0.005296143 0.0634322 0.03780658
0001e0 0b 03 1d 3c 15 53 c0 bc e3 11 df 3b 64 fa fe 3b
       0.009583245 -0.023477117 0.006807552 0.0077813137
0001f0 ce 03 21 bd 18 b7 df 3d ba dc 21 3b 83 ad 7c b9
       -0.03931027 0.10923594 0.0024698214 -0.00024097231
000200 b3 dc ca bd e7 22 07 bd d7 fc 1f bd c7 f5 4f 3b
       -0.09905376 -0.03299227 -0.039059486 0.0031732188
000210 aa d1 72 bc b5 a0 6f bd 46 d3 7e bb 89 0e a6 3c
       -0.014820496 -0.05850287 -0.0038883253 0.020270603
000220 71 d2 a3 bd 8b a3 e8 bc 19 2b b6 bc 23 c7 ca bc
       -0.07999123 -0.028398296 -0.022237347 -0.024753159
000230 25 70 54 bd fa 7d 9f bb 2a 98 9b 3b fc c3 c4 38
       -0.05186476 -0.0048673125 0.004748364 9.382513e-05
000240 d1 b5 29 3d 3e 46 84 3d ba 23 0b 3d f0 b5 e0 3c
       0.04143316 0.0645871 0.03396962 0.027430505
000250 8e 0f ef 3a 4f 68 47 bd 65 9f 84 bc cb f8 f5 3c
       0.0018238889 -0.04868346 -0.016189286 0.03002586
000260 a8 70 a2 bc 9f 4b 61 3c e8 65 61 bd 11 ee 33 3d
       -0.01982911 0.01375094 -0.055028826 0.04392821
000270 d7 0b 80 3c 53 af 65 bb 20 67 1e bd 86 39 8c 3d
       0.015630646 -0.0035047128 -0.038672566 0.06846909
000280 18 05 51 bc b1 29 bd 3c 9a 76 53 3a 47 ac a4 bd
       -0.012757562 0.02309117 0.0008066684 -0.08040672
000290 64 37 d9 bb f2 81 81 3d 5a 00 9f 3d 7c cc 98 3b
       -0.0066289175 0.06323613 0.07763739 0.0046630483
0002a0 1a 62 24 3c 08 d8 2b 3d f0 ec dc 3b c1 79 ae 3d
       0.010033155 0.04195407 0.0067421123 0.085193165
0002b0 33 99 08 bd c7 42 43 3d bb ec b0 3c 99 28 a7 3c
       -0.033349227 0.047671106 0.021597257 0.0204051
0002c0 dd e2 f6 bc 6b 16 51 bd d3 ae cf bd 92 12 08 3d
       -0.030137474 -0.05104677 -0.10140767 0.033220835
0002d0 f8 3a 0b 3d d9 96 9b bc 22 58 2e bd e7 f4 1d 3d
       0.033991784 -0.018992828 -0.04256452 0.038563635
0002e0 bb 8a 87 bb 89 ab 10 bd 10 4d 94 bc 39 f7 99 3c
       -0.004136411 -0.03531984 -0.018103153 0.018794643
0002f0 da ec 95 bd c6 15 05 bd 34 ff 7a 3d fb a4 11 3c
       -0.073205665 -0.032491468 0.061278537 0.008889432
000300 de 9f 3f bd f8 9b 76 3d aa 92 16 bd 90 3f 94 bc
       -0.04678332 0.060207337 -0.036760963 -0.018096715
000310 31 09 a1 bc 21 e0 e7 bc 69 7f 86 bd 4d d6 e6 bc
       -0.019657703 -0.028305115 -0.0656727 -0.028178358
000320 de 39 4e 3c 2d 13 90 bd 61 17 bc 3b d7 c6 f0 3b
       0.012587039 -0.070349075 0.0057400917 0.0073479223
000330 0f 9e a6 bd e7 3b b4 3b 3e 14 12 3d 6c 3a 27 3c
       -0.08135616 0.005500305 0.035663836 0.0102068
000340 ab 19 71 bb 0d 36 b1 3c c3 21 ef 3b f5 f2 90 3c
       -0.003678898 0.021632219 0.007297726 0.017693976
000350 7d bf 1b 3c 39 a8 de 3c d3 2e 37 bd fc 68 1d 3d
       0.009506104 0.027179824 -0.04472239 0.0384302
000360 33 ec 31 3d 0f f8 48 3d 8d 1f b8 3c a4 64 12 bd
       0.043438148 0.049064692 0.022475982 -0.03574051
000370 88 f8 55 bd 56 ee 1f 3d 12 24 ab 3d 8c 81 87 3d
       -0.05223897 0.039045654 0.08356489 0.06616506
000380 eb b9 44 3c 81 c3 c9 3c ae 89 be 39 73 1a 94 3d
       0.012007217 0.024629356 0.00036342203 0.07231607
000390 48 ae 66 3d fa ae 34 3d cd 15 88 3b 3c c3 db bc
       0.05631855 0.044112183 0.0041529895 -0.026826493
0003a0 e1 0c 95 bc f8 0c d1 3c ee 82 a7 bc 1f 04 a7 3d
       -0.018194618 0.02551888 -0.020448174 0.08155083
0003b0 c2 c2 d2 3c 08 d0 25 3d b7 e7 cc 3b 8d 2b 97 bd
       0.025727633 0.040481597 0.0062532085 -0.073813535
0003c0 a5 bc b1 3d 93 82 87 3c 15 2c 8c bd 66 70 42 bc
       0.08678559 0.016541755 -0.068443455 -0.011867618
0003d0 09 fe 8a bc 4c 8f 98 bd 23 71 b9 bd d5 33 82 3d
       -0.016966837 -0.07449207 -0.09054782 0.063575424
0003e0 a2 11 4c 3d bd d3 56 3d 8e eb 77 bd c4 45 f5 3c
       0.049821503 0.052448023 -0.060527377 0.029940493
0003f0 98 c3 a7 bd 95 60 37 bd eb 53 98 3d 8c 05 a4 bd
       -0.081916034 -0.044769842 0.07437881 -0.080088705

model.6.bias f4 [256]
000000 fd 2c 2f 3d 93 32 5a bd 82 ae 6f bd 0f 33 ba 3c
       0.042767514 -0.053270888 -0.058516033 0.022729425
000010 9d 26 06 3d 5d 8b b2 bc e5 c4 73 3d f8 3d 9d 3d
       0.03275167 -0.02179497 0.059513945 0.07677835
000020 44 e6 46 3c dd d2 a3 3c 54 1e f3 ba ea db a7 3b
       0.012139861 0.019998008 -0.0018548467 0.0051226513
000030 0c e0 43 3c 14 d7 e1 bc 68 8b 08 3c f9 c2 98 3d
       0.011955272 -0.027568378 0.008334018 0.07459063
000040 a0 ad 39 3d 95 7d e9 3b 84 a2 a8 3c 6b 6c 45 3c
       0.045331597 0.0071255662 0.020585306 0.012049775
000050 7d 7d 29 3d 7d 56 b4 bc ab 51 4a 3d 2c 9e 21 3d
       0.04137944 -0.022013897 0.04939429 0.039457485
000060 09 4b c9 3b 4d 5e fd 3c 77 47 45 3d 55 34 32 bd
       0.006142978 0.030928755 0.048163857 -0.04350694
000070 41 0b a2 3d 95 03 58 bc 36 03 cc bc 8e f0 96 bc
       0.07912303 -0.013184448 -0.024903875 -0.018425252
000080 83 3f 06 3d a6 25 5c bb 24 b9 10 3d 8c 8e 6c 3d
       0.032775413 -0.0033591776 0.035332814 0.05775313
000090 7f 79 07 bd 6d 5c cc 3c ab bc b0 bc 6c e2 dd bc
       -0.033074852 0.024946416 -0.021574339 -0.027085505
0000a0 b3 c5 35 3d c9 7d f0 3b 7c 75 c2 3c 33 c5 0c bd
       0.044377994 0.0073392135 0.023737662 -0.03436775
0000b0 e2 79 b1 bc b0 cb 6b 3d a5 3d 72 3d df ba c1 3c
       -0.021664564 0.0575673 0.05914082 0.023648677
0000c0 99 d4 39 3c 83 1f bf bc 09 4c 7a bd c3 4b 3d 3d
       0.011342191 -0.023330456 -0.06110767 0.04621483
0000d0 c6 94 d0 3b 21 01 85 3d 1a 8e 67 bd 4c 7d 93 3c
       0.0063653914 0.06494356 -0.056532003 0.018004082
0000e0 2d 3c 04 3d 1b 11 6c bd da 1c 7f bd 59 4b b1 bb
       0.03228395 -0.0576335 -0.062283374 -0.0054105935
0000f0 34 55 66 3c 9b 7b b2 3c c2 fd 36 3d 06 d5 3e 3d
       0.0140584 0.021787455 0.044675596 0.046589874
000100 b7 e8 42 3d 96 e3 42 bd 54 54 b4 bc 51 30 1d bc
       0.047585215 -0.047580324 -0.022012867 -0.009594039
000110 23 c9 65 3d a4 06 c8 bc 69 bf 1a 3d 87 15 88 3c
       0.056100022 -0.024417229 0.0377802 0.016611828
000120 07 64 e8 bc ec 99 8d 3d 3e 0c 48 3c 51 f8 71 bd
       -0.02836801 0.06914124 0.01220995 -0.059074704
000130 f3 17 05 bd 6a 4a 5c 38 3c a9 4e 3d 63 9a 90 3d
       -0.032493543 5.252139e-05 0.050454363 0.07060697
000140 cf a3 2f bd 6c 5e 15 bc 2d f3 86 3d 5f ec 0f 3d
       -0.04288083 -0.00911675 0.06589351 0.03513753
000150 1b de 64 3d 33 73 72 bc 2d 29 86 bd 43 82 aa bc
       0.05587588 -0.014797973 -0.065508224 -0.020814067
000160 14 dd e7 bc ad be 84 3d 89 0d 4d 3d cf 29 7c 3d
       -0.02830366 0.06481681 0.050061736 0.06156331
000170 96 40 82 3d 0c 9c d3 3c 4b f6 45 3d 14 d7 91 bb
       0.06359975 0.025831245 0.048330586 -0.004450688
000180 16 4d e3 bb ee f8 97 bc 14 41 f3 3c 29 03 66 bd
       -0.0069366796 -0.018551316 0.029694118 -0.056155358
000190 5e 07 07 bc ac fa ca 3c e2 6b 56 3d 3a a4 87 3b
       -0.008241503 0.024777733 0.05234898 0.0041394504
0001a0 37 87 28 3c 90 f8 b3 3d 87 91 ab bc 69 f9 81 3d
       0.010286144 0.08787644 -0.020943416 0.06346399
0001b0 5a f5 4b 3d 14 de 54 3d 71 08 6b 3d 27 87 1d bc
       0.049794532 0.051969603 0.057381097 -0.009614742
0001c0 30 27 46 3d 38 43 e7 bb 6c 9d dc b9 14 cb 43 3d
       0.048377216 -0.0070575736 -0.00042078958 0.047801092
0001d0 e4 30 5a 3c 7b d6 f5 3c c1 9d 06 3d 2a 43 ad 3d
       0.0133173205 0.030009499 0.03286529 0.08460076
0001e0 26 31 6e 3d 26 fe 82 bc be 3f b2 bb 55 9f 05 3d
       0.05815234 -0.015990328 -0.0054397276 0.032622654
0001f0 8b 21 8d 3c 85 b0 48 3d ee 91 3a 3d e5 37 8c 3d
       0.017227909 0.048996467 0.045549326 0.068465985
000200 56 8f 33 3d 78 e8 ba 3c 5f 92 66 ba 8a ae 8b bc
       0.043837868 0.022815928 -0.00087956147 -0.017051
000210 d1 06 12 bc ba e4 22 3c 3a 14 c5 bc 61 23 28 bc
       -0.008912758 0.009942228 -0.024057496 -0.010262341
000220 c7 a4 5b 3c 4a b3 47 3d f9 bd 96 bc a0 f9 3c 3d
       0.013405985 0.048754968 -0.018401133 0.0461365
000230 d6 70 c3 3b 29 dc 20 3d b0 75 9b bc 35 9f a5 bd
       0.005964379 0.03927246 -0.018977016 -0.08087007
000240 f9 65 83 3d 1e fe be 3c d8 fd 0e 3d 20 a3 56 bc
       0.06415934 0.023314532 0.034910053 -0.0131004155
000250 01 0d 52 bd f8 45 2b bd 74 b5 3a bd 14 46 55 bd
       -0.051281933 -0.041814774 -0.045583203 -0.052068785
000260 29 35 6f bc 49 44 1a 3d 6a c6 56 3b d8 b0 52 bd
       -0.014600077 0.037662778 0.0032772073 -0.051438183
000270 5a f8 ea bb 89 b2 fc bc 09 e9 3b bc d2 04 b6 3c
       -0.007170719 -0.030846851 -0.011469134 0.022219095
000280 cd 2e a9 bc 04 1a 80 bc 22 10 8c 3d 0c 27 48 3d
       -0.0206522 -0.015637405 0.068390146 0.048865363
000290 80 a5 79 3d a9 9a 7b bc ee b3 23 bd 0f f4 56 bd
       0.06094885 -0.015356698 -0.039966516 -0.052478846
0002a0 b8 91 f1 39 17 c8 6b 3d 86 eb 92 bd e6 ce 1a 3d
       0.0004607567 0.057563867 -0.07173829 0.03779497
0002b0 ec ba a9 bc b9 0d 37 bd 70 49 83 3c a7 fb 60 3c
       -0.020719014 -0.04469082 0.016026229 0.013731874
0002c0 ae 83 1e 3d 3d 8a 61 ba 9e f7 e9 3c e8 20 4b 3d
       0.0386998 -0.0008603668 0.028560456 0.04959193
0002d0 44 a2 4f 3d 92 0c ca 3c e8 1a b4 3c ed bc 96 bd
       0.050691858 0.024664197 0.021985486 -0.073602535
0002e0 46 32 9b 3b 04 85 8d 3d a5 23 82 bd 49 52 28 bd
       0.0047362177 0.06910136 -0.06354455 -0.0410941
0002f0 0e e4 aa 3d 5b 7b 93 ba 77 c0 f4 bc e9 3e 83 3c
       0.08344279 -0.0011251973 -0.02987693 0.016021209
000300 d8 95 9c bd 94 c4 30 bd b2 07 5f 3d 80 49 9b 3c
       -0.07645768 -0.04315622 0.0544507 0.018955946
000310 03 f3 6f 3d d6 93 8a 3d b2 c5 ff bc 89 07 cb bc
       0.058581363 0.06766479 -0.031222198 -0.024783866
000320 49 90 5e bb d1 99 3d 3d e7 bd 50 3d 29 78 58 3d
       -0.0033960512 0.04628927 0.050962355 0.05284897
000330 97 82 27 3c 43 63 c1 3c f1 0b c6 3c 58 33 7f bd
       0.010224006 0.023606902 0.024175616 -0.062304825
000340 e9 06 99 3d 07 cd 66 3d d9 86 71 bc 19 f4 35 3d
       0.07472021 0.056347873 -0.014741623 0.044422243
000350 ec 1f 91 3c c7 68 cf ba 33 3d 7b 3c 9a da 34 3d
       0.017715417 -0.0015824073 0.015334415 0.044153787
000360 90 a6 65 bd e3 98 04 bc 0e c5 cf 3c d4 d2 33 3d
       -0.05606705 -0.008093092 0.025362518 0.043902233
000370 37 ae 44 bd 78 4d c7 bc 1b 81 07 bd ff 8a a7 3c
       -0.048017707 -0.024328932 -0.03308211 0.02045202
000380 27 28 01 3d 1a 96 a7 3c df 59 71 3d 81 58 d6 bc
       0.031532433 0.020457316 0.0589236 -0.026165249
000390 39 f0 96 bc 9e 0f 99 bc 94 8b ac bc b8 8f fd bb
       -0.018425094 -0.018684205 -0.02106265 -0.00773808
0003a0 53 0e 45 3d bf 4f 63 3d d0 7e 06 bd af 30 b6 3b
       0.048109364 0.055495974 -0.03283578 0.0055600028
0003b0 d5 e5 24 3d d0 0e b6 3d 5d 2f 01 3d dd 80 d0 3c
       0.040258247 0.08889544 0.03153931 0.025452072
0003c0 0f 23 7d 3d 78 a4 ce 3c 9c 13 5c bd e6 80 80 3d
       0.061801013 0.02522491 -0.05372964 0.062745854
0003d0 17 cc 60 3d 88 2c 51 3c 7d cd 7f 3d b6 90 24 3d
       0.054882135 0.012766965 0.06245183 0.04017707
0003e0 3c 6f 9c 3d cc a7 03 bb 9a 3f 01 3d 3d 55 a7 3d
       0.07638404 -0.0020089028 0.031554796 0.08170555
0003f0 f5 75 39 3a ff 8a 87 3d 6a 6f 43 3d 92 ed 17 bd
       0.0007074767 0.06618308 0.047713675 -0.0370918

model.9.weight f4 [1, 256]
000000 d8 79 fc bc b4 6f 71 3d ed da 45 3d ed 52 39 3d
       -0.030819818 0.05894442 0.048304487 0.0452451
000010 19 a9 1f 3d 9b 37 de 3c af 1b 32 bd a2 1d a5 3d
       0.038979623 0.027126124 -0.043483432 0.08062293
000020 67 67 f3 3a 3e ec 89 3d f5 b3 76 3d ab a5 21 bd
       0.0018570245 0.06734513 0.060230214 -0.039464634
000030 84 bc 60 3d 28 31 72 3c 0d 4c 0a 3d ab 53 3a 3d
       0.054867283 0.014782228 0.033763934 0.04548995
000040 04 a6 aa 3c 20 d6 92 bd c6 bb 35 bd 39 b7 0b bd
       0.020831116 -0.07169747 -0.044368528 -0.03411028
000050 fa 45 4d bd 9e 0c cc 3c 4e 10 b3 3d b7 5b fd 3c
       -0.050115563 0.02490836 0.08743344 0.030927522
000060 02 93 90 3d 91 82 ce 3c 2d a4 b0 bd 8a 56 a2 bd
       0.070592895 0.025208743 -0.08625064 -0.07926662
000070 2f 56 2b bd db 27 71 3d ef 9c 7b bd 43 8d 01 bd
       -0.041830238 0.0588759 -0.06142896 -0.03162886
000080 52 0b 62 3d 0e f3 bb 3c 94 51 8e 3d f2 a1 8e 3d
       0.055186577 0.022943046 0.069491535 0.06964482
000090 a5 e3 3e 3d 02 4f 14 bd 10 90 a6 bd 07 29 8d 3d
       0.046603817 -0.03620816 -0.081329465 0.06892591
0000a0 9a c8 68 3d 1b 84 79 3d 70 20 d1 bc 64 93 23 3d
       0.056831934 0.060917 -0.025528163 0.039935485
0000b0 fc 2c 24 3d a0 a8 1c 3d 61 89 a4 bd da 0b 73 3d
       0.040081963 0.03824675 -0.080340154 0.059337474
0000c0 61 d3 98 bd 39 03 72 3d d8 83 8a 3c 20 51 55 3c
       -0.07462192 0.059085105 0.016908571 0.01301983
0000d0 ba 11 cb 3c 26 5b 94 bd aa 98 9b 3c fd d0 32 3d
       0.024788726 -0.07243948 0.018993694 0.043656338
0000e0 60 d3 af bd 49 67 67 bc 24 6a 49 3c 5d db 8b 3c
       -0.085852385 -0.014123746 0.012293372 0.017072374
0000f0 e7 23 45 3d ce 28 a8 bd 5f 48 91 bd 94 19 46 3d
       0.048129942 -0.08210908 -0.07093882 0.048364237
000100 b5 b3 8d bd f9 24 d3 3c 49 cd b7 3c e0 19 7b bb
       -0.06919042 0.025774466 0.022436755 -0.0038314983
000110 55 57 91 3d 08 b9 58 bd 8e 04 49 3b 21 44 52 3d
       0.070967354 -0.052910835 0.003067288 0.051334504
000120 35 a9 e5 bc b2 4c 98 bd a9 48 ab 3d f4 27 0d 3d
       -0.028034786 -0.074365035 0.08363468 0.03446193
000130 87 f3 29 bd 48 dc a3 bd 7f 9e 8e 3d fb e3 67 bd
       -0.04149201 -0.08001 0.069638245 -0.056613903
000140 0e b7 5e 3d 08 c9 60 bd 9d a3 9a 3d 2a ab 6c bd
       0.054373793 -0.05487922 0.07550738 -0.057780422
000150 8f 52 2a 3d 82 31 a8 bc f0 83 9e 3c 37 ea a6 3c
       0.04158264 -0.02053142 0.019350022 0.020375354
000160 c8 9c 6d bd 89 1d f4 3c b7 f9 cb 3d 22 9c 2e 3d
       -0.058010846 0.02979924 0.09959739 0.04262937
000170 9f 8d 76 3d dc 08 2b 3d c4 c8 66 bd 5e 4c fc 3c
       0.060193654 0.041756496 -0.05634381 0.030798133
000180 80 e7 f5 bc e2 7f aa bd 17 ca 80 3d 4f c1 51 3d
       -0.030017614 -0.08325173 0.062885456 0.051209744
000190 a9 04 66 bc 79 59 1f bd 0a ab 25 bd f6 90 f5 bc
       -0.014039197 -0.038903687 -0.04044632 -0.02997635
0001a0 08 c5 37 3d 48 9e a2 bd 06 70 a5 3d 2e 18 ee 3c
       0.044865638 -0.07940346 0.080780074 0.029064264
0001b0 85 59 f7 3c b6 a1 92 3d 28 a1 65 bd 15 c2 ad 3c
       0.030194053 0.0715975 -0.056061894 0.02121071
0001c0 1f e3 00 bd c2 8d 81 3d f5 f2 b9 3d a1 5a d0 3c
       -0.0314666 0.06325866 0.090795435 0.02543384
0001d0 fc 78 3a bd d3 a6 a8 bd 3b ec 86 3d 8d db 0f bd
       -0.045525536 -0.08234944 0.06588026 -0.03512149
0001e0 4a 7f 30 bd 5a 98 6a 3d b1 f7 15 bd 80 b8 a8 bc
       -0.043090142 0.0572742 -0.03661317 -0.020595789
0001f0 e2 4c 83 3c 4f f1 89 bd e5 88 69 bd 03 05 81 bd
       0.016027872 -0.06735479 -0.05701532 -0.06299784
000200 a7 c3 77 bd 19 34 af bd fe 4b 8f 3d dd cb cd 3c
       -0.060489323 -0.08554859 0.06996916 0.025121624
000210 a3 7c c5 3d a3 ec e2 3b 4f 3d 52 bd bf 5c 5b 3d
       0.09642913 0.006925182 -0.051328 0.053555246
000220 76 96 13 bb 6c 8a 7a 3d 4d a8 d1 3c 84 e9 82 bd
       -0.0022520102 0.061167166 0.025592947 -0.06392196
000230 39 54 96 bd 14 a7 12 bd b4 0e 0e bd 9d 42 e1 3a
       -0.07340283 -0.03580387 -0.03468199 0.001718599
000240 aa b8 88 bd 81 56 66 bd 93 21 ad 3c 1f b8 2e bd
       -0.06675847 -0.05623484 0.021134173 -0.04265606
000250 a4 98 ed bc 1d e1 a9 3d 26 df 83 3d 18 a9 8b 3d
       -0.029003449 0.0829489 0.064390466 0.068193614
000260 cf 00 3b bc 43 fe 9d 3d 60 e3 17 3d ee 10 28 bb
       -0.011413767 0.07714512 0.037082076 -0.0025644857
000270 26 2b 0c 3d f0 26 99 3d 44 91 22 bd 7c df 92 bd
       0.034220837 0.0747813 -0.039689317 -0.071715325
000280 f8 60 0a 3d 02 f8 ac 3d 0a 33 82 bd a0 79 16 bd
       0.033783883 0.08445741 -0.06357391 -0.036737084
000290 6d a7 a3 3d 22 43 a3 3d 07 ef a6 3d 50 2a 20 3b
       0.07990918 0.07971789 0.081510596 0.0024439283
0002a0 fe f0 da 3d 0a cd 9e 3d b1 2b 1e 3d 05 ac 3f 3d
       0.10690497 0.07753952 0.038615886 0.04679491
0002b0 e4 15 6a bd a4 d1 ae 3c db 24 14 bd b4 1e ee bc
       -0.057149783 0.021340199 -0.03616796 -0.029067375
0002c0 da 21 37 3d e8 7f 51 3d d7 d3 ab bd 0d 35 a3 3d
       0.044710018 0.05114737 -0.083900146 0.07969103
0002d0 fa e6 fb bc 31 8b dc ba 6a d9 92 bd 4b ac d4 bc
       -0.030749787 -0.001682615 -0.07170375 -0.025961062
0002e0 35 9c 3b 3d de f6 ef bc 79 bf f6 bc 6d 83 ae 3c
       0.045803268 -0.02929252 -0.030120598 0.021302903
0002f0 08 65 24 bd 0a 84 65 bd a7 0c 67 3d bc e2 24 3d
       -0.040135413 -0.056034125 0.05640855 0.040255293
000300 8f 59 c1 bc 74 14 53 3d de 5f 58 3d 1a 8a 6d 3c
       -0.023602275 0.051533177 0.0528258 0.014498258
000310 1a e0 3e bd 26 a9 74 bd 6e 7b ed 3c 9b 10 89 3d
       -0.04660044 -0.059731625 0.02898952 0.0669262
000320 59 4d 85 3d a3 95 80 3d b0 7c a0 bd 69 19 ce bd
       0.065088935 0.06278541 -0.07836282 -0.1006344
000330 4e f6 66 bd ec 1d bb 3c b2 15 46 bd ef 24 b7 bc
       -0.05638724 0.022841416 -0.048360534 -0.022356478
000340 0c c6 46 bd 2f c9 a9 bd 49 b4 27 3d 4e 19 cd bc
       -0.048528716 -0.08290326 0.040943418 -0.02503648
000350 58 ab 8b bd a6 69 8f 3d 31 2a 9c bd d8 45 8b 3b
       -0.068197906 0.07002573 -0.07625235 0.0042502694
000360 3f 40 83 bb cd c2 10 3d 85 dc 8e 3d a6 f2 00 bd
       -0.0040054615 0.035342027 0.069756545 -0.031481408
000370 c1 ad a6 3d cf bb 2c bd 2c e2 6c bd f2 6d c2 bd
       0.0813861 -0.042171296 -0.05783288 -0.09493627
000380 62 2a ae 3d 1a f6 75 bc 23 6e 58 bd 37 4c 06 3d
       0.08504178 -0.0150122885 -0.05283941 0.032787528
000390 d7 28 50 bd 04 71 94 3d ef b8 12 3d 86 27 93 3c
       -0.050820198 0.072481185 0.035820898 0.017963182
0003a0 4a a5 7f bd 9e 1b 87 3d df 7b 3c 3c 94 1c 92 bd
       -0.06241349 0.065970644 0.011504143 -0.07134357
0003b0 c0 67 37 bd 5c 0d 9d bd b7 43 89 bd 2d fb e5 3c
       -0.044776678 -0.07668564 -0.06702369 0.028073872
0003c0 4b f7 26 bd 0f 58 f7 3c ef a8 39 3d e7 f5 ad bd
       -0.04076318 0.030193357 0.045327123 -0.08494168
0003d0 36 3e 65 3d fd 5b 4b bd 37 db 23 bd 48 c7 41 3d
       0.055967532 -0.049648274 -0.04000398 0.04730919
0003e0 91 19 87 bd 8e 00 9a bd 1c 47 0e 3d c9 26 98 3d
       -0.06596673 -0.07519637 0.034735784 0.07429273
0003f0 a8 5f 3e bd 46 0c 09 bd 1e e5 80 3d ea c4 70 b6
       -0.046477944 -0.03345897 0.06293701 -3.5877406e-06
